trained_model/colorization_model.pth (torch, 132418 bytes, 16 tensors)

encoder.0.weight f4 [8, 1, 3, 3]
0.3142794 -0.14414154 -0.008514478 -0.22221613 -0.27408397 0.25466493 -0.23474322 -0.023268273
-0.27247542 -0.16115473 0.120280966 0.0019024666 -0.11430881 -0.13457464 0.050552633 -0.23304951
0.34651467 -0.09807163 0.3139259 -0.23821518 -0.21754622 -0.10660538 -0.13889977 -0.30264056
-0.08804226 -0.0980684 0.039611697 -0.1544428 0.14147225 -0.2897397 0.0010666533 -0.22437505
0.16200368 -0.19629326 0.038702905 0.24995352 0.2094613 0.19758606 0.10316017 0.021595221
-0.057016104 -0.17543492 -0.010418587 -0.09437604 0.012571836 -0.07525033 0.15792762 0.12903266
-0.40632924 0.007167958 -0.23974536 -0.25532857 -0.15046898 -0.13674842 -0.11893998 0.27868682
-0.34162527 0.22463973 0.17514333 -0.12758076 -0.31412745 0.0731797 -0.060999107 -0.01073369
-0.12520032 0.36065683 0.052767254 -0.1801256 0.10449313 -0.26310772 -0.2877796 -0.11998473
00000000: 3be9 a03e d799 13be 4f80 0bbc a08c 63be
00000010: bc54 8cbe 7163 823e 8760 70be 1b9d bebc
00000020: e681 8bbe bf05 25be de55 f63d 305c f93a
00000030: bd1a eabd efcd 09be 4710 4f3d 88a4 6ebe
00000040: 5f6a b13e c7d9 c8bd e5ba a03e aeee 73be
00000050: 70c4 5ebe ec53 dabd be3b 0ebe b4f3 9abe
00000060: 804f b4bd 16d8 c8bd e03f 223d 4126 1ebe
00000070: 1ade 103e c358 94be f2ce 8b3a 93c2 65be
00000080: 4be4 253e 1a01 49be f086 1e3d d1f3 7f3e
00000090: 067d 563e 0054 4a3e a445 d33d 76e8 b03c
000000a0: b889 69bd 36a5 33be b9b2 2abc 3a48 c1bd
000000b0: 1afa 4d3c d81c 9abd c7b7 213e 2321 043e
000000c0: 630a d0be 31e1 ea3b cf7f 75be 6dba 82be
000000d0: 8a14 1abe c707 0cbe ce96 f3bd 0ab0 8e3e
000000e0: 82e9 aebe f507 663e c658 333e 88a4 02be
000000f0: 50d5 a0be 3ddf 953d 33da 79bd 5cdc 2fbc
00000100: 8334 00be 03a8 b83e 7a22 583d d872 38be
00000110: 7f00 d63d 0eb6 86be d957 93be 8eba f5bd

encoder.0.bias f4 [8]
-0.12900119 0.26025406 -0.26569134 -0.3087061 0.22230048 0.002936376 -0.14116643 0.030002981
00000000: e318 04be 0540 853e b208 88be ba0e 9ebe
00000010: bda2 633e 3770 403b ef8d 10be d0c8 f53c

encoder.2.weight f4 [16, 8, 3, 3]
-0.08382349 -0.011798148 0.013880561 0.091973074 -0.0030600668 0.037277423 -0.11758372 0.06337802
-0.030597357 0.03362674 -0.09710254 -0.15842734 0.037343264 -0.12499738 -0.05833465 -0.047864303
-0.08000507 -0.18683359 -0.061970435 0.075356714 -0.010011911 0.07728615 0.06580024 0.0024806932
0.103763275 0.115794025 -0.09037775 0.03126387 -0.1490042 -0.062310487 -0.011748411 0.05105118
0.025447322 -0.02314794 0.025457546 -0.06020852 0.01421285 0.07265331 -0.06602827 -0.0040476336
0.021996148 0.030959062 -0.073201135 -0.08347797 0.004307216 -0.06079428 -0.04460402 0.07533943
-0.024930563 -0.06650543 -0.03327265 -0.037485883 -0.077027485 -0.14727452 0.027080396 0.08981414
-0.053914282 0.095886864 0.06736614 -0.047852214 0.006524916 0.057201553 0.11031771 0.00519467
-0.013711599 0.04188838 -0.02759325 -0.109563254 0.074070886 -0.115696594 -0.08598005 -0.09334031
0.052256994 0.05192618 -0.11757125 -0.10872301 -0.010009129 0.011917405 -0.10721837 -0.0139860865
0.046728097 -0.056541212 0.06639713 -0.09706717 -0.029550206 0.030703956 -0.02579747 -0.0399258
-0.07606999 0.06806978 0.018081479 0.10872068 -0.041976437 -0.09921706 0.008055501 -0.008456677
0.05704137 0.035179816 -0.10352814 -0.038282625 0.037742637 0.1066313 0.09669236 0.03904321
0.086848155 -0.06579449 0.09325911 0.03332548 -0.17524286 0.02464529 -0.062104557 -0.0359698
-0.13736586 -0.10334215 0.061576292 -0.0040625073 0.021601573 -0.037094817 -0.044874042 0.021023218
0.018752092 0.06928704 0.021483848 0.033247408 0.025381915 0.047428813 0.08987971 -0.042108625
0.09001572 0.008918477 0.014195392 -0.058651447 0.06313919 -0.060473245 0.013918752 -0.051926423
-0.0064360835 0.046199434 0.007125701 -0.08342823 -0.033532877 0.06067531 0.0740252 0.0017283804
-0.057303898 -0.11787376 0.057585973 0.0004896018 0.049916066 0.0451878 -0.048904024 0.007863888
-0.079155385 -0.12040841 0.023243522 -0.23990518 0.022080567 0.039256714 -0.02665827 0.05220664
0.14071886 -0.07883119 0.105881415 0.051934533 -0.02406685 -0.023974814 -0.098295905 -0.045689262
0.06953982 -0.098331265 0.0011483356 0.04704425 -0.1421776 -0.109092005 0.07144569 0.076980904
0.11678258 -0.06887785 -0.06644799 0.06522713 -0.103469975 -0.03415679 -0.13542481 -0.01836206
-0.051088773 -0.0953407 -0.20426913 -0.0076602283 0.076169886 0.040583663 -0.10163409 -0.0897558
-0.09808021 -0.116589196 -0.17564318 -0.093490295 0.061131738 0.0873805 0.065720275 -0.046856783
-0.0052074273 0.041504763 0.15583906 0.0805926 0.007147317 0.13310568 -0.06371386 0.05609211
0.0043842145 -0.10234395 0.027758015 -0.074422665 0.08378789 -0.04714576 0.0937628 0.057025254
0.006351002 0.024709566 -0.056682028 -0.07370751 0.016718669 0.03902109 0.06353614 -0.028694326
0.054539923 0.15940146 0.0010717819 0.021867754 0.032606743 0.050679173 -0.0024331443 0.0016243821
-0.022159703 0.020408154 0.044220634 0.111293845 -0.083499014 0.06542855 -0.03198856 0.07915489
-0.020795181 -0.06306779 -0.104388684 -0.087612614 -0.07298161 0.07746441 -0.10028213 -0.056462
0.054798618 -0.21870911 -0.113206685 0.11714744 0.15362069 -0.12287746 0.13432875 -0.016187102
00000000: a6ab abbd 054d 41bc 4b6b 633c 615c bc3d
00000010: 678b 48bb 36b0 183d bccf f0bd 56cc 813d
00000020: 4fa7 fabc 31bc 093d b2dd c6bd c73a 22be
00000030: 40f5 183d a0fe ffbd 50f0 6ebd 5c0d 44bd
00000040: b3d9 a3bd 4e51 3fbe b6d4 7dbd 9f54 9a3d
00000050: 0009 24bc 3348 9e3d 47c2 863d 2093 223b
00000060: d781 d43d 6b25 ed3d f817 b9bd 8b0e 003d
00000070: 8f94 18be 4839 7fbd 687c 40bc 0b1b 513d
00000080: e776 d03c c0a0 bdbc 588c d03c 369d 76bd
00000090: 03dd 683c 42cb 943d d439 87bd 03a2 84bb
000000a0: 4431 b43c dc9d fd3c 7aea 95bd 7ff6 aabd
000000b0: 8c23 8d3b 6c03 79bd b4b2 36bd 8f4b 9a3d
000000c0: 2e3b ccbc 0034 88bd e748 08bd cc8a 19bd
000000d0: 96c0 9dbd 22cf 16be b5d7 dd3c 7af0 b73d
000000e0: 39d5 5cbd 5560 c43d 42f7 893d af00 44bd
000000f0: f6ce d53b 2d4c 6a3d 40ee e13d 0d38 aa3b
00000100: 9da6 60bc 2693 2b3d 3d0b e2bc b362 e0bd
00000110: 7ab2 973d 56f2 ecbd 4f16 b0bd 3429 bfbd
00000120: 6e0b 563d 8cb0 543d 32c9 f0bd 2baa debd
00000130: 54fd 23bc 3841 433c 4e95 dbbd e625 65bc
00000140: f665 3f3d c297 67bd 38fb 873d 27cb c6bd
00000150: 4613 f2bc dd86 fb3c 3755 d3bc 3c89 23bd
00000160: 95ca 9bbd 2b68 8b3d 9c1f 943c f3a8 de3d
00000170: 7cef 2bbd 5032 cbbd 38fb 033c e08d 0abc
00000180: 36a4 693d b618 103d 9006 d4bd 3ece 1cbd
00000190: 0698 1a3d 8361 da3d a506 c63d c6eb 1f3d
000001a0: 72dd b13d 43bf 86bd a2fe be3d 4c80 083d
000001b0: dd72 33be ebe4 c93c 5961 7ebd 1255 13bd
000001c0: a3a9 0cbe 0da5 d3bd 6c37 7c3d c81e 85bb
000001d0: c8f5 b03c bcf0 17bd d8cd 37bd e238 ac3c
000001e0: fd9d 993c 5de6 8d3d e5fe af3c 6f2e 083d
000001f0: bced cf3c b744 423d da12 b83d 187a 2cbd
00000200: 295a b83d ce1e 123c ca93 683c 803c 70bd
00000210: 1f4f 813d cbb2 77bd 7a0b 643c cdb0 54bd
00000220: c8e5 d2bb 9e3b 3d3d b67e e93b 6bdc aabd
00000230: c559 09bd ad86 783d 869a 973d d38a e23a
00000240: 7eb7 6abd cc67 f1bd 45df 6b3d 9f58 003a
00000250: ca74 4c3d d816 393d 964f 48bd 89d7 003c
00000260: 381c a2bd af98 f6bd 3369 be3c b4a9 75be
00000270: 4ee2 b43c a6cb 203d 7262 dabc a1d6 553d
00000280: 9b18 103e 3f72 a1bd 5bd8 d83d 4eb9 543d
00000290: d827 c5bc d466 c4bc 5d4f c9bd aa24 3bbd
000002a0: e56a 8e3d e761 c9bd c083 963a 79b1 403d
000002b0: 0197 11be a16b dfbd 1e52 923d 2aa8 9d3d
000002c0: b52b ef3d d50f 8dbd e215 88bd cd95 853d
000002d0: 11e8 d3bd fde7 0bbd cdac 0abe 086c 96bc
000002e0: 7642 51bd fc41 c3bd ed2b 51be a702 fbbb
000002f0: f5fe 9b3d 0e3b 263d 8925 d0bd e4d1 b7bd
00000300: 47de c8bd 51c6 eebd cedb 33be d777 bfbd
00000310: 4665 7a3d 8cf4 b23d 5a98 863d e6ec 3fbd
00000320: 11a3 aabb e600 2a3d 4694 1f3e bc0d a53d
00000330: 0a34 ea3b db4c 083e 6a7c 82bd d7c0 653d
00000340: 75a9 8f3b b499 d1bd c764 e33c e96a 98bd
00000350: fc98 ab3d ea1b 41bd b606 c03d 5093 693d
00000360: 111c d03b b76b ca3c 6a2b 68bd f7f3 96bd
00000370: 97f5 883c 94d4 1f3d 3c1f 823d 5d10 ebbc
00000380: 4165 5f3d 233a 233e 087b 8c3a 0124 b33c
00000390: a68e 053d f794 4f3d 6375 1fbb 38e9 d43a
000003a0: 4488 b5bc 002f a73c b220 353d 07ee e33d
000003b0: 8801 abbd 67ff 853d 7006 03bd f51b a23d
000003c0: a85a aabc af29 81bd bcc9 d5bd 3e6e b3bd
000003d0: 6277 95bd a9a5 9e3d b860 cdbd b344 67bd
000003e0: 8474 603d 48f5 5fbe e8d8 e7bd ffea ef3d
000003f0: be4e 1d3e 2ea7 fbbd 7a8d 093e d09a 84bc

encoder.2.bias f4 [16]
-0.08720667 -0.16874428 0.1060822 -0.16524413 0.24400473 -0.10011914 -0.11154161 -0.049197834
-0.06326918 -0.12469087 -0.050501764 0.03046951 0.014428357 0.13868606 0.04368355 -0.02680603
00000000: 6999 b2bd 4dcb 2cbe a041 d93d c235 29be
00000010: 60dc 793e 440b cdbd ed6f e4bd ab83 49bd
00000020: 4693 81bd ed5d ffbd f0da 4ebd 329b f93c
00000030: ea64 6c3c b803 0e3e 86ed 323d 5298 dbbc

encoder.4.weight f4 [16, 16, 3, 3]
-0.07675118 -0.01426428 -0.022926588 -0.02088771 -0.0792205 -0.011886164 -0.1169156 -0.12556182
-0.040356845 -0.010776004 -0.06553081 0.037735857 -0.014478401 -0.035112064 0.04805398 -0.06269329
-0.0024823225 -0.015594694 -0.09567467 -0.21643384 0.01154678 -0.09780861 -0.057437655 -0.15963447
-0.032678105 0.012042544 -0.118102916 0.021898711 -0.001017106 -0.07266698 0.0042009763 -0.0133148525
-0.10151933 -0.17842926 -0.1219332 -0.09288239 -0.1368436 -0.08302749 -0.17664056 -0.15388402
0.17595628 0.2200882 -0.24203286 -0.01419713 -0.0071407575 -0.06883387 -0.0663615 0.050655786
0.074127875 -0.02328931 0.03589731 -0.012231445 0.14918955 0.03277329 -0.09887298 -0.0032235284
-0.005404097 0.014216785 -0.015063984 -0.05240934 0.00053339027 0.010763122 -0.0070486083 0.05786362
-0.051008895 -0.08182912 -0.12016187 -0.07788729 -0.05568748 -0.07684309 -0.119762935 -0.17733939
-0.15771647 -0.14713179 -0.16698705 -0.014890159 -0.017279672 -0.017845603 -0.007481684 -0.063450985
-0.050715324 0.031697754 -0.040478557 -0.059430253 0.051407102 -0.08530591 0.055430118 0.04294382
0.032535825 0.003310642 0.052912787 -0.06459695 0.04517264 -0.03925264 0.059760258 0.01024497
0.0056168106 0.034106936 0.03459278 -0.0060596396 -0.010325355 -0.04119818 -0.13433336 -0.08383544
-0.057595506 -0.15730101 -0.16857637 -0.14359494 -0.09271533 -0.24293633 -0.08727143 -0.22424734
-0.0759114 -0.03403946 -0.09692144 0.013295008 0.0882566 -0.071612515 -0.14605819 0.02712119
-0.1468985 0.101137355 -0.09383742 -0.14570816 0.05300695 -0.023542726 -0.076579 -0.056094505
-0.076059125 -0.14549054 -0.12611881 -0.083042644 -0.10560279 -0.058844637 -0.13354155 0.0067903744
-0.09255178 -0.117525026 -0.026931958 -0.018117126 -0.02523474 -0.004121636 -0.107575305 -0.05123552
0.028589375 0.08240324 -0.060150668 -0.067811586 -0.09786606 -0.02309511 -0.103069305 0.01891861
-0.085319094 -0.045402713 -0.010511286 -0.03620832 -0.055412628 0.022862257 -0.070539296 -0.044283677
-0.036400307 -0.037216924 -0.017671654 -0.050856832 -0.0048127235 -0.061218154 0.0033171114 -0.10312341
-0.09423744 -0.09052772 -0.013452065 -0.03419706 -0.06737534 0.06472382 -0.13423409 -0.0925549
-0.059615966 -0.06277076 -0.036345515 0.042133957 -0.02344391 -0.011952408 -0.030460455 -0.03923904
-0.11767912 0.027615333 0.04688751 0.04556967 -0.05885207 -0.054831862 0.054583248 0.09008126
0.004075999 0.025059605 0.02136004 -0.02122761 -0.07121519 0.07750128 -0.06623868 -0.059599176
-0.101069085 -0.043728217 -0.03034603 -0.12253898 -0.10365951 -0.0046117487 -0.011024153 -0.119122446
-0.10069094 0.050173234 -0.10433069 -0.023655474 -0.08733324 -0.034066554 0.033520527 0.035498682
0.055391483 -0.019074393 0.073485106 -0.059220355 0.0627169 0.026598834 -0.055438764 -0.019449186
-0.008936338 -0.10921252 -0.01890171 -0.08420606 -0.13494892 0.03776973 0.01701341 -0.04021571
-0.009248229 0.021623377 0.015809262 0.052109662 -0.064351834 -0.02033235 0.07311866 -0.081210546
-0.035365295 0.05413333 0.022635467 0.058589537 -0.02219854 0.0195192 0.013499112 -0.020815996
-0.009556091 -0.07375991 0.010773884 0.0030186777 -0.017206721 -0.065018065 -0.032658774 -0.076990485
00000000: b92f 9dbd bab4 69bc 8ad0 bbbc b41c abbc
00000010: 5c3e a2bd 2fbe 42bc 7271 efbd 4793 00be
00000020: 384d 25bd d68d 30bc 0435 86bd ea90 1a3d
00000030: d136 6dbc abd1 0fbd 40d4 443d 5765 80bd
00000040: 76ae 22bb e380 7fbc 15f1 c3bd d5a0 5dbe
00000050: b52e 3d3c e14f c8bd bf43 6bbd 3877 23be
00000060: 7ad9 05bd 174e 453c f1df f1bd ed64 b33c
00000070: 6a50 85ba 6dd2 94bd 58a8 893b 8a26 5abc
00000080: 5ee9 cfbd 29b6 36be 1db8 f9bd 1f39 bebd
00000090: bb20 0cbe 510a aabd 43e1 34be c693 1dbe
000000a0: e22d 343e cd5e 613e 76d7 77be 149b 68bc
000000b0: 04fd e9bb c6f8 8cbd 8ae8 87bd 717c 4f3d
000000c0: 5bd0 973d 39c9 bebc 0f09 133d 6666 48bc
000000d0: 25c5 183e 493d 063d eb7d cabd d541 53bb
000000e0: da14 b1bb 85ed 683c eece 76bc 2dab 56bd
000000f0: 37d3 0b3a ce57 303c 03f8 e6bb 6702 6d3d
00000100: b4ee 50bd 0796 a7bd 6d17 f6bd 5f83 9fbd
00000110: 8e18 64bd e95f 9dbd 4546 f5bd 7598 35be
00000120: 6d80 21be b7a9 16be a7fe 2abe daf5 73bc
00000130: 198e 8dbc f130 92bc ea28 f5bb 97f2 81bd
00000140: dfba 4fbd 81d5 013d d8cc 25bd 236d 73bd
00000150: 4190 523d ddb4 aebd b10a 633d dce5 2f3d
00000160: 4944 053d 5bf7 583b 14bb 583d 684b 84bd
00000170: f206 393d 60c7 20bd 2cc7 743d 85da 273c
00000180: 390d b83b b7b3 0b3d 29b1 0d3d f18f c6bb
00000190: ae2b 29bc 6cbf 28bd af8e 09be eab1 abbd
000001a0: 44e9 6bbd 8413 21be 499f 2cbe 8d0a 13be
000001b0: 89e1 bdbd 4dc4 78be 5dbb b2bd 18a1 65be
000001c0: 7077 9bbd f66c 0bbd bf7e c6bd 4ed3 593c
000001d0: e0bf b43d 95a9 92bd 4790 15be 422d de3c
000001e0: 8f6c 16be 1a21 cf3d d52d c0bd 8534 15be
000001f0: d11d 593d addc c0bc 73d5 9cbd 5ac3 65bd
00000200: e3c4 9bbd 79fb 14be 4a25 01be 4312 aabd
00000210: 4746 d8bd 1307 71bd 1ebf 08be ca81 de3b
00000220: ca8b bdbd f6b0 f0bd 69a0 dcbc 5e6a 94bc
00000230: 16b9 cebc ca0e 87bb 7150 dcbd 56dc 51bd
00000240: 4434 ea3c 08c3 a83d 8c60 76bd cde0 8abd
00000250: 006e c8bd f531 bdbc 0016 d3bd 33fb 9a3c
00000260: c7bb aebd 32f8 39bd 8737 2cbc 2d4f 14bd
00000270: 5af8 62bd a149 bb3c e876 90bd cd62 35bd
00000280: 7d18 15bd c670 18bd 25c4 90bc 414f 50bd
00000290: 0db4 9dbb e3bf 7abd e563 593b 5e32 d3bd
000002a0: 8fff c0bd 9966 b9bd 0d66 5cbc 3712 0cbd
000002b0: 15fc 89bd ec8d 843d a974 09be 6c8d bdbd
000002c0: df2f 74bd f58d 80bd 09df 14bd a894 2c3d
000002d0: 710d c0bc 08d4 43bc 3488 f9bc 1eb9 20bd
000002e0: c001 f1bd 8d39 e23c 1e0d 403d 43a7 3a3d
000002f0: de0e 71bd 6097 60bd af92 5f3d 867c b83d
00000300: f58f 853b cd49 cd3c 40fb ae3c 86e5 adbc
00000310: 45d9 91bd feb8 9e3d 25a8 87bd 441e 74bd
00000320: 4ffd cebd 5c1c 33bd 3d98 f8bc b7f5 fabd
00000330: 704b d4bd 271e 97bb a69e 34bc 78f6 f3bd
00000340: 0d37 cebd 7382 4d3d 54ab d5bd 20c9 c1bc
00000350: c5db b2bd 5f89 0bbd d24c 093d 1167 113d
00000360: 2ee2 623d e741 9cbc 5c7f 963d 0b91 72bd
00000370: b871 803d cce5 d93c c213 63bd e653 9fbc
00000380: b869 12bc d0aa dfbd c2d7 9abc 3a74 acbd
00000390: 0d30 0abe 6fb4 1a3d b55f 8b3c 3ab9 24bd
000003a0: e285 17bc 8223 b13c 6d82 813c f170 553d
000003b0: e5ca 83bd 0790 a6bc 3cbf 953d b751 a6bd
000003c0: 33db 10bd e9ba 5d3d 046e b93c 95fb 6f3d
000003d0: b6d9 b5bc bbe6 9f3c 612b 5d3c 4f86 aabc
000003e0: 2791 1cbc 700f 97bd f284 303c 02d5 453b
000003f0: 1cf5 8cbc 3128 85bd 35c5 05bd 30ad 9dbd

encoder.4.bias f4 [16]
0.029321099 -0.012751584 -0.084301285 -0.030564599 -0.008888566 -0.06348886 -0.06858969 -0.00016994821
0.07501807 0.00840938 -0.024087863 0.061160702 -0.0071065277 -0.06009986 0.030138906 -0.06980566
00000000: cd32 f03c 05ec 50bc 27a6 acbd 9c62 fabc
00000010: 59a1 11bc 7306 82bd c078 8cbd 2034 32b9
00000020: 13a3 993d 7fc7 093c e953 c5bc a583 7a3d
00000030: e0dd e8bb 452b 76bd dee5 f63c 45f6 8ebd

encoder.6.weight f4 [32, 16, 3, 3]
0.0076366267 -0.002072656 -0.01745392 0.07640034 0.023517096 -0.027377293 0.13229093 0.011425313
0.10109304 0.043138087 -0.079147644 -0.027912574 -0.021208279 -0.055945512 0.08468374 -0.017856019
-0.121310845 0.08035668 -0.09045922 0.011908527 0.0739181 0.07282069 -0.057283346 -0.080276236
0.022197524 0.07245969 -0.051304772 0.014938386 -0.067496955 -0.022350691 0.01511301 -0.07575798
0.007028864 0.08760846 -0.072552286 -0.029495383 0.06273192 0.0101727275 -0.057560936 0.05959395
0.0907036 -0.03947767 0.07717537 -0.05190149 -0.05803374 -0.047566112 -0.10661414 -0.091427125
0.0468556 -0.036221206 0.033466052 -0.027266584 0.0077576316 0.025606157 -0.02977592 0.051321737
-0.052104913 -0.058634773 0.07587335 -0.00016527563 0.03020973 0.100321166 0.06395013 -0.16812271
-0.18865302 -0.10039872 -0.09072374 0.08009869 -0.04695526 0.060508694 0.101135716 0.07344341
-0.24340433 -0.24814996 0.089252934 -0.18927042 -0.2110764 0.02415995 -0.037073307 -0.010963769
0.2555949 -0.05583523 0.064237095 -0.12597427 0.056109663 -0.015902508 -0.19930062 0.02805153
0.1743933 -0.062510714 0.1456647 0.1527717 -0.051313784 0.08373982 0.14023763 -0.012516705
-0.015788062 0.047355935 -0.06635734 -0.04651454 0.030865606 -0.088247165 0.006023577 0.0033046557
-0.089215755 -0.016636048 -0.0073182387 0.0027544727 0.011754681 -0.029407365 -0.032027364 0.06273207
0.1277438 0.11879468 0.0047005597 0.09578278 0.0724978 -0.04297897 0.012294637 0.03346568
0.051506665 -0.047085166 0.04369087 -0.03712 0.0031685063 -0.07089128 -0.037134685 -0.09812841
-0.086267255 -0.068308644 0.06794535 -0.054747738 0.09122661 0.15394099 0.0016305868 -0.019000104
-0.07518575 0.056607313 -0.012706737 -0.03661212 -0.084440745 -0.01268181 -0.05552017 -5.6918856e-05
0.18680578 0.15446089 0.028083133 -0.08003265 -0.118664294 -0.105109155 0.0053445743 -0.10686251
-0.09658383 0.09996066 0.0036423963 0.02478189 0.023161089 0.1127691 0.01790309 0.012228938
0.106172144 -0.041011684 -0.10296409 -0.003552958 -0.003322979 0.028516164 -0.022324609 -0.025951287
-0.022179605 0.05380791 0.024824778 -0.088563815 -0.07196067 -0.033630915 -0.075858034 0.05862681
-0.031438038 -0.070264354 0.009942482 -0.0026759994 -0.049560443 -0.05129942 -0.062055156 -0.116223596
-0.035263713 -0.04710609 0.01745547 0.037020586 0.04670061 -0.014726663 0.089625664 0.03250478
0.018319966 -0.037896726 0.055311237 0.05374825 -0.029403025 -0.027961425 0.062344782 -0.041142583
-0.0017860049 -0.058657847 0.014029595 0.08645007 -0.064432286 -0.028169746 -0.01416164 -0.065807246
0.03851006 0.08571028 -0.15318462 -0.12786518 -0.021956451 -0.03263958 0.03602888 -0.006107128
0.05009598 0.02903488 0.017519623 0.10622847 -0.13718389 -0.11145973 0.19233719 -0.044488072
-0.20206153 -0.08590353 -0.041153044 -0.011191702 0.0052328357 -0.07116893 -0.0576588 0.017383758
0.0044024233 0.006285671 -0.060888495 0.007360261 -0.042746842 -0.08601044 -0.043930985 0.09416525
-0.025123453 0.0033073113 0.1161936 0.19107491 0.11560149 -0.04097556 -0.06360978 -0.051275045
0.09241362 0.08202175 0.00063804444 -0.024271118 0.011640877 0.061147973 0.07307115 0.0507959
00000000: ab3c fa3b 66d5 07bb 86fb 8ebc c877 9c3d
00000010: eda6 c03c 5846 e0bc 4677 073e 3c31 3b3c
00000020: de09 cf3d 90b1 303d 2918 a2bd e9a8 e4bc
00000030: fcbc adbc 1f27 65bd ab6e ad3d c946 92bc
00000040: d271 f8bd 0b92 a43d af42 b9bd fc1b 433c
00000050: 5f62 973d 0423 953d f1a1 6abd de67 a4bd
00000060: 95d7 b53c bf65 943d f424 52bd 22c0 743c
00000070: d83b 8abd cc18 b7bc 8f9c 773c 0027 9bbd
00000080: 6352 e63b 106c b33d 4b96 94bd 4da0 f1bc
00000090: 9879 803d 83ab 263c 04c5 6bbd c918 743d
000000a0: cfc2 b93d 56b3 21bd 1f0e 9e3d a896 54bd
000000b0: c9b4 6dbd afd4 42bd 8458 dabd 253e bbbd
000000c0: a8eb 3f3d b05c 14bd b313 093d 2c5e dfbc
000000d0: bb33 fe3b 01c4 d13c a1ec f3bc be36 523d
000000e0: f66b 55bd 042b 70bd 7d63 9b3d d74d 2db9
000000f0: 657a f73c 2f75 cd3d 49f8 823d 5c28 2cbe
00000100: 422e 41be d89d cdbd 5ecd b9bd c80a a43d
00000110: 2954 40bd f7d7 773d 3e20 cf3d 8069 963d
00000120: fc3e 79be 061b 7ebe 3eca b63d 1bd0 41be
00000130: 6924 58be 16eb c53c 2eda 17bd 61a1 33bc
00000140: 56dd 823e 7bb3 64bd bd8e 833d 66ff 00be
00000150: 3fd3 653d fa45 82bc 7615 4cbe 52cc e53c
00000160: 2894 323e 9e05 80bd 2129 153e 2f70 1c3e
00000170: 672e 52bd c87f ab3d 749a 0f3e de12 4dbc
00000180: f755 81bc 4cf8 413d 5be6 87bd 0886 3ebd
00000190: ded9 fc3c eeba b4bd 6d61 c53b ec92 583b
000001a0: c0b6 b6bd 5248 88bc d6cd efbb 6284 343b
000001b0: b596 403c b7e7 f0bc 202f 03bd ac79 803d
000001c0: 45cf 023e a04a f33d 2707 9a3b c329 c43d
000001d0: ba79 943d b70a 30bd 726f 493c 4f13 093d
000001e0: a7f8 523d 60dc 40bd 33f5 323d 240b 18bd
000001f0: b7a6 4f3b 732f 91bd 8a1a 18bd 8cf7 c8bd
00000200: e3ac b0bd 67e5 8bbd ef26 8b3d 2a3f 60bd
00000210: 04d5 ba3d b5a2 1d3e 6ab9 d53a 1ba6 9bbc
00000220: fdfa 99bd 12dd 673d eb2f 50bc 97f6 15bd
00000230: 45ef acbd 5ec7 4fbc 1e69 63bd 28bc 6eb8
00000240: 044a 3f3e ff2a 1e3e 990e e63c 28e8 a3bd
00000250: 4406 f3bd 7843 d7bd 8a21 af3b bbda dabd
00000260: becd c5bd 2db8 cc3d 45b5 6e3b 6403 cb3c
00000270: 53bc bd3c 7cf3 e63d 80a9 923c e25b 483c
00000280: c870 d93d defb 27bd d6de d2bd bed8 68bb
00000290: 56c6 59bb bb9a e93c 19e2 b6bc cb97 d4bc
000002a0: 01b2 b5bc af65 5c3d 555d cb3c f260 b5bd
000002b0: 1e60 93bd 92c0 09bd 755b 9bbd aa22 703d
000002c0: 2cc5 00bd c2e6 8fbd cbe5 223c d25f 2fbb
000002d0: e4ff 4abd 571f 52bd 8c2d 7ebd a306 eebd
000002e0: af70 10bd 51f2 40bd c6fe 8e3c e6a2 173d
000002f0: 2449 3f3d 1a48 71bc a98d b73d bb23 053d
00000300: c113 963c 9939 1bbd 098e 623d 2027 5c3d
00000310: 9dde f0bc 5c0f e5bc 3e5d 7f3d 2085 28bd
00000320: 6118 eaba 3643 70bd 63dc 653c bc0c b13d
00000330: 13f5 83bd 3dc4 e6bc 3906 68bc f3c5 86bd
00000340: babc 1d3d df88 af3d 6edc 1cbe 17ef 02be
00000350: 04de b3bc 15b1 05bd 0593 133d 4e1e c8bb
00000360: 7131 4d3d 8fda ed3c 5085 8f3c 508e d93d
00000370: ef79 0cbe 0045 e4bd 0af4 443e 2039 36bd
00000380: 38e9 4ebe 31ee afbd 1890 28bd 675d 37bc
00000390: 3578 ab3b 04c1 91bd a22b 6cbd 6268 8e3c
000003a0: 3442 903b 08f8 cd3b 3766 79bd 582e f13b
000003b0: 5017 2fbd 3e26 b0bd faf0 33bd b6d9 c03d
000003c0: b3cf cdbc 7abf 583b e9f6 ed3d 24a9 433e
000003d0: 79c0 ec3d fdd5 27bd d845 82bd c805 52bd
000003e0: 5a43 bd3d 05fb a73d 7042 273a 39d4 c6bc
000003f0: 61b9 3e3c 4c76 7a3d 54a6 953d 5d0f 503d

encoder.6.bias f4 [32]
-0.001716264 0.0069922614 -0.06731491 -0.09472246 -0.07219183 -0.009777401 -0.08144335 -0.013929494
-0.09823541 -0.10570065 0.023173934 -0.018883742 -0.062291287 0.0084275175 -0.047030993 -0.024632754
-0.0889277 0.011798511 0.1268013 -0.05164054 -0.04970849 -0.013186362 -0.06560176 -0.05971356
-0.061096046 -0.07837704 -0.025646243 -0.008455862 -0.109989144 -0.06891332 -0.054876823 -0.020603033
00000000: 44f4 e0ba 571f e53b 66dc 89bd d9fd c1bd
00000010: 4fd9 93bd 6431 20bc c5cb a6bd 8838 64bc
00000020: a62f c9bd 9579 d8bd 43d7 bd3c 14b2 9abc
00000030: 2625 7fbd 9213 0a3c 92a3 40bd a1ca c9bc
00000040: ba1f b6bd 8b4e 413c 33d8 013e 0885 53bd
00000050: 219b 4bbd 9c0b 58bc 375a 86bd 3596 74bd
00000060: d93f 7abd 2484 a0bd 1218 d2bc 758a 0abc
00000070: fd41 e1bd 6d22 8dbd 85c6 60bd b1c7 a8bc

encoder.8.weight f4 [32, 32, 3, 3]
-0.058636427 -0.02454425 -0.04489944 0.021666242 -0.05433637 -0.0020479532 -0.03529601 -0.03999054
-0.011742482 0.048408005 0.054186027 0.050834253 -0.05028453 -0.0029199077 -0.030153496 -0.03304653
0.00914187 -0.03610448 0.029896976 -0.003548639 -0.04874558 -0.051018253 -0.058998086 0.044286024
0.0048544942 -0.04744592 0.049547065 0.008660551 -0.045112427 0.02989981 -0.0021409765 0.057396207
0.013275861 0.025241178 0.0019266522 -0.0051093055 0.015573412 -0.032081556 -0.019293059 0.029577518
0.012170618 -0.0055907387 -0.016526818 -0.03245049 0.017143657 0.015886698 -0.019676719 0.0003625337
-0.0012792759 -0.013117684 0.016015496 -0.05177926 -0.0030358024 0.04266503 -0.004173465 0.04392669
0.040944576 -0.038266204 -0.0658 -4.9466267e-05 0.0015163049 0.016264588 -0.064565405 0.0010697099
-0.0070430944 -0.025145287 0.021074392 -0.028691368 -0.05557763 -0.015900776 0.05078829 0.04276974
0.024580386 -0.027459664 0.010830544 -0.016204577 -0.038317077 -0.060620077 -0.009489199 0.009232752
0.030020848 -0.016649669 0.046577714 -0.023070186 0.02702307 0.027428478 0.00829843 -0.046247087
0.0021712398 0.018371182 -0.020180555 -0.058757663 -0.025780821 0.026144778 0.027362224 -0.024659714
0.0013409099 -0.011222635 -0.036985196 0.046501584 -0.044696018 -0.055832267 -0.05242399 -0.019365702
0.042057488 0.025483325 -0.025394628 0.02596948 -0.029623082 0.019751843 0.056687076 -0.051766656
-0.029233862 0.025760438 -0.015688378 -0.055665597 -0.029283596 -0.035626203 -0.006095075 0.018349152
-0.005380133 0.00014688913 -0.06532785 -0.026674438 0.012007447 0.039118316 0.0619837 -0.048583098
0.013493071 0.055272058 -0.04532845 0.05624766 0.027604409 0.0006017997 0.022612495 0.016912183
-0.051557537 0.038619287 -0.05680356 0.023987789 0.00016038492 0.024419248 0.04559536 -0.003131928
0.05900497 0.007434866 -0.03522624 0.044892166 0.030084375 -0.054653592 0.033127885 -0.05753143
-0.030398374 -0.011901022 -0.0036506418 -0.013233352 -0.010653464 -0.0490864 0.007119463 0.020986404
-0.03364951 0.036490284 -0.06288259 -0.007839874 -0.00015582144 0.014592783 -0.0022822274 0.048205078
0.03475315 -0.013294657 -0.017252984 -0.0089844465 0.02186399 -0.014269042 0.04554487 0.006311181
0.014102473 0.0039749844 -0.0037712539 -0.033365145 0.024048645 0.0034715794 0.05191687 -0.008166332
-0.03516821 0.010666188 -0.035346717 0.035204787 -0.037640177 0.032714583 -0.005792849 -0.04909541
0.029774483 -0.06163127 -0.012625671 -0.00027447753 -0.0017832366 -0.043949164 0.054225504 0.02235462
0.0012290815 0.049202707 -0.018545784 0.0359459 0.0057082023 0.045589484 0.008660179 0.021537345
-0.056690317 0.0066111838 -0.052442625 -0.039029434 0.04106752 0.05571214 0.024419937 0.028726805
-0.0551213 0.028793957 -0.05376193 -0.039884318 0.03778729 -0.051084623 -0.01914303 0.02484577
0.05822891 -0.019425653 -0.012438066 0.046948552 0.05492114 0.0174366 -0.0075979233 0.0074969223
0.040511202 0.042044498 -0.005917294 -0.031984642 -0.0485601 0.01888252 0.06265447 0.030333707
0.052488137 -0.039715517 0.02813585 -0.017789414 -0.03466678 0.020656992 0.01787544 0.014362513
0.008151721 -0.032140635 0.022804994 -0.021263383 0.027725773 0.015404319 0.013689797 -0.035506938
00000000: c02c 70bd 0611 c9bc 7ae8 37bd 677d b13c
00000010: d08f 5ebd f436 06bb 8d92 10bd 1fcd 23bd
00000020: 8a63 40bc 7947 463d 2bf2 5d3d 9437 503d
00000030: 27f7 4dbd ec5b 3fbb 7704 f7bc cc5b 07bd
00000040: c8c7 153c 4be2 13bd 81ea f43c 4890 68bb
00000050: 72a9 47bd 84f8 50bd faa7 71bd 4365 353d
00000060: 7312 9f3b a756 42bd ddf1 4a3d fce4 0d3c
00000070: cfc7 38bd 72f0 f43c a04f 0cbb 4918 6b3d
00000080: ff82 593c 96c6 ce3c b887 fc3a f66b a7bb
00000090: a027 7f3c f367 03bd 7a0c 9ebc 8d4c f23c
000000a0: 4667 473c 8432 b7bb 4063 87bc ceea 04bd
000000b0: db70 8c3c d224 823c 1231 a1bc 7312 be39
000000c0: 60ad a7ba 8eeb 56bc ee32 833c 7d16 54bd
000000d0: 50f4 46bb 87c1 2e3d 90c1 88bb 79ec 333d
000000e0: 80b5 273d 06bd 1cbd 27c2 86bd 007a 4fb8
000000f0: c0be c63a 503d 853c de3a 84bd 8235 8c3a
00000100: c2c9 e6bb 7dfd cdbc 34a4 ac3c 290a ebbc
00000110: 5ea5 63bd 5842 82bc 6207 503d 532f 2f3d
00000120: ce5c c93c 17f3 e0bc 9872 313c 76bf 84bc
00000130: 5ef2 1cbd c24c 78bd 9678 1bbc f844 173c
00000140: 48ee f53c e364 88bc 46c8 3e3d b0fd bcbc
00000150: 7c5f dd3c b0b1 e03c 23f6 073c 966d 3dbd
00000160: 5c4b 0e3b 297f 963c b151 a5bc e0ab 70bd
00000170: 4d32 d3bc 932d d63c be26 e03c 2b03 cabc
00000180: 78c1 af3a 25df 37bc ca7d 17bd 7278 3e3d
00000190: 2c13 37bd 60b0 64bd 8aba 56bd d2a4 9ebc
000001a0: 7944 2c3d 68c2 d03c 6508 d0bc f2bd d43c
000001b0: 1bac f2bc 9ece a13c b530 683d 4609 54bd
000001c0: da7b efbc 8e07 d33c ea84 80bc 9c01 64bd
000001d0: 27e4 efbc c8ec 11bd 32b9 c7bb f650 963c
000001e0: d44b b0bb 4006 1a39 9cca 85bd 5a84 dabc
000001f0: e2ba 443c 873a 203d 9fe2 7d3d 12ff 46bd
00000200: 0b12 5d3c f464 623d 53aa 39bd f263 663d
00000210: a422 e23c 18c2 1d3a d73d b93c 6b8b 8a3c
00000220: ff2d 53bd 422f 1e3d daaa 68bd 0a82 c43c
00000230: 002d 2839 e00a c83c 33c2 3a3d 0841 4dbb
00000240: 32af 713d 2da0 f33b 6449 10bd d9e0 373d
00000250: 8273 f63c 72dc 5fbd 1bb1 073d 14a6 6bbd
00000260: 0306 f9bc 81fc 42bc 9b3f 6fbb b4d0 58bc
00000270: de8b 2ebc d20e 49bd 624a e93b aeeb ab3c
00000280: 12d4 09bd d676 153d 96c8 80bd d172 00bc
00000290: 0064 23b9 9116 6f3c 6c91 15bb b072 453d
000002a0: 5259 0e3d d5d1 59bc 2156 8dbc 8033 13bc
000002b0: 1c1c b33c b3c8 69bc 428d 3a3d 06ce ce3b
000002c0: 0f0e 673c 9640 823b 2427 77bb e4a9 08bd
000002d0: aa01 c53c 7083 633b c9a6 543d 14cc 05bc
000002e0: 8a0c 10bd 3cc1 2e3c b8c7 10bd e532 103d
000002f0: 962c 1abd baff 053d f1d1 bdbb 4518 49bd
00000300: 9ee9 f33c 1271 7cbd e7db 4ebc c0e7 8fb9
00000310: 7ebb e9ba 0a04 34bd 901b 5e3d 0921 b73c
00000320: 2219 a13a c788 493d 54ed 97bc 023c 133d
00000330: df0b bb3b 0abc 3a3d 6ce3 0d3c 166f b03c
00000340: 1b34 68bd a1a2 d83b 14ce 56bd 54dd 1fbd
00000350: 6a36 283d 6a32 643d 520c c83c 7a54 eb3c
00000360: dfc6 61bd 4ee1 eb3c 7835 5cbd bd5d 23bd
00000370: d8c6 1a3d 1c3e 51bd d8d1 9cbc 5b89 cb3c
00000380: 7081 6e3d 8c22 9fbc 08c9 4bbc 204d 403d
00000390: fdf4 603d 33d7 8e3c 00f8 f8bb bea8 f53b
000003a0: 13ef 253d da36 2c3d dce5 c1bb 5402 03bd
000003b0: f5e6 46bd 84af 9a3c fd50 803d 657e f83c
000003c0: cdfd 563d bdac 22bd 277d e63c 1bbb 91bc
000003d0: c1fe 0dbd da38 a93c 846f 923c bf50 6b3c
000003e0: cc8e 053c e6a5 03bd 8ad1 ba3c 8c30 aebc
000003f0: 2921 e33c 6662 7c3c 2c4b 603c b96f 11bd

encoder.8.bias f4 [32]
-0.031010997 -0.025114182 0.08628327 0.009130742 0.002042149 -0.02602752 0.04067058 0.026747545
-0.011311395 -0.016879175 -0.01835612 -0.021265414 -0.026575206 -0.007854633 0.047335755 -0.010872882
-0.03823375 0.050192676 -0.025394551 -0.03933493 -0.036971774 0.02823537 -0.03169943 -0.0084777195
-0.047492012 -0.03787853 0.094547056 0.016109604 -0.041125976 -0.031250298 -0.026023284 -0.037407804
00000000: c60a febc 42bc cdbc 48b5 b03d 1c99 153c
00000010: 93d5 053b aa37 d5bc 3296 263d ab1d db3c
00000020: 6e53 39bc 3246 8abc 935f 96bc ce34 aebc
00000030: 3fb4 d9bc b8b0 00bc 23e3 413d 2c24 32bc
00000040: fe9a 1cbd d696 4d3d 3c08 d0bc aa1d 21bd
00000050: b76f 17bd dd4d e73c 43d7 01bd 22e6 0abc
00000060: fc86 42bd 8426 1bbd e3a1 c13d 4af8 833c
00000070: b673 28bd 5000 00bd c82e d5bc ed38 19bd

decoder.1.weight f4 [32, 32, 3, 3]
-0.017831404 0.032331448 0.029179167 -0.009954255 -0.033594046 0.020914998 -0.0019062683 -0.042383358
-0.008796882 -0.042427927 -0.059592333 0.037805308 0.010702008 -0.04813655 -0.028296262 0.017190058
-0.06572268 -0.011614976 0.00037654373 0.00092947367 -0.06864495 0.005349992 0.038211923 -0.046342783
-0.037604623 0.0019762954 -0.026808647 0.020393968 -0.046805646 0.033193465 -0.027780365 -0.029007666
-0.03921557 0.019466804 0.037080325 -0.0020679263 -0.056065798 0.015867034 -0.036418185 0.024578866
-0.013303062 -0.010503374 -0.010839915 0.039797097 -0.050077252 0.050340835 0.0061375014 0.04998852
-0.012352116 -0.045993745 0.034731206 -0.030558046 -0.04859416 -0.041919775 -0.013794619 -0.06048047
0.03942035 -0.067581736 -0.030198235 -0.00789444 -0.034253128 -0.025993256 -0.057965554 0.01714549
-0.045799185 -0.012934574 0.045894645 -0.01796468 0.019025845 0.022643033 0.025729716 -0.007889267
0.012345887 0.027503919 0.029269766 -0.0008593509 -0.021417601 0.014209523 0.035542212 -0.023696022
0.019992959 0.0388596 -0.0405517 -0.04313816 0.04218288 -0.046381027 -0.05969185 -0.0005567176
-0.04366705 -0.018316701 0.025529891 0.01740669 -0.02553029 -0.0148570845 0.04787164 0.012690467
0.047815066 -0.05542089 0.017426644 -0.02134681 0.04272458 0.0033261972 -0.033925474 0.007291914
0.026708242 -0.016269602 -0.05212011 -0.012847758 -0.02157793 -0.008580849 -0.029601831 -0.03823044
-0.016703155 0.0068251416 -0.067202784 -0.018795265 0.037684567 0.0177284 -0.024158735 -0.03457365
-0.05600209 -0.05414863 -0.04614931 0.05625235 0.03920267 0.050530653 0.045466743 0.046953388
-0.026564559 0.017921524 0.015575329 -0.022857966 -0.02726084 0.044882353 -0.045683146 -0.03386441
0.019838631 0.026063956 -0.020517683 0.011501769 -0.011751953 0.013681694 0.037544128 0.031762484
-0.034331083 0.021870207 0.00025324523 -0.029901426 0.05651727 0.033158127 -0.022886056 0.017970417
-0.028879238 -0.0075519383 -0.011340575 0.024153117 -0.02364014 -0.046694197 -0.04057564 -0.045315765
0.042496443 0.007817423 0.02412435 -0.05437454 -0.040539727 0.03368632 -0.06774647 -0.0037187077
0.02559386 -0.026852645 0.040861808 0.004975755 0.038922604 0.0071234964 -0.047346577 0.022678826
0.010813799 0.011072699 -0.006900739 0.0135532655 -0.04216834 0.0027533323 -0.059956465 -0.020492567
0.023787875 -0.03980092 -0.017765654 -0.00440789 -0.03876492 -0.04019925 -0.011186738 -0.019729396
0.046752077 -0.012999404 0.025016284 -0.02030329 0.0056441897 0.015115842 -0.028921224 0.008002114
-0.028629322 -0.029781181 0.022337537 -0.0458468 0.05106323 -0.011854097 0.021581363 0.02879266
0.0064566247 -0.014260434 -0.058009133 0.013623472 -0.0051497743 0.046552178 -0.030727005 0.05071744
0.009246785 -0.034947023 0.014754783 -0.055513117 0.009504031 0.040036503 0.011854168 -0.046736695
0.014063176 -0.006318394 0.019197477 0.025090385 0.046051994 -0.027450826 -0.009929114 -0.05192396
-0.059088867 -0.029337863 0.000575467 -0.039544065 -0.003193397 -0.026499502 0.043537192 -0.068248235
0.04627223 -0.028152574 0.04646493 -0.03532488 -0.008113506 0.017594695 0.030972976 0.023015566
0.03244134 -0.031561982 0.036096167 0.02030423 -0.03492126 0.011234518 -0.057030775 0.04668496
00000000: 2a13 92bc fb6d 043d 2609 ef3c 2c17 23bc
00000010: e999 09bd ee55 ab3c c0db f9ba 2c9a 2dbd
00000020: cc20 10bc e8c8 2dbd 1717 74bd bdd9 1a3d
00000030: 7a57 2f3c d52a 45bd 90cd e7bc 2ad2 8c3c
00000040: 9d99 86bd be4c 3ebc d86a c539 eca7 733a
00000050: b995 8cbd fc4e af3b 1b84 1c3d eed1 3dbd
00000060: 4e07 1abd bc84 013b cf9d dbbc 4011 a73c
00000070: 47b7 3fbd dff5 073d a693 e3bc 7ca1 edbc
00000080: 81a0 20bd d978 9f3c 8ae1 173d 0c86 07bb
00000090: 40a5 65bd 95fb 813c 3c2b 15bd 9e59 c93c
000000a0: 16f5 59bc 5816 2cbc e699 31bc 4802 233d
000000b0: ce1d 4dbd 3132 4e3d 181d c93b c3c0 4c3d
000000c0: 8860 4abc f063 3cbd 4f42 0e3d de54 fabc
000000d0: ab0a 47bd 12b4 2bbd d302 62bc 5fba 77bd
000000e0: 3c77 213d 4b68 8abd 4a62 f7bc ae57 01bc
000000f0: 024d 0cbd cfef d4bc 4a6d 6dbd b374 8c3c
00000100: ed97 3bbd 89eb 53bc 06fc 3b3d aa2a 93bc
00000110: 17dc 9b3c e27d b93c 20c7 d23c fc41 01bc
00000120: 6746 4a3c e64f e13c 26c7 ef3c 1046 61ba
00000130: f773 afbc 0fcf 683c b694 113d 291e c2bc
00000140: 46c8 a33c 3e2b 1f3d 8a19 26bd a4b1 30bd
00000150: f5c7 2c3d 08fa 3dbd 717f 74bd b0f0 11ba
00000160: 38dc 32bd e80c 96bc 1024 d13c 7a98 8e3c
00000170: e624 d1bc 216b 73bc 0e15 443d adeb 4f3c
00000180: bbd9 433d 0401 63bd 52c2 8e3c 81df aebc
00000190: f8ff 2e3d 54fc 593b 70f5 0abd 02f1 ee3b
000001a0: 3ecb da3c d447 85bc e57b 55bd 677f 52bc
000001b0: 33c4 b0bc b096 0cbc 8a7f f2bc 8697 1cbd
000001c0: 0ed5 88bc 70a5 df3b 9da1 89bd 87f8 99bc
000001d0: 225b 1a3d 263b 913c 8ae8 c5bc 1a9d 0dbd
000001e0: 7362 65bd f4ca 5dbd 0f07 3dbd dd68 663d
000001f0: fb92 203d 3bf9 4e3d 563b 3a3d 3252 403d
00000200: eb9d d9bc 29d0 923c aa2f 7f3c a140 bbbc
00000210: 2052 dfbc 8fd6 373d 401e 3bbd 68b5 0abd
00000220: a084 a23c 1484 d53c b314 a8bc ea71 3c3c
00000230: 438b 40bc 2f29 603c dfc7 193d 6119 023d
00000240: c09e 0cbd 2629 b33c 00c6 8439 d6f3 f4bc
00000250: a77e 673d d1d0 073d 8a7b bbbc b236 933c
00000260: 2794 ecbc 4076 f7bb d2cd 39bc c2dc c53c
00000270: f8a8 c1bc 6a42 3fbd a432 26bd 069d 39bd
00000280: c010 2e3d a614 003c 6ea0 c53c d6b7 5ebd
00000290: fc0c 26bd abfa 093d a9be 8abd 90b5 73bb
000002a0: 37aa d13c 14fa dbbc b65e 273d a80b a33b
000002b0: 4f6d 1f3d 386c e93b 7cee 41bd f2c8 b93c
000002c0: 5c2c 313c 446a 353c 981f e2bb 840e 5e3c
000002d0: b6b8 2cbd 4071 343b e994 75bd 07e0 a7bc
000002e0: cade c23c 4a06 23bd 4789 91bc 1070 90bb
000002f0: f7c7 1ebd f8a7 24bd 9448 37bc 8b9f a1bc
00000300: 1b7f 3f3d 74fb 54bc f3ee cc3c 1653 a6bc
00000310: e5f2 b83b 70a8 773c 34ec ecbc 4c1b 033c
00000320: 0a88 eabc aaf7 f3bc 36fd b63c dbc9 3bbd
00000330: ad27 513d b037 42bc 66cb b03c 96de eb3c
00000340: 1892 d33b 98a4 69bc fc9a 6dbd fc34 5f3c
00000350: 70bf a8bb 7fad 3e3d 33b7 fbbc 17bd 4f3d
00000360: d47f 173c 9c24 0fbd 0cbe 713c b961 63bd
00000370: ccb6 1b3c 51fd 233d fc37 423c fa6e 3fbd
00000380: 3c69 663c 880a cfbb 0744 9d3c 5a8a cd3c
00000390: 04a1 3c3d 8ee0 e0bc b9ad 22bc 38ae 54bd
000003a0: 2b07 72bd f555 f0bc f0da 163a f5f8 21bd
000003b0: 5048 51bb 7c15 d9bc 0e54 323d bbc5 8bbd
000003c0: f387 3d3d 3aa0 e6bc 0352 3e3d d2b0 10bd
000003d0: 83ee 04bc c022 903c 0abb fd3c 248b bc3c
000003e0: 36e1 043d 2347 01bd 93d9 133d 0e55 a63c
000003f0: 9809 0fbd fc10 383c 1a99 69bd bb38 3f3d

decoder.1.bias f4 [32]
-0.03896904 0.02493465 -0.03539382 -0.02558746 -0.03551965 0.06525238 -0.079763785 0.09393868
-0.02926741 -0.022713598 -0.117090166 -0.030201996 -0.019900622 -0.02003659 -0.049567576 -0.04596064
-0.06104324 -0.038548943 -0.023455082 -0.053224623 -0.038673267 0.062046636 0.031517953 -0.007651085
-0.047271788 -0.07192971 -0.013830166 -0.045844432 -0.039521195 -0.047194026 -0.03034897 -0.05870497
00000000: 009e 1fbd c043 cc3c 1cf9 10bd cb9c d1bc
00000010: 0d7d 11bd 0aa3 853d 325b a3bd ec62 c03d
00000020: 35c2 efbc de11 babc f8cc efbd 2d6a f7bc
00000030: a106 a3bc c623 a4bc 5f07 4bbd 3941 3cbd
00000040: 7a08 7abd 7fe5 1dbd df24 c0bc 1002 5abd
00000050: dc67 1ebd 9d24 7e3d f818 013d f4b5 fabb
00000060: 10a0 41bd e24f 93bd ec97 62bc 5fc7 3bbd
00000070: fae0 21bd 864e 41bd 679e f8bc 9f74 70bd

decoder.4.weight f4 [16, 32, 3, 3]
-0.057245135 -0.024886498 0.043284737 -0.068812326 -0.04918297 -0.058224928 -0.060445942 -0.067963704
-0.065054215 0.021074196 0.009449868 -0.0028818443 0.041122712 -0.012000652 0.033633765 -0.06890723
0.01022911 -0.03868465 0.007906483 -0.048842877 0.048979398 -0.00986227 -0.030914623 0.04676312
0.011610109 -0.0016532592 0.009590218 -0.037968874 -0.03955111 -0.05145319 0.008695456 -0.030637918
-0.14115389 -0.08065758 -0.05867523 -0.1184013 -0.007294664 -0.046747852 -0.014076712 -0.04723855
0.047820576 -0.04662515 -0.039491393 0.034136947 -0.013429775 -0.09786847 -0.17519699 -0.117000006
-0.089435 -0.13370162 -0.0726389 -0.05076692 -0.033148598 0.039227758 -0.023684021 0.058038186
-0.018988512 0.0120365955 -0.027872652 0.043022152 0.0046214797 -0.012861695 0.035805833 0.11921132
0.016136192 0.05230368 0.0040106596 -0.035885878 0.059880663 -0.05533726 -0.00626795 -0.054180004
-0.0127996765 0.020260869 0.044652473 -0.00059918826 0.010061739 0.005442145 -0.015069191 0.050702605
-0.02474435 -0.09564429 -0.095549114 -0.064324 -0.14346345 -0.119770184 -0.10132813 -0.13388485
-0.08681089 -0.08458289 0.0012433021 -0.0122277755 0.04904226 -0.03772981 -0.012597424 -0.020678118
0.052772913 0.034058627 -0.037785873 -0.020707158 0.05016518 0.010502629 0.008358432 0.02183278
0.01584925 -0.054328196 -0.03566573 -0.0020530329 0.030689415 0.0028797023 0.0027484954 0.026744638
-0.04225367 -0.043066088 -0.016286287 -0.0059187403 -0.03746059 0.024379477 0.011978726 0.029816464
0.01679257 -0.03305788 0.03290503 0.032263163 -0.034404643 -0.010480978 0.032294452 -0.05138788
-0.04708803 0.033545874 -0.046056442 0.03785961 -0.039763603 0.025494026 -0.03789777 0.020059466
-0.052520804 -0.04949958 -0.00092715723 0.054247394 0.03916651 -0.020287488 0.043296874 -0.035332713
-0.047501042 -0.012605669 -0.0028277314 0.007952114 0.0018049693 0.004365853 -0.0070686573 -0.040149093
-0.007177883 -0.002844601 0.056484595 0.05043421 0.03826645 -0.032760903 0.01895318 -0.006618524
-0.016616946 0.04251961 0.057175692 0.03456632 0.02759258 0.054567356 0.029154819 0.05808053
-0.016557321 0.013523277 -0.045733918 -0.036998037 -0.027237624 -0.009014774 -0.040594812 0.04795786
0.004834138 0.024800899 -0.05393487 0.043287486 0.044637743 0.01792121 -0.036987368 -0.04553498
0.051246773 -0.025493605 0.05189101 -0.03655626 0.0045122816 -0.04996653 -0.02030211 -0.10917065
-0.12730442 -0.05096468 -0.08961782 -0.10869027 -0.09838993 -0.140012 -0.19576135 -0.20782001
-0.17175207 -0.042690743 -0.11999641 -0.088370815 -0.087161265 -0.08987012 -0.018903762 -0.051969368
-0.069754 -0.107843935 -0.0948385 -0.10413281 -0.09255241 -0.014227949 -0.16620545 -0.1967646
-0.02046626 -0.03437678 -0.09644062 0.008351918 -0.008988095 -0.015626233 0.008991544 -0.038007416
-0.023437748 0.06481834 -0.022035569 0.05452133 0.06566744 0.0039531747 -0.03116288 0.043746587
0.02435214 -0.040996067 -0.020996029 0.034024682 0.02022909 -0.042981822 -0.030204033 -0.011035712
0.022648051 0.012114106 -0.03289668 -0.010946926 -0.026354706 0.042155292 0.015829412 0.060519427
-0.014604993 0.03432809 -0.057566024 0.05004401 -0.018698098 0.051659316 0.046631802 0.031954456
00000000: e079 6abd c5de cbbc 564b 313d 7aed 8cbd
00000010: 1574 49bd 437d 6ebd 2a96 77bd 8e30 8bbd
00000020: 253b 85bd cba3 ac3c 9fd3 1a3c 53dd 3cbb
00000030: 4a70 283d 629e 44bc 8fc3 093d 3c1f 8dbd
00000040: ff97 273c cc73 1ebd 318a 013c 780f 48bd
00000050: 9f9e 483d 5c95 21bc aa40 fdbc af8a 3f3d
00000060: 5438 3e3c 2cb2 d8ba 4a20 1d3c 4085 1bbd
00000070: 5800 22bd 95c0 52bd 6377 0e3c 5ffc fabc
00000080: a58a 10be cd2f a5bd 7055 70bd 617c f2bd
00000090: 1408 efbb ad7a 3fbd 02a2 66bc 367d 41bd
000000a0: 82df 433d 03fa 3ebd bac1 21bd 2fd3 0b3d
000000b0: 8f08 5cbc 446f c8bd d766 33be b39d efbd
000000c0: b329 b7bd 14e9 08be b4c3 94bd f9f0 4fbd
000000d0: d3c6 07bd 49ad 203d fe04 c2bc 73b9 6d3d
000000e0: cc8d 9bbc 2435 453c 3055 e4bc ff37 303d
000000f0: c86f 973b dcb9 52bc 23a9 123d 1125 f43d
00000100: 0c30 843c 623c 563d da6b 833b 12fd 12bd
00000110: 6d45 753d 53a9 62bd 6063 cdbb daeb 5dbd
00000120: bcb5 51bc 1ffa a53c 83e5 363d d812 1dba
00000130: fed9 243c 0554 b23b c5e4 76bc 89ad 4f3d
00000140: aab4 cabc 27e1 c3bd 41af c3bd 4dbc 83bd
00000150: 15e8 12be 124a f5bd 1f85 cfbd 1c19 09be
00000160: e8c9 b1bd cb39 adbd 4cf6 a23a 0257 48bc
00000170: 89e0 483d 938a 1abd 6d65 4ebc 2865 a9bc
00000180: 6928 583d 0f81 0b3d 5cc5 1abd 0fa2 a9bc
00000190: 017a 4d3d 3813 2c3c cef1 083c a9da b23c
000001a0: 49d6 813c 3e87 5ebd 3a16 12bd 2d8c 06bb
000001b0: 5e68 fb3c 63b9 3c3b 1a20 343b 9217 db3c
000001c0: 2f12 2dbd 1166 30bd d26a 85bc fef1 c1bb
000001d0: 4770 19bd 78b7 c73c 6b42 443c a841 f43c
000001e0: 9290 893c b367 07bd 6dc7 063d 6126 043d
000001f0: e2eb 0cbd 68b8 2bbc 3047 043d 197c 52bd
00000200: 61df 40bd 6667 093d aea5 3cbd ae12 1b3d
00000210: 29df 22bd d9d8 d03c b13a 1bbd c053 a43c
00000220: 0e20 57bd 12c0 4abd 780c 73ba 8432 5e3d
00000230: 106d 203d f231 a6bc 1058 313d 09b9 10bd
00000240: 7490 42bd 0288 4ebc 7651 39bb 9549 023c
00000250: b894 ec3a 6e0f 8f3b 32a0 e7bb 6073 24bd
00000260: 7234 ebbb 7c6c 3abb 645c 673d 1a94 4e3d
00000270: 48bd 1c3d 4c30 06bd b343 9b3c 34e0 d8bb
00000280: 4320 88bc 0b29 2e3d 0f31 6a3d 6a95 0d3d
00000290: d609 e23c 0582 5f3d 16d6 ee3c dae5 6d3d
000002a0: 38a3 87bc bc90 5d3c 7d53 3bbd 418b 17bd
000002b0: 7021 dfbc b4b2 13bc bf46 26bd 766f 443d
000002c0: b067 9e3b 412b cb3c cfea 5cbd 384e 313d
000002d0: 11d6 363d 80cf 923c 1180 17bd e382 3abd
000002e0: 23e8 513d f7d7 d0bc ab8b 543d 04bc 15bd
000002f0: c3db 933b b4a9 4cbd 9c50 a6bc dd94 dfbd
00000300: 175c 02be 57c0 50bd 8c89 b7bd 0199 debd
00000310: a980 c9bd 4e5f 0fbe aa75 48be c5ce 54be
00000320: c6df 2fbe 7ddc 2ebd aec0 f5bd c2fb b4bd
00000330: 9b81 b2bd d30d b8bd 10dc 9abc d5dd 54bd
00000340: 2fdb 8ebd 48dd dcbd b03a c2bd 9543 d5bd
00000350: 1e8c bdbd 581c 69bc c331 2abe a97c 49be
00000360: dca8 a7bc abce 0cbd a982 c5bd 7cd6 083c
00000370: ce42 13bc 9602 80bc 4551 133c aaad 1bbd
00000380: 8500 c0bc 7abf 843d f083 b4bc c251 5f3d
00000390: a77c 863d a289 813b 4c49 ffbc 9f2f 333d
000003a0: 247e c73c 7eeb 27bd ddff abbc 775d 0b3d
000003b0: 7ab7 a53c b50d 30bd 736e f7bc 22cf 34bc
000003c0: 6888 b93c 3e7a 463c abbe 06bd bc5a 33bc
000003d0: d3e5 d7bc 07ab 2c3d afac 813c 38e3 773d
000003e0: c849 6fbc 9c9b 0c3d 5aca 6bbd f3fa 4c3d
000003f0: c12c 99bc b898 533d fd00 3f3d ade2 023d

decoder.4.bias f4 [16]
-0.011298085 -0.0008233552 -0.0088643655 -0.0067528016 -0.02666762 -0.024216283 -0.041547507 -0.09298485
-0.020956846 0.04213651 -0.004700646 0.010131351 -0.027415633 -0.04794694 -2.1509535e-05 -0.007863458
00000000: 9a1b 39bc 6fd6 57ba d83b 11bc 9b46 ddbb
00000010: 0d76 dabc 3a61 c6bc b82d 2abd d76e bebd
00000020: b1ad abbc 5597 2c3d e007 9abb f7fd 253c
00000030: c096 e0bc 0364 44bd 606f b4b7 bcd5 00bc

decoder.7.weight f4 [2, 16, 3, 3]
-0.07070304 0.023293285 0.07314629 -0.050217576 -0.07261379 0.010363218 -0.033706374 0.0019045694
0.071399316 -0.040768765 0.020604853 0.040962234 0.05054154 -0.101744056 0.0033894707 0.038113296
0.010075742 0.04671239 -0.052488863 -0.029162733 -0.06275783 0.010158698 -0.04455639 0.031242605
0.05146156 -0.012984061 0.00787369 -0.0724054 -0.035369396 -0.078308746 -0.08961167 -0.006925848
-0.050205987 -0.092996664 0.052995674 -0.053546354 -0.004529208 -0.021494512 -0.045034926 -0.049349204
0.056928415 -0.03032056 -0.0068160724 0.019469827 -0.054492284 -0.0596214 0.012297579 0.039945412
0.019523287 -0.03929019 0.031081907 0.06658344 -0.070046924 -0.041404434 9.701867e-05 0.064348556
-0.05016367 0.034425218 0.09007615 0.039181694 -0.019528963 -0.022296967 -0.0060778856 0.06268481
0.014305198 0.07299785 0.00807891 0.04002392 0.061504323 0.005452832 0.044097 0.0044212635
0.010997489 -0.042584043 0.05143702 -0.012593646 -0.064635195 0.06731578 -0.010487281 0.047758255
-0.041768987 0.061022174 0.011120068 -0.006260654 0.079113066 -0.007583494 0.03105406 0.05575682
0.1012231 0.051084723 0.0023431582 0.0048555587 -0.033841398 -0.014651593 -0.0074813794 0.016383654
0.013280478 0.00053925137 -0.032722764 0.03020263 -0.03736703 0.012413339 0.025902007 -0.043882422
0.012764618 -0.032552537 -0.03740234 -0.023533309 0.057968963 -0.03839926 0.03762312 -0.07063494
0.020922074 -0.012373536 -0.045005456 0.033055782 0.05860207 -0.023089685 0.03366845 0.028278623
-0.0469018 0.054289002 0.05056936 -0.0076809847 -0.072443195 -0.0815735 -0.050278563 -0.054335948
-0.04664725 0.12527579 0.14788915 0.036454074 -0.13473003 -0.13752364 -0.0761194 -0.00046076742
-0.0048441 -0.12680843 -0.098358646 -0.0004282968 -0.014242529 0.031846747 -0.030996487 -0.02932118
-0.06403353 0.049973357 0.053132273 -0.08162444 0.0020452624 0.023709947 -0.029458687 -0.023509044
-0.05872937 -0.021671925 0.09421995 0.0011204837 -0.0050775167 -0.045703664 0.06528119 -0.0016878829
0.044844363 -0.05951434 -0.13309084 -0.21174634 -0.1901675 0.10396015 0.016705474 -0.024283106
0.018439407 0.07051939 -0.065052934 -0.034188095 0.022904668 0.00018764561 -0.08600286 -0.006157855
-0.037978802 -0.07578731 0.046062738 0.0066124373 -0.018533988 -0.07652822 0.055304065 0.006804685
0.00759313 0.00021341364 0.06562757 0.01438433 0.049843796 0.070541 -0.029509628 0.018688772
0.05691986 0.060116164 -0.052697793 -0.057178378 -0.0055699553 -0.016009009 0.04166899 -0.01438466
-0.055486213 -0.05707003 0.02241712 0.025712073 -0.05882248 0.007560823 0.06489196 -0.052648786
0.08282732 0.026623193 -0.024666183 0.035004385 -0.059319913 -0.07845246 0.08671032 0.002486777
-0.036688484 0.07716637 -0.060036376 -0.0055805305 -0.025237266 -0.03319819 0.008253613 0.022590807
-0.017404761 0.12067256 0.03453349 0.13424732 0.053677738 0.039496277 0.09464594 -0.01568403
-0.030920137 -0.03934802 0.017168637 -0.007914358 -0.07201542 0.0034741268 -0.019862851 -0.013705736
-0.17153211 -0.22632043 -0.18444929 -0.046020832 -0.13400891 -0.049801297 -0.011752699 -0.0918213
-0.08056345 -0.056786545 -0.06315226 0.013567541 -0.08616743 -0.009561387 0.040102523 0.06616179
00000000: c1cc 90bd 8fd1 be3c b9cd 953d f2b0 4dbd
00000010: 8ab6 94bd 7dca 293c b20f 0abd bfa2 f93a
00000020: ce39 923d 26fd 26bd 82cb a83c 04c8 273d
00000030: a504 4f3d 305f d0bd e221 5e3b b01c 1c3d
00000040: ba14 253c 7e55 3f3d 90fe 56bd afe6 eebc
00000050: 2d87 80bd ab70 263c c380 36bd 7ef0 ff3c
00000060: 5bc9 523d 19bb 54bc a600 013c 4849 94bd
00000070: 80df 10bd 5660 a0bd 5386 b7bd 39f2 e2bb
00000080: cba4 4dbd 0975 bebd fe11 593d 6c53 5bbd
00000090: c069 94bb 4215 b0bc 8b76 38bd 6422 4abd
000000a0: c52d 693d d362 f8bc 5c59 dfbb 307f 9f3c
000000b0: 4d33 5fbd 9235 74bd c97b 493c cd9d 233d
000000c0: 4def 9f3c c0ee 20bd 7c9f fe3c e65c 883d
000000d0: c374 8fbd b297 29bd 8076 cb38 2dc9 833d
000000e0: 6c78 4dbd 7501 0d3d d879 b83d fc7c 203d
000000f0: 34fb 9fbc 21a8 b6bc 0029 c7bb e560 803d
00000100: 5960 6a3c e67f 953d 685d 043c 1ff0 233d
00000110: f5eb 7b3d acad b23b 0e9f 343d 3fe0 903b
00000120: d02e 343c 9b6c 2ebd a0af 523d 9455 4ebc
00000130: 755f 84bd dbdc 893d d8d2 2bbc 299e 433d
00000140: f515 2bbd 63f2 793d f230 363c 2c26 cdbb
00000150: 0806 a23d f57e f8bb 1665 fe3c 4361 643d
00000160: 0f4e cf3d 373e 513d ac8f 193b 611b 9f3b
00000170: 479d 0abd 3c0d 70bc 5c26 f5bb 0337 863c
00000180: 5d96 593c 8c5c 0d3a 4e08 06bd 826b f73c
00000190: 2c0e 19bd 5161 4b3c 7230 d43c 0ebe 33bd
000001a0: b022 513c cf55 05bd 3233 19bd edc8 c0bc
000001b0: dd70 6d3d 8b48 1dbd b31a 1a3d 0da9 90bd
000001c0: c564 ab3c 5fba 4abc a457 38bd 8065 073d
000001d0: b908 703d 9426 bdbc eee7 093d 92a8 e73c
000001e0: 1a1c 40bd 255e 5e3d d121 4f3d c5b0 fbbb
000001f0: 195d 94bd 0210 a7bd e5f0 4dbd 5f8f 5ebd
00000200: 3011 3fbd 4c48 003e 4170 173e de50 153d
00000210: abf6 09be ffd2 0cbe 7de4 9bbd 2893 f1b9
00000220: 42bb 9ebb 12da 01be 4270 c9bd 068d e0b9
00000230: 7f59 69bc bc71 023d 58ec fdbc f932 f0bc
00000240: 0324 83bd ddb0 4c3d 3aa1 593d b72a a7bd
00000250: cf09 063b 5d3b c23c 5853 f1bc 0a96 c0bc
00000260: 358e 70bd 5289 b1bc 64f6 c03d 32dd 923a
00000270: 4c61 a6bb c433 3bbd 25b2 853d f43b ddba
00000280: b9ae 373d 4fc5 73bd f748 08be 08d4 58be
00000290: 45bb 42be 0fe9 d43d ebd9 883c 5ded c6bc
000002a0: 3d0e 973c 786c 903d 793a 85bd d108 0cbd
000002b0: 92a2 bb3c bcc2 4439 4422 b0bd d5c7 c9bb
000002c0: a98f 1bbd 6136 9bbd 48ac 3c3d 25ad d83b
000002d0: 97d4 97bc d4ba 9cbd 8486 623d d6f9 de3b
000002e0: cbcf f83b cac7 5f39 bf67 863d 41ac 6b3c
000002f0: 0229 4c3d cd77 903d 2dbe f1bc 3219 993c
00000300: cd24 693d 5e3c 763d a4d9 57bd e033 6abd
00000310: 2c84 b6bb 5325 83bc 1aad 2a3d a3ad 6bbc
00000320: 8345 63bd 44c2 69bd 1ca4 b73c 20a2 d23c
00000330: d7ef 70bd c8c0 f73b 13e6 843d 41a6 57bd
00000340: 5fa1 a93d e218 da3c bc10 cabc c260 0f3d
00000350: 70f9 72bd afab a0bd 2e95 b13d 32f9 223b
00000360: aa46 16bd 6709 9e3d b4e8 75bd e2dc b6bb
00000370: 62be cebc d3fa 07bd 293a 073c 5b10 b93c
00000380: 6e94 8ebc 2d23 f73d fd72 0d3d 2178 093e
00000390: 30dd 5b3d d9c6 213d bbd5 c13d cb7b 80bc
000003a0: 3a4c fdbc 642b 21bd 3ea5 8c3c 39ab 01bc
000003b0: d27c 93bd 2dae 633b 6bb7 a2bc 068e 60bc
000003c0: 1da6 2fbe 8bc0 67be 46e0 3cbe 5780 3cbd
000003d0: a239 09be 72fc 4bbd 648e 40bc ce0c bcbd
000003e0: 73fe a4bd 0299 68bd f955 81bd 644a 5e3c
000003f0: 8d78 b0bd 5da7 1cbc 8b42 243d d57f 873d

decoder.7.bias f4 [2]
0.045100752 0.12701106
00000000: 91bb 383d 300f 023e
