trained_model/colorization_model.pth (torch, 132418 bytes, 16 tensors)

encoder.0.weight f4 [8, 1, 3, 3]
00000000: 355f e33d 038a 4abe 9407 5a3e 4034 683e
00000010: 0e54 40bc 7eca 4cbe f8f3 4bbe 29e2 25bd
00000020: d413 8a3c b521 92be 3dfd 1cbe 2ca8 373e
00000030: e18e 9bbe d12b 903d 738b 163e 3509 a53e
00000040: e927 92be 4505 a0bd 9633 8bbe c062 8fbe
00000050: d049 f9bc b28f 813e 2317 0d3e db3e 19be
00000060: edb4 c93d 9322 833c 3368 8ebe ad6a cfbd
00000070: 954e 9ebe 8872 983e 95cd 573e 5069 c9bc
00000080: 9bdc d13d d4ec 8bb9 20ca e93d cfb8 2ebd
00000090: 2ac5 87bb e6e4 0cbe eb11 143e 430e 853e
000000a0: e087 96be e8a5 823e cbfb ab3d d3c9 9d3e
000000b0: 668e 7cbe 5c8f 0abe d8dd d33d 70e6 b2be
000000c0: 7b2d 6bbe 4601 8bbd 24ca 293e a460 12be
000000d0: 5c28 d53d ce34 823e 8f7a 613e 3a66 953d
000000e0: 2a06 9e3d 2ae8 5a3e 873c 423e 64fc 683e
000000f0: b04d dd3d c71a 223d 62bd 433e 1964 9c3e
00000100: ce02 48bc d084 0a3e bd0a 90be e4d0 98be
00000110: f199 13be 6e24 993d c612 85be 634d c8bd
0.11102144 -0.1977921 0.21291953 0.22676182 -0.01173879 -0.1999912 -0.19917285 -0.040498886
0.016855158 -0.2854134 -0.15330978 0.17935246 -0.30382445 0.07039607 0.14701633 0.32233587
-0.28546074 -0.07813505 -0.27187794 -0.28005028 -0.030430704 0.25304943 0.13778357 -0.14965384
0.09848962 0.016007697 -0.27813873 -0.10127769 -0.30919328 0.2977488 0.21074517 -0.02458635
0.10247155 -0.00026688597 0.114155054 -0.042656716 -0.004143377 -0.13759193 0.1445996 0.25987443
-0.2940054 0.255172 0.08397635 0.30818042 -0.24663696 -0.1353125 0.10345048 -0.34941435
-0.22966568 -0.06787352 0.16581017 -0.14294678 0.104080886 0.25430912 0.22019409 0.07294889
0.077160195 0.21377626 0.18968402 0.2275253 0.10805833 0.039576318 0.19115213 0.30545118
-0.0122077 0.13527226 -0.28133193 -0.2984687 -0.14414193 0.074776515 -0.25990885 -0.09780385

encoder.0.bias f4 [8]
00000000: 743b 4dbe 4745 973d d0f4 a8be e4bd 07be
00000010: 918d 2d3e 3f2f fc3d f817 a53e 70cd 33bd
-0.20042211 0.073862605 -0.32999277 -0.13256031 0.16948535 0.12313699 0.3224485 -0.043897092

encoder.2.weight f4 [16, 8, 3, 3]
00000000: b097 0cbc 3f3b 66bd b265 52bd a886 e5bc
00000010: d4e5 5abd f25d 83bd 88a3 dabc 492c ec3d
00000020: e795 ac3d 0659 b53c 8c3d 5fbc 4f44 283d
00000030: 485d b83d 7fde c23d 4533 22bd 3921 b2bd
00000040: ce91 c73c b3f0 69bd 8e30 043d b3bd 15bd
00000050: 99fd 333c 8191 a13d cb83 d0bc 6263 83bd
00000060: 2171 903d b485 f8bc d409 a8bd a609 af3d
00000070: 5244 a3bd 9c5f c2bc b0f8 56bd 44f1 ce3d
00000080: a353 2a3b 9520 97bd 52a4 6d3c e00a b93c
00000090: 6d26 933d b9d3 273c c227 dfbd 8e95 93bd
000000a0: c2e6 9e3d 35c7 943d b0a9 eabd ce9f a2bc
000000b0: 2a25 e9bd ab07 be3d a2dd 76bd 4379 52bb
000000c0: 91f2 ccbd e3bc 7dbc b034 c0bd 016e e63c
000000d0: 01c9 933d 583d fc3c b2bf 67bd 71d0 37bc
000000e0: a90f 44bc c0cd 1b3d 2b2b 633d db07 01be
000000f0: a1a0 8dbc 32e2 cb3d d6be 343d 825d 543d
00000100: 0df9 c8bd 08be ee3d ea57 1f3d c687 743d
00000110: 75bd b73d 9012 273c 5057 64bd c947 9a3d
00000120: c850 5abd fc87 f1bc 609e c4bd 8e65 9dbd
00000130: 778e d73d 1a9e 5b3d 7c17 f73c d6d1 59bd
00000140: 8a36 85bd ce90 a23d 8475 1a3d bd8c 50bd
00000150: b94b d43d c06a ac3a 9f41 f7bd f023 2dbd
00000160: 0236 be3d a63f f0bc 4f39 f03d e140 ee3d
00000170: c0ce 35bb 5267 103d 8864 28bd dd12 b63d
00000180: 036d e13d d070 8bbd 0c7c 15bd 7980 e1bd
00000190: 7fe2 7e3d 78f4 e0bd 8fb0 e63d a809 d5bc
000001a0: c961 d3bd 114a ccbd 1d86 d0bd a4bb a9bc
000001b0: 952a 753d 4f15 de3c e21e 9bbd 56cd 9bbc
000001c0: 9274 f7bd cce4 093d f381 3dbd afbe 583d
000001d0: 65a5 9b3d 1819 c0bd 8926 a13b 1e29 c8bd
000001e0: cccd fcbd 0e1b 82bd 06e9 75bd 2c16 663d
000001f0: 1988 9a3d 50a4 8f3d 9692 08bd 2a11 00be
00000200: a4f3 ac3d b3b6 67bd 217d c0bd 6a3a a4bd
00000210: 65f9 863d 237a 703d 8800 d6bd 194a 2fbc
00000220: 93c3 cb3d 0318 78bd e34a 973d dd6d 3d3d
00000230: b1e7 bf3d 511e c53d 283f cdbc dad1 3c3d
00000240: 5c0c b93c a652 013d 9a0c 4cbd 0535 e3bd
00000250: 3208 7cbd 335e be3d 63a2 ba3d ce10 323d
00000260: f284 553d c02f c33d 66b4 1b3d c6cd 88bd
00000270: b930 2cbd 8f2d ffbd cc85 223d 897b a53d
00000280: c027 a13d e425 aabd 442c bebc 51ae a73d
00000290: 1422 a83c 3cf5 f3bc 0188 df3d a05f 1d3b
000002a0: b866 46bc 8ef6 8cbd ac53 10bd 40bd 443d
000002b0: 738d 9e3d 7fc3 dc3c 3b8a d53d 7aa7 24bd
000002c0: 1272 d3bd a9dc b8bd 30db 87bc 3ad8 993c
000002d0: d821 e4bd 0ee1 ab3d d557 9c3d 842d 88bd
000002e0: 22b4 23bd d3a6 973d 491c a13d 4732 083d
000002f0: 3d6d 093d d37b 5fbd 1236 85bd 08bf 99bc
00000300: de6f 20bd 5aab 463d d455 28bd 396c 1ebd
00000310: bb6e 723d e4b9 67bd 93d2 ca3d 88a9 12bd
00000320: e4aa 0e3d 97d8 61bc a597 50bd f006 a8bd
00000330: f9b0 79bd a402 c63c 8b09 2fbd fa81 61bc
00000340: 78df 053d 6094 a43a dd43 09bd 4bac d33b
00000350: 289e 7abd 724e 653c 7e30 fcbd 7dd5 9bbd
00000360: 1699 153d 41f4 62bd f404 80bc 1f67 833d
00000370: 119b b53d 0078 4e3a e826 20bd 1445 a1bc
00000380: 2bce bb3d 38a4 8abd 4db1 c8bd 153e c7bd
00000390: 1161 7a3d cbd8 dbbc cf8e 59bd f377 c63d
000003a0: f83a d9bc 9639 743c 5e34 25bd f95b e23d
000003b0: c522 bd3d f6cc e4bd 74db a2bd 54eb 8f3c
000003c0: 0c7f e2bc dcfd a43c 6e47 173d 65d5 1abd
000003d0: 3fc5 96bd 2ad9 d73a cff3 13bd e65f d83b
000003e0: 29df c2bc e0af b23c 6ca3 2f3d b3ce 6fbd
000003f0: ee86 403d 2c6b 273c 589d 7c3d d097 d7bc
-0.008581087 -0.056208845 -0.051366515 -0.02801831 -0.053441837 -0.06414403 -0.026689306 0.11531884
0.08427029 0.022137176 -0.013625514 0.04108077 0.09002167 0.09515094 -0.039599676 -0.08697743
0.024361517 -0.057114314 0.032272868 -0.036557864 0.010985755 0.07889081 -0.025453469 -0.0641544
0.070528276 -0.030337192 -0.082049996 0.08546762 -0.079720154 -0.02372723 -0.05248326 0.101046115
0.0025989793 -0.073792614 0.014504509 0.022588193 0.071850635 0.01024335 -0.10896255 -0.0720626
0.07758857 0.07264558 -0.114581466 -0.019851591 -0.113840416 0.09278806 -0.06026996 -0.0032115735
-0.10007203 -0.015486929 -0.09385049 0.028128626 0.07216073 0.03079097 -0.0565793 -0.01121913
-0.011966624 0.038038015 0.05546109 -0.12600653 -0.017288508 0.09955253 0.044127308 0.05184699
-0.09813128 0.11657339 0.0389022 0.059699796 0.08971683 0.010197297 -0.05574733 0.07533223
-0.053299695 -0.029483788 -0.0960052 -0.07685386 0.1052522 0.053617574 0.030162565 -0.05317863
-0.06504543 0.079377756 0.037709728 -0.05091547 0.103660055 0.0013154373 -0.12073063 -0.0422706
0.09287645 -0.029327225 0.11729681 0.116334684 -0.002774164 0.035254784 -0.0411115 0.08890317
0.110071205 -0.06808627 -0.036495253 -0.11010832 0.062227722 -0.10984129 0.11264145 -0.026005581
-0.103213854 -0.099750645 -0.1018183 -0.020719357 0.059855063 0.02710977 -0.0757425 -0.01901881
-0.12082781 0.033665463 -0.046266507 0.052916225 0.07599906 -0.09379786 0.004917924 -0.097734675
-0.1234394 -0.063528165 -0.06003668 0.05617349 0.0754549 0.07013762 -0.03334292 -0.12506548
0.08444908 -0.05657072 -0.093988664 -0.08018954 0.06590537 0.05871023 -0.1044932 -0.010698819
0.09949412 -0.060569774 0.073873304 0.046247352 0.093703635 0.09624923 -0.02505453 0.046098568
0.022588901 0.03157296 -0.049816705 -0.11094097 -0.061531253 0.09295311 0.09113004 0.043473057
0.05212874 0.09530592 0.03801384 -0.06679873 -0.042038653 -0.124598615 0.03967838 0.08080203
0.0786891 -0.08308008 -0.023214467 0.08187545 0.020524062 -0.029780023 0.109146126 0.0024013296
-0.012109451 -0.06882964 -0.035236046 0.048032045 0.07741823 0.026948689 0.10426756 -0.04019878
-0.103244916 -0.090264626 -0.016584009 0.018779863 -0.11139268 0.08392535 0.0763394 -0.066493064
-0.03996671 0.07404866 0.07866723 0.033251073 0.033551443 -0.054561447 -0.06504454 -0.018767849
-0.039169185 0.048503257 -0.041097477 -0.038677428 0.059187632 -0.056573763 0.09903445 -0.03580621
0.034830943 -0.013784549 -0.05092587 -0.08204448 -0.06095979 0.024171181 -0.04273371 -0.013763899
0.03268382 0.0012556426 -0.033511985 0.006459748 -0.061185986 0.013995754 -0.12313937 -0.07609079
0.036522947 -0.05540872 -0.015627362 0.06416153 0.08867467 0.0007876158 -0.039099604 -0.01968626
0.09170183 -0.067696035 -0.097994424 -0.09728638 0.061127726 -0.026836773 -0.05311471 0.09690847
-0.026517376 0.014906308 -0.040333144 0.11052699 0.092351474 -0.11171906 -0.079520136 0.017568268
-0.027648471 0.02014058 0.036933355 -0.037801165 -0.073618405 0.0016467918 -0.036121186 0.006603229
-0.023788052 0.02181238 0.04288046 -0.058546733 0.04700368 0.010218423 0.061673492 -0.026317507

encoder.2.bias f4 [16]
00000000: 3f00 e4bd 5be6 003d bf9f 7fbd 0beb d7bd
00000010: 87a2 a4bb e275 9ebc b933 09bc 938d a83d
00000020: 4cbb d9bc fd07 d43d 51de 793d a0ff 813c
00000030: 3bc8 09be 9797 e83d 5f4e 843d a09a 9e3d
-0.111328594 0.031469684 -0.062408205 -0.10542878 -0.0050242576 -0.01934332 -0.008374148 0.08230128
-0.026578568 0.10353086 0.061003033 0.015868962 -0.13455288 0.113570385 0.064602606 0.07744336

encoder.4.weight f4 [16, 16, 3, 3]
00000000: fe86 3c3d 55d7 a73b d771 ec3c c26b 303d
00000010: 721e 903d c1ed 8cbd f112 633c f1bc af3c
00000020: 860c efbc 0932 cfbb 8768 68bd c2b1 06bd
00000030: f476 903d 98a7 813c e837 aebd 7278 dfbc
00000040: 2d95 a93c f01e 79bd cbe8 e1bc fedb 8bbd
00000050: 7338 713d 01ee 783d d887 a03d 5203 9d3c
00000060: bab2 e1bc 4d20 a8bd 7066 093d bdef f9bc
00000070: 7ce5 1d3d 4d3c 9ebd 2dbb 523d e5cd 683d
00000080: c56d 743d 9e39 133d 7ff5 103d c8ce 313d
00000090: ec0d e93c 5ec2 7bbd 36ed 48bd 8a1e 143d
000000a0: 2c4c 823c 4272 4c3d 2ad7 673d cbbb 67bd
000000b0: 2600 3b3d 74ad 11bd fa8a 633c 8444 463b
000000c0: 9d29 d1bd c790 9fbc 4d92 823d 7425 3a3c
000000d0: 7470 353b 5266 73bb 78a4 9ebb 526d 98bd
000000e0: 1494 393c 0429 9bbd 33cd afbd 229e c8bd
000000f0: 46ec 783c 1276 b7bd 6b07 893a 4674 83bd
00000100: 1f76 403d 5021 24bb 0370 a1bd ecfc 733d
00000110: 8235 133c 181b 473d 4696 86bc 565e aebd
00000120: 2a05 bdbd 1a48 6cbd a4de 3a3b 4472 a0bd
00000130: bbf4 edbb b1c7 12bc 339c ea3c 4ed3 843c
00000140: ffa5 5ebc 1537 823c 6225 813d bf9f 2d3c
00000150: 2903 babc 7135 c0bd 24ad a5b8 5841 81bb
00000160: a472 dd3c 68f9 8dbc 13f2 4cbd 107f a2bd
00000170: 0905 29bd cf39 883d 846b 96bd 741f 3cbd
00000180: 52bb 5fbd 404d 7a3d 6b5f 2c3c e607 48bd
00000190: b377 843d 645e 153c cbce 993d 11ab e2bc
000001a0: da45 8a3d a622 70bd cf41 8cbc 3812 d0bc
000001b0: 879a 4ebd cb1f b039 5119 6cbd a148 1f3d
000001c0: 3f29 87ba 82ed 703d 01a9 1ebd 176a bcbd
000001d0: f63c 6a3c a505 653d eec9 143c bd96 87bd
000001e0: 2cd9 91bd b0c1 3d3d b858 193b 0048 2bbd
000001f0: 9e4c 70bc adf4 de3c ee67 d43b 2521 8e3b
00000200: a15c c9bd 9064 fdbc 5098 3ebd 95aa 22bd
00000210: d905 fc3c 0a20 813d 8491 74bd 7d7e 00bd
00000220: 4aab 8abd d244 99bd d56f c0bd 99e9 573d
00000230: a675 d83c b040 6bbd 61c1 893c efba 1e3d
00000240: 74d4 5abd 768d 813d cdce 833d 6a21 843d
00000250: a7e5 553d eca2 92bd 47ec 64bd 99a0 40bd
00000260: 7e6d a9bd e76a 1fbd 323e f63b 13fb 81bd
00000270: 3961 253d 9bd1 943d 30cb 93bd 627a 0fbd
00000280: 6b41 95bd 3fb9 353d a220 743d e028 103c
00000290: 3b87 5bbd 6a2e c0bc 31db 393d 9b23 243c
000002a0: 07a6 833c e42a 763d 4f75 493c e856 973d
000002b0: e4ba 5cbd 50c3 df3c c8f9 1ebb 2ca9 02bd
000002c0: f876 9b3d 82bf a9bd 72ac a4bc 27c1 90bd
000002d0: 40fb b83c 0bd7 6dbd c25a 9a3c 3044 2cbd
000002e0: 00b0 a238 0e84 073d 8b2e a83d f3ba 5ebd
000002f0: bf7d 933c 9b38 a5bc e1ed 29bd 32e0 82bd
00000300: fdc9 2f3c d808 9e3d 4e00 a3bc c0e6 933d
00000310: 2ee5 c9bb b036 70bd acda 4b3d e6da 993d
00000320: 99dc 81bd 2dbb 64bd bfcb a13d 822e 9fbd
00000330: 3771 95bd da22 a23d 6f71 463d 4ce8 9039
00000340: 7905 d13c d9e7 8a3d 84dd 7bbb eea3 b1bc
00000350: 37b5 7b3d 8f95 b5bb 9f55 b7bc 864a 893d
00000360: 396a 4f3d d933 edbc bac0 793d 8bd4 9bbc
00000370: 26b4 1ebd 50a9 543d 5908 ce3c f157 9cbd
00000380: f2eb 833d 42e8 d4bc 308b 81bd 0bcc 883d
00000390: 87a9 88bc 695c 843d 9fde 8e3d b3fb 903d
000003a0: 896a 92bd 99f9 8b3d 40c9 a93a 80b9 493a
000003b0: e4ea b6bd 8099 28bb 561a 2bbd 85de 853d
000003c0: 9db8 e0bc 9939 20bd 6f25 653d d7da 133d
000003d0: b8c0 2a3d baea 913c b973 c3bd d896 343d
000003e0: dbe7 183d 789a a5bd 3344 583d 00e1 dcbd
000003f0: b27b 153c 94cf f2bc 1ca5 543d c29d 86bd
0.046027176 0.005122105 0.028862877 0.043071516 0.07037057 -0.068812855 0.013859496 0.021452399
-0.029180776 -0.0063231033 -0.05674031 -0.032884367 0.070539385 0.015826985 -0.08506757 -0.027279112
0.020701015 -0.06082052 -0.027576825 -0.068290696 0.058891725 0.060773853 0.0783841 0.019166622
-0.027551044 -0.08209286 0.033544958 -0.030509824 0.03854893 -0.07726345 0.051448036 0.05683698
0.059674997 0.03594362 0.035390373 0.043410093 0.028449021 -0.06146466 -0.049054347 0.036161937
0.015905462 0.049913652 0.05660168 -0.056575578 0.04565444 -0.03556581 0.013888115 0.003025324
-0.10213015 -0.019478215 0.06375561 0.011361469 0.0027685435 -0.0037139845 -0.0048413835 -0.07442726
0.0113268085 -0.075761825 -0.085840605 -0.097957864 0.015193051 -0.08958067 0.0010454481 -0.06418662
0.04698765 -0.002504427 -0.07882693 0.059567377 0.008984925 0.048609823 -0.016429078 -0.08514087
-0.092295006 -0.05768595 0.0028514052 -0.078342944 -0.00726184 -0.008958743 0.028638935 0.01621404
-0.013589381 0.015895406 0.06305958 0.0105971685 -0.022706585 -0.09385193 -7.900063e-05 -0.003944557
0.027032204 -0.01733084 -0.050035547 -0.079343915 -0.041264568 0.06651651 -0.07344726 -0.045928434
-0.054622002 0.061108828 0.010520796 -0.048835658 0.06468143 0.009116743 0.07510146 -0.027669461
0.067516044 -0.058626793 -0.017121224 -0.025399312 -0.050440338 0.00033593024 -0.05764133 0.038887624
-0.0010311975 0.058820255 -0.038735393 -0.091999225 0.014296761 0.055913586 0.009081347 -0.06620548
-0.071215004 0.046327293 0.0023398828 -0.04181671 -0.014666704 0.02721628 0.006482116 0.004337447
-0.09832121 -0.030931741 -0.046531975 -0.03971346 0.030764507 0.06304939 -0.059709087 -0.03137063
-0.06770952 -0.074838296 -0.0939633 0.05271301 0.026423287 -0.057434738 0.016815843 0.038752493
-0.053425267 0.0632581 0.064359285 0.06451686 0.052220967 -0.07159981 -0.055889394 -0.047028158
-0.08272837 -0.03892031 0.0075147385 -0.06346717 0.040375922 0.072665416 -0.07216489 -0.035028823
-0.07287868 0.044366118 0.059601434 0.008798808 -0.053595763 -0.023459632 0.045375053 0.010018255
0.016070379 0.060099497 0.012296035 0.07389623 -0.05388917 0.027314812 -0.0024257768 -0.031899616
0.07591051 -0.0828848 -0.02010176 -0.07068091 0.022580743 -0.05806641 0.018842105 -0.042057216
7.7575445e-05 0.03308492 0.08212002 -0.054377507 0.018004296 -0.020168593 -0.041486625 -0.06390418
0.01072931 0.077165306 -0.019897606 0.072217464 -0.0061613536 -0.058645904 0.04976909 0.07512455
-0.06340904 -0.055842567 0.079001896 -0.077725425 -0.07296985 0.07916804 0.048448022 0.00027638895
0.025515305 0.06782503 -0.0038431594 -0.021684613 0.061452117 -0.0055415104 -0.022379695 0.06703667
0.05063841 -0.028955387 0.060974814 -0.019022247 -0.03874602 0.05191928 0.025150465 -0.07633961
0.06441487 -0.025989655 -0.06325376 0.06679543 -0.0166824 0.06462938 0.06976055 0.07079258
-0.07149226 0.06834716 0.0012953654 0.0007695183 -0.089315206 -0.0025726259 -0.041773163 0.06536583
-0.02743178 -0.03911743 0.055943903 0.036097374 0.041687697 0.017812122 -0.09543557 0.04408917
0.03733049 -0.08086103 0.052799415 -0.10785103 0.00912373 -0.029639997 0.051915273 -0.06573059

encoder.4.bias f4 [16]
00000000: ab9b 043d d094 fe3b 25ca f13c eb44 5bbd
00000010: fa95 9ebc 9aab 403c 88fe 52bd e226 87bd
00000020: 840c a9bd e8b9 f3bc 6752 7ebd f5eb 313d
00000030: 2cc4 4abd ff38 a9bd 72aa 203c 62dc 663d
0.03237502 0.0077692047 0.029515335 -0.053532522 -0.019358624 0.011759663 -0.05151227 -0.06599213
-0.0825434 -0.029751733 -0.062090304 0.043437917 -0.04950349 -0.08262824 0.009806262 0.056362517

encoder.6.weight f4 [32, 16, 3, 3]
00000000: 8a85 39bc 7dec ac3b 6a1e 7fbd afcc aebd
00000010: 5e8a 503c 8041 7c3c e31a 19bd 58b9 44bd
00000020: 2b6d 01bd 7984 5c3c 86d4 3dbd b1e2 8bbd
00000030: 6e9b 223d 6b6c db3c 34ed 593d e76d 07bd
00000040: 01a4 2b3c 2f19 efbc 3327 35bd 51f5 65bd
00000050: 211b 2e3d f6ca c3bb 272b 8cbc 00ff c4bd
00000060: 22b0 9fbc 9b12 94bd 98b9 e8b7 2694 dabc
00000070: 2475 8fbc a47f 82bc 24a7 80bd a68f 0d3d
00000080: dc5b 973c 6617 f0bc b07a a23c 20a5 b73c
00000090: ab51 81bd 77d7 6b3b 02cf 183d 1375 9bbc
000000a0: 598a 0abd b8fc 453d ec72 44b9 acee 19bd
000000b0: 1d04 bcbb 963d a23a 2682 8d3c 6fc6 1ebd
000000c0: b59f a13d 5938 203d 12c6 e0bc 8bb2 66bd
000000d0: 21f7 843d 87b4 f53c d453 e73c 00cc f638
000000e0: 54cc e23c 70d0 f6bb 30ec 9c3b 2a9c 9bbd
000000f0: 0e72 66bd bc88 8cbd 3f32 9b3d 41aa 47bd
00000100: 7e58 ebbc e7ca abbd 8a5d 0cbd bc6e 623c
00000110: 10a2 553c 1252 87bd 83d3 cabd 6e39 683c
00000120: c8c9 243c e0d2 68bd f346 a4bc 9083 253d
00000130: 4fbb d63c c963 aa3d 1cce e6bc 5d0d 04bd
00000140: f932 773d 3789 98bc 1d22 913d a30b d23c
00000150: ac3c 533d 1595 9b3d 5f4b 3f3d 2429 e7ba
00000160: 7bdf 66bc 5a05 4ebd 0f6c 7dbd b44a a2bc
00000170: d98f 8abd a53c 6fbd dec8 a43b cc24 583d
00000180: ebf8 853d 3e9f 7d3d 865e 053d 9b85 ab3c
00000190: 9111 aebd 5b75 973d b1be 9cbd 0cc9 25bd
000001a0: 1525 913c 5f41 2c3c c7c3 0a3d 44f4 87bd
000001b0: ecbe 87bc 0036 e03c fb2f 53bd 323f 513d
000001c0: 060d 253d 411c a03d 0ae5 3e3d e8d0 1bbc
000001d0: d1c0 9b3d f539 923d a2a7 a5bd d81a 0a3d
000001e0: d0ec 82bb ce01 32bd 31e3 8f3d 3817 04bc
000001f0: 1bb1 43bd e050 a6bc 1150 7cbb 9ace b23d
00000200: 7c3e 343d 89d8 e53c 015a 113d c08a 7c3d
00000210: f80c 8abd 450e 9e3d e3a2 513d bbd5 803c
00000220: 3747 88bd 5fbd 88bd 16cc f43c a137 cc3c
00000230: c455 32bd fa37 9abd cd4c f0bc fa6e 03bd
00000240: 8d99 77bd 39dc bdbc 8334 9bbc 07e1 ecbc
00000250: 210b 843d 8a61 37bd cf07 5ebc f925 0cbb
00000260: e6a4 3cbd 148e a83c 6e9c 8f3d 8ff3 e8bc
00000270: 386c a73d 3242 5a3c ddf0 55bd 7ee5 7b3d
00000280: 7d7f 6e3c 7103 a53d c847 6abd 7085 493d
00000290: 58d8 db3c 2dc5 ac3d 14a3 1abc 67d1 ec3c
000002a0: 3856 64bd 9eef 143d 2bc2 cb3c 0887 59bd
000002b0: 3628 473d b926 a03d dad9 153d b1af 8f3d
000002c0: c6a7 febc cfcd a9bd fefb 95bd 0681 323d
000002d0: 51b3 a33d 12e8 543d 371e 91bd 2438 8abd
000002e0: 40ff d9bc ad82 e63c 1da2 4bbc 0407 83bd
000002f0: 1bbe 903d 2124 393c eccb 9f3d a0c8 dcbc
00000300: 756a 8ebb 8123 0f3d ead5 6f3c 04e6 d0bc
00000310: d563 c63c ea51 81bd c8c5 713c 4e1f 57bd
00000320: 93e7 a13d 7015 fd3b 042d a9bd e0d1 f3bc
00000330: d884 2d3c 2027 29bc a22c 94bd e157 05bd
00000340: 2781 22bd a76a 2f3d 8655 263d 2d5c c53c
00000350: 05ee 87bc 8b9d 56bd 0a44 00bd 054d f73c
00000360: 201f 6bbc 4666 2e3d a236 93bd c0a7 853a
00000370: f662 e0bc cd64 7e3c 806d 18bb 7e86 503d
00000380: 3e28 643d 0284 5fbd 69a1 08bd efb0 3b3c
00000390: 6b31 81bd 92cb 083d 8c72 f2bc 4345 77bd
000003a0: f3b8 963d f4f1 5e3b 55a9 073d 1da5 5e3d
000003b0: 3146 97bd 58c1 a8b9 4e42 92bd b6e9 3bbd
000003c0: 7a4c 9e3d 4a40 843c 19ed 983d 3cb9 3abd
000003d0: 0123 bcbb 4ce7 f0bc f076 a83d b247 8dbd
000003e0: 0594 67bc 6707 9f3c c34d 333d 7d60 a7bc
000003f0: 04b5 d93c 8a4f 483d 3aaf 813d da01 523d
-0.011323342 0.005277215 -0.062284864 -0.08535134 0.012728302 0.015396476 -0.037379157 -0.04802832
-0.03159825 0.013459318 -0.046345256 -0.06830347 0.03969901 0.026785096 0.05320473 -0.033063795
0.010476113 -0.029186813 -0.044226836 -0.056142155 0.04250634 -0.0059751226 -0.01711042 -0.0961895
-0.019493166 -0.07230111 -2.7742979e-05 -0.02668197 -0.017511912 -0.015930004 -0.062818795 0.034560822
0.01847642 -0.029308032 0.019833893 0.022417605 -0.06314405 0.0035986581 0.037306793 -0.018976724
-0.033823345 0.048336715 -0.00018734828 -0.03758113 -0.005737795 0.0012377973 0.017273974 -0.03876346
0.0789179 0.039116237 -0.027438197 -0.056322616 0.064924486 0.029993309 0.028238215 0.00011768192
0.027685322 -0.007532172 0.004788898 -0.07598145 -0.056261115 -0.068620175 0.07577943 -0.04874635
-0.02872872 -0.0838831 -0.034268893 0.013820346 0.013039127 -0.066074505 -0.09903624 0.014173849
0.010057874 -0.05684173 -0.020053362 0.04040867 0.026212363 0.08319814 -0.028174452 -0.032239307
0.060351346 -0.018620117 0.07086585 0.025640314 0.051571533 0.075967945 0.04670274 -0.0017636162
-0.014091368 -0.050298072 -0.06187063 -0.019811012 -0.06765718 -0.058407445 0.005028828 0.052769467
0.06541618 0.061919443 0.032560848 0.020937731 -0.08499444 0.07395431 -0.07653559 -0.040474936
0.017717877 0.010513633 0.033878114 -0.06638387 -0.01657053 0.0273695 -0.05155943 0.05108566
0.040295623 0.07817889 0.046605147 -0.009510256 0.07605136 0.07139961 -0.08088614 0.033717006
-0.0039955154 -0.043458752 0.07025755 -0.008062176 -0.047776323 -0.020302236 -0.0038499872 0.08730812
0.044004902 0.028057354 0.035486225 0.06165576 -0.06740755 0.077175654 0.05118073 0.015726915
-0.06654208 -0.06676745 0.029882472 0.02492887 -0.043538824 -0.07530208 -0.029333496 -0.032088257
-0.06044917 -0.0231763 -0.018945938 -0.028915895 0.06447435 -0.044770755 -0.013551666 -0.0021384938
-0.046055697 0.02057556 0.070122585 -0.02843645 0.08174938 0.013321446 -0.05223166 0.061498158
0.014556763 0.08057297 -0.057197362 0.04919952 0.02683656 0.08436046 -0.009438295 0.028908445
-0.055746287 0.03636133 0.02487286 -0.05310729 0.048622333 0.07819886 0.036584713 0.07015932
-0.03108586 -0.08291208 -0.07323454 0.043580078 0.07993186 0.051979132 -0.07085841 -0.06748989
-0.02661097 0.028138483 -0.012428788 -0.063978225 0.0706751 0.011300118 0.07802567 -0.026951134
-0.0043461868 0.03494597 0.014638403 -0.025500305 0.024217525 -0.06314452 0.014756627 -0.05252009
0.079054974 0.007723503 -0.08260539 -0.029763162 0.010590754 -0.0103242695 -0.072350755 -0.03255451
-0.03967395 0.04282632 0.040608905 0.024091804 -0.016592989 -0.05239634 -0.031314887 0.030188093
-0.0143506825 0.042578004 -0.07188155 0.0010197088 -0.027390938 0.0155269625 -0.0023258626 0.05090951
0.05570244 -0.05456925 -0.033357058 0.0114557585 -0.06308254 0.033397265 -0.029595636 -0.060368787
0.07359495 0.0034018727 0.033120472 0.054356683 -0.07386435 -0.0003218751 -0.07141553 -0.04587718
0.077294305 0.016143937 0.07467098 -0.04558681 -0.0057414775 -0.029407166 0.082258105 -0.068984404
-0.014134412 0.01941271 0.04377533 -0.020431751 0.026575573 0.04890398 0.0633225 0.051271297

encoder.6.bias f4 [32]
00000000: c518 b83c 7b8e 2ebd 30d9 8abc b3c5 fabc
00000010: d1b4 8ebc 0c26 63bd 8d2f 9abc 0cdd 3a3d
00000020: 37c2 83bd e9ec 81bd 0ea7 63bd 2bce 773d
00000030: 6718 62bd 3a0c b5bc 7a81 493c 3e4b 50bb
00000040: 8a2d 9d3c 91ae 9fbb 16a1 82bc 7cfa 413d
00000050: 4b30 9b3d f0d5 d33c c66d a13d 78f9 933d
00000060: 4210 a5bb d67d 393c b52e 9ebc bbc5 89bd
00000070: c331 53bd 7833 363d 41b7 d0ba 6842 3b3d
0.022472749 -0.04261635 -0.016949266 -0.030611848 -0.017420204 -0.055456206 -0.018821502 0.045620963
-0.06433528 -0.06344015 -0.055579238 0.06049935 -0.055199053 -0.022100557 0.012298936 -0.003178313
0.019186754 -0.004873105 -0.015945952 0.04735802 0.075775705 0.02585885 0.07882266 0.07225317
-0.0050373385 0.0113215055 -0.019309381 -0.06727167 -0.05156113 0.04448268 -0.0015923755 0.045717627

encoder.8.weight f4 [32, 32, 3, 3]
00000000: 27f7 94bb c713 08bc bf27 553d 6abf 713d
00000010: 6005 6d3c d0a3 d53c a3c4 203d b898 14bb
00000020: 2668 fc3c 5539 fbbc a246 5fbc fcca b5bc
00000030: ea64 43bd 4de7 1e3d 6de1 1c3d 5a01 113d
00000040: 563a 81bd 0826 263b 4034 8cbc d3fa 653d
00000050: 991a 50bd 8048 603d c801 aa3a 881a 4b3d
00000060: 7a18 1ebd f064 e03c 468b f6bc 6974 463d
00000070: 8cfc 493d 182d bbba b27f 5b3c 88b5 11bd
00000080: ae4d 2d3d f4ad 6fbd 74d7 463d 2031 5fbd
00000090: f530 cb3b 2cdc d5bc 0e5e b03c a066 0e3d
000000a0: 0822 f8bc b1cc 04bd 1e22 833d aac1 b03c
000000b0: 629f 18bd 18ba 013d d0fa 54bd 6bf9 2d3d
000000c0: 4c8f 0c3d 187b 7cbd b16a 7abd 0ba9 25bd
000000d0: 7430 b33c aa3b e8bc 6a19 a1bc 2ab6 91bc
000000e0: 7081 57bb 86c7 db3c 1b42 8a3c 819e 0c3d
000000f0: b917 543d 6669 dd3c 0c70 46bc 3ad6 153c
00000100: c811 873c 5d69 2d3d f234 58bd 8e73 49bd
00000110: 532b 73bd 6799 103d d969 76bd 3255 463c
00000120: 508e e13c f86b db3b 7b5e 60bd dc2e f6bb
00000130: 4566 8cbd 2ad1 95bc 05cc 9f3c e030 2a3b
00000140: c2f2 0ebd 210c 293d 76a8 74bd 7ce6 643b
00000150: b2a5 123d dd30 66bd d453 6ebd 0635 57bd
00000160: db95 853c 9ed6 11bd 0dbc 3cbd 88f8 b73c
00000170: 02a5 a2bc 8c7c ee3b 6895 0e3c bbe9 6a3c
00000180: 70ac 1e3a 80a4 96bc 1c24 f9bc 3775 e0bb
00000190: 07df 3e3c b038 053c fafe 25bd dae2 dc3c
000001a0: d973 19bd 4bcd 58bd 27ed 193d 8c0a 3ebd
000001b0: 9868 52bd 3f8f 19bc f401 b9bc 173f 343d
000001c0: a020 d439 3505 293d 5870 d13b 6fdf 9cbc
000001d0: f62a dabc 5676 e4bc f930 283d 6ab8 01bd
000001e0: b054 47bd 620a 3abd aef4 fd3c 6a74 d3bc
000001f0: e444 a3bc a5f6 4e3d c6fe 2b3d 3ea8 b13c
00000200: d5bf 12bd e418 8cbc b7e7 2c3c 3b2f efbc
00000210: cf8b af3b 7812 183b a289 ec3b 2861 8fbc
00000220: 3020 d73c 471e 653c 5b72 c7bc 0619 d4bc
00000230: a836 763c 9218 f23c c073 0139 cec2 0dbd
00000240: fd16 26bd 731f 883c c075 f73c 6336 6d3c
00000250: b0d2 083c 2a12 bd3c 0462 903c c014 a43b
00000260: a2ed d1bb aec8 bf3c 55df 17bd f03c cb3b
00000270: db1f 24bd 542f 293d 3552 59bd a7a6 cebc
00000280: 0465 e1bc 11b4 4dbd 3e81 d53c 1f10 373c
00000290: 51ec 593d 8588 6c3d eee9 cbbc fb01 683d
000002a0: ca0d dc3c dff7 173c 8a85 1cbd ebfb 913c
000002b0: a4f3 323d 5603 7abc 6b27 7a3c 9378 55bc
000002c0: 7d51 bc3c 2b89 6abd 8ff8 063d 3220 df3c
000002d0: c332 55bd fc08 133d 4428 2a3d 5af4 18bd
000002e0: 1f26 cabc 2c43 a8bb 98c0 6dbb 7149 21bd
000002f0: 3eda 893b 6007 ff3c 0c11 493d d895 4e3d
00000300: 8786 013d 1f58 873c beae 30bd 3381 c83c
00000310: 095e 94bc 3116 42bc f55c 98bc 40cd 883d
00000320: 28b7 d3bc 789b b7ba 026a 06bd 8c64 0fbd
00000330: be2f 573d f651 dcbc 2f43 7cbc e2ad a5bc
00000340: b8a2 4e3d cb4f 713d 2eb2 d13c e640 573c
00000350: be76 ad3c 7699 a73c 0e32 033c 0642 b5bb
00000360: 9df1 f83c fb6e 7f3c 0706 07bd 2c2b 96bc
00000370: 2c44 27bd 7827 fdbb 9844 56bc c1b8 163d
00000380: 7281 55bd f27a 153d d8c9 43bd ed68 3d3d
00000390: 2656 3bba 2b62 51bd 5e5a e7bc a9c4 36bc
000003a0: 85a9 043c 8909 1abd d022 033d 1fe9 f4bc
000003b0: 3e05 b73b 2d69 f23b 26e0 b9bb 4f83 6ebd
000003c0: 6582 6bbc 0ab0 213d da69 94bc 8a3a 49bd
000003d0: cc22 3e3c 7128 603d aee3 9dbc 2a46 8c3c
000003e0: 7375 513d 1df9 283d dca8 5cbd 50ad 033b
000003f0: a158 09bd fc7c 2b3d 6054 38bd 3e23 013d
-0.0045460644 -0.008305497 0.052039858 0.059020437 0.0144666135 0.026079088 0.039250027 -0.0022674035
0.03081138 -0.030666986 -0.01362768 -0.022191517 -0.04770366 0.038794804 0.03830092 0.03540168
-0.06309955 0.0025352258 -0.017114758 0.056147408 -0.050806616 0.05475664 0.0012970502 0.04958585
-0.03859756 0.02739188 -0.030095708 0.04845086 0.049313113 -0.0014280407 0.013397144 -0.035573512
0.04231041 -0.058515504 0.048545316 -0.05449021 0.0062009045 -0.026105963 0.021529224 0.03476584
-0.030289665 -0.03242177 0.06402992 0.021576721 -0.037261374 0.031671613 -0.051997006 0.04247419
0.034316346 -0.06164083 -0.061136905 -0.040444415 0.02187369 -0.028348763 -0.019665439 -0.017787058
-0.0032883547 0.026828539 0.016877225 0.03433085 0.051780436 0.027027797 -0.012111675 0.009145314
0.016487971 0.04233681 -0.052784868 -0.049182467 -0.05936749 0.035302546 -0.060159538 0.012105273
0.02753368 0.0066962205 -0.054777604 -0.0075129103 -0.06855444 -0.018288214 0.019506464 0.0025969073
-0.03489948 0.041271333 -0.05973097 0.0034927418 0.03580255 -0.056198943 -0.058185413 -0.0525408
0.016306808 -0.035605066 -0.046077777 0.022457376 -0.019854072 0.0072780307 0.008702613 0.014337952
0.0006052917 -0.018388987 -0.030412726 -0.0068499106 0.011649854 0.008131191 -0.040526368 0.02696364
-0.037463997 -0.052930158 0.03757968 -0.046396777 -0.05136928 -0.009372531 -0.02258394 0.04400548
0.00040460099 0.04126473 0.0063915662 -0.01914951 -0.026631813 -0.027888458 0.04106233 -0.03167001
-0.04866475 -0.045420058 0.031000461 -0.025812346 -0.01993031 0.050528187 0.041991018 0.02168667
-0.035827477 -0.017101713 0.010553292 -0.029197326 0.0053572427 0.0023204368 0.0072185555 -0.017502382
0.026260465 0.013984269 -0.024346521 -0.025890838 0.0150276795 0.029552732 0.00012345519 -0.03460961
-0.040549267 0.016616559 0.030207515 0.014478299 0.008351013 0.02307995 0.017624862 0.0050073564
-0.006406502 0.023411121 -0.03707822 0.0062023327 -0.040069442 0.0413049 -0.053056914 -0.02522595
-0.027513988 -0.050220553 0.026062604 0.011173277 0.053203885 0.057747383 -0.02489182 0.056642514
0.026862044 0.009275406 -0.03821329 0.01782032 0.043689385 -0.015259584 0.015268187 -0.013029235
0.022988075 -0.05725972 0.032951888 0.027237032 -0.052050363 0.03589724 0.041542307 -0.037342407
-0.02467638 -0.0051349606 -0.0036278125 -0.03937668 0.0042069247 0.031131446 0.049088523 0.05043587
0.031622436 0.016521512 -0.043135397 0.02447567 -0.018111246 -0.011846111 -0.018599013 0.06679773
-0.025844172 -0.0014008125 -0.03281594 -0.035008 0.052535765 -0.02689455 -0.015396877 -0.020224515
0.05044815 0.058913987 0.025597658 0.013138032 0.021174785 0.020458918 0.008007539 -0.0055315522
0.030388648 0.015590425 -0.032964732 -0.018331133 -0.0408365 -0.0077256523 -0.013077877 0.03679729
-0.0521254 0.036494203 -0.047799915 0.046242643 -0.0007146321 -0.05111901 -0.028241333 -0.011155286
0.008097057 -0.03760675 0.03201562 -0.029896317 0.0055853417 0.007397792 -0.0056724725 -0.058230694
-0.01437435 0.039474525 -0.01811688 -0.049128093 0.011604976 0.054726068 -0.019273605 0.0171233
0.0511374 0.041253198 -0.053871974 0.0020092316 -0.03353179 0.04186724 -0.04500234 0.03152775

encoder.8.bias f4 [32]
00000000: 46a9 c9bc cc95 6f3d 8903 063c f647 2abd
00000010: bbd6 3dbd e3e1 fcbb 1244 9dbc ddbf 703c
00000020: 18af 0b3d 583d d4b7 a559 17bd e2b8 87bd
00000030: 5abf 9fbc 849c ee3c 3f58 623d ae95 843c
00000040: a4f0 23bc e84a 1a3d 1ae4 973c 3df5 173d
00000050: 6a23 03bd 4654 e9bc 1637 7dbc 01bd 7a3d
00000060: 0df3 293d d9aa 04bc 77a5 1bbc ad31 9a3a
00000070: db5a a63b cd73 90bc 9868 0f3c 2825 f53b
-0.024616849 0.058492467 0.008179554 -0.041572534 -0.04634736 -0.0077173575 -0.019197498 0.014694181
0.03410253 -2.5300935e-05 -0.036950726 -0.066270605 -0.019500423 0.029127367 0.05525994 0.016184654
-0.010006104 0.037669092 0.018541384 0.03709911 -0.032016195 -0.028482568 -0.015455028 0.061215404
0.041491557 -0.008097374 -0.009499899 0.0011764072 0.005076749 -0.017633343 0.008752964 0.007481236

decoder.1.weight f4 [32, 32, 3, 3]
00000000: d02c 5a3d d48c 4b3c ad85 52bb 38db db3c
00000010: 38c8 2b3d 7eb1 9fbc 6523 8e3a 2be2 1c3c
00000020: b4fc 4d3d 2a9b ae3c 3bb6 5d3d 6350 5cbd
00000030: 228d 593d da7f 13bd ace8 ad3c 7806 03bc
00000040: 3c81 26bb 4fa6 b2bc c5bc 20bc 53bc f03b
00000050: 4668 fcbc 0286 793c 3ff9 21bd 9e02 2cbd
00000060: 2987 be3b d489 83bd 92b9 07bd 3443 423c
00000070: 3810 4abd c4c3 4abc a006 6bbd 30d6 74bc
00000080: 0a6d 11bd f011 4dbb 5599 333d 30c6 3f3b
00000090: b9ff d7bc 52fb 153d 51fe d23c e890 0f3d
000000a0: 13ee 37bd ae42 fb3c e932 e13c 50be 97bc
000000b0: 091c d8bc f5de 2e3d a877 44bd d9a4 d83c
000000c0: d4af a9bb b144 c23b 10fc cf3c 8677 2d3d
000000d0: f827 903c 389e 143d 6d37 473d c84c e2bc
000000e0: df18 31bd 8610 b2bc 1cfc 33bd 1ca5 f83c
000000f0: abc8 f63c 05bd 5b3d 8e10 4fbd e442 3c3d
00000100: 073e 543d b297 713d 2a10 87bb 295f 553d
00000110: f9d6 4bbc 27e1 043b 1871 27bd c720 9cbc
00000120: 681b 11bd 5b3f 35bb e897 16bd 38c3 003d
00000130: c078 063d 2e12 f73b 44df 43bd 5df0 a6bc
00000140: 5f0f 70bc 8f0d e6bc d9fd 3a3d 136e e5bc
00000150: 9662 3d3c 45e1 61bd ffe6 f23c da6a 80bd
00000160: 08e4 59bc 1b3f dcbc ecff 71bd b2c5 b33c
00000170: d0bf 92bc 4ffb 82bc be6b 9bbc 35ff 283d
00000180: 3309 e53c bdbe 0abd b084 0c3d dcde 383c
00000190: 1cf9 f53c 96cb 53bd 0058 48bd c70c ffbc
000001a0: 3e40 3e3d fed1 8abd 7652 ad3b b9db 253c
000001b0: f988 22bc 63eb 253c 848e 803d 0baa 49bd
000001c0: de2d 0b3d a840 a43a 2b2b 543d 1fc9 7fbc
000001d0: 3a09 5e3d 0585 833d 8f85 713d 61dc f23c
000001e0: 3271 7a3d 2a16 8f3c d47a ce3c 61e8 643d
000001f0: 0ce4 f63b 52bb d1bc 4460 8dbc 4dbb c13c
00000200: 7125 62bd 1b38 4d3d 652b 8b3c 0f90 343d
00000210: 886c 513d 75d9 4ebd 42b8 48bd 50fe d03c
00000220: 6e4f 553d 4bbd 183d 863f 453d a13b 663d
00000230: 146d e73b a6de 2e3d e4ac 26bc ea79 c33b
00000240: fc86 113d 91e8 423d f5ef 263d 7847 2c3d
00000250: 861b d63c 8b81 973b 924f d23a 1457 26bd
00000260: d51a 3fbc b45c 0fbd 9d0d 233d e968 223d
00000270: bc6b d53c 20dc 8bbc 7f8e 76bc b440 a6bb
00000280: ac73 df3c 644d cabb 8300 b53c 615a e53c
00000290: 5fad c2bc 31e6 cdbc 1b2e ebbb 542c dbbc
000002a0: 6687 193d c606 38bd f3d1 65bd f311 f0bb
000002b0: fb79 133b 7ee4 3abd 8010 5dbd fb2a c83c
000002c0: 0319 2dbc ceaa bfbc 0d13 0dbc 7c00 2d3d
000002d0: f767 fabc 453d c83c b79a fabc fe63 2fbb
000002e0: 0659 e93c 58d5 f1bc 5722 3bbd 3018 2abd
000002f0: 5918 9a3b 07a9 083c 6eeb a43c f5ef 483d
00000300: 4874 283d 40bc 92bc 9ee1 95bb 20b5 bd39
00000310: 8e61 593d 2b8d 4a3d ac58 283c 8a0b d3bc
00000320: 9bdf c8bc c2f2 223c cc5b 2d3d 5c8e 203c
00000330: 145d 3bbc 2af3 653b 354c 54bd 575b 243d
00000340: 9bcc 26bc 55f6 193d 0574 00bb 142e 193d
00000350: e0fd 4d3c ac69 34bd f642 1dbb dae5 b73c
00000360: 839f 6d3d 4fc4 023d 2cb3 45bd 271f a3bc
00000370: bdac 913a 4bdb 573c 6680 d23c 47ae eabc
00000380: db3a b13b a850 3ebd ba46 fb3c 55ad 59bd
00000390: c1c8 863c 46b7 ed3c 9bb5 1b3c 918c f9bc
000003a0: 4ecd 1abd b2f9 8a3c 478b 903c c94b 90bb
000003b0: cf70 43bc 2a41 383d 7cc6 ffba 4c14 2e3c
000003c0: b422 bb3c f8bd cb3c fba8 c2bc f8f6 bc3c
000003d0: 7898 323c 5c83 a3bc 0b6d 2f3d d6ea e1bb
000003e0: 0198 ddbc 83f8 313d ae7f 3d3d 51fd 11bd
000003f0: fb1e 49bd dc48 ea3c d8ea fbba 5e91 50bd
0.053265393 0.012423713 -0.0032123134 0.02683793 0.04193899 -0.019493815 0.0010844289 0.009575407
0.050289825 0.021314222 0.054128867 -0.0537876 0.05311311 -0.0360106 0.02122911 -0.007997148
-0.002540662 -0.021807818 -0.009810631 0.0073466687 -0.03081144 0.015229704 -0.03954434 -0.041994683
0.005814452 -0.06422773 -0.033135958 0.011856843 -0.049331874 -0.012375776 -0.057379365 -0.014943644
-0.03550438 -0.003129121 0.0438474 0.0029262416 -0.026367055 0.03661663 0.025756033 0.035050303
-0.04490478 0.030671444 0.027490096 -0.018523365 -0.026380556 0.042693097 -0.047965676 0.026445793
-0.005178431 0.005928599 0.025388747 0.042350315 0.017597184 0.0362837 0.048636843 -0.027624503
-0.04323661 -0.021736395 -0.043941602 0.030352168 0.030124983 0.05364706 -0.050552897 0.04596223
0.051816966 0.05898256 -0.0041218 0.052092705 -0.01244139 0.0020275803 -0.04087934 -0.019058598
-0.035426527 -0.002765617 -0.036765963 0.031436175 0.03283 0.007540009 -0.047820345 -0.020378286
-0.014652102 -0.028082637 0.045652244 -0.028006589 0.011559149 -0.055146474 0.029651163 -0.0627038
-0.013298996 -0.02688556 -0.059081957 0.021944854 -0.017913729 -0.015988974 -0.018972274 0.04125901
0.027958488 -0.03387331 0.03430623 0.011283603 0.030026011 -0.051707827 -0.04891205 -0.031134022
0.046447985 -0.06778334 0.005289371 0.010123187 -0.009920352 0.010126921 0.06277183 -0.04923443
0.03397929 0.0012531476 0.05179898 -0.015611916 0.054208018 0.06421856 0.058965262 0.0296461
0.061143108 0.017466623 0.025205053 0.055885676 0.0075345095 -0.025602017 -0.017257817 0.023648882
-0.05521149 0.050102334 0.016988466 0.044082697 0.051128894 -0.050500352 -0.049003847 0.02551189
0.052077703 0.0372899 0.048156284 0.05620921 0.0070625637 0.042692803 -0.010173056 0.005965461
0.03552912 0.047585074 0.040756185 0.042060345 0.026136171 0.004623597 0.0016045442 -0.040610388
-0.011664112 -0.035000518 0.039807905 0.03965083 0.026052348 -0.017072737 -0.015048622 -0.005073631
0.027276836 -0.0061737765 0.02209497 0.027997198 -0.02376431 -0.025134178 -0.007177127 -0.026754536
0.03748264 -0.044928335 -0.056108426 -0.0073263585 0.0022503126 -0.045628063 -0.053970814 0.024434557
-0.010565045 -0.023396876 -0.008610499 0.04223679 -0.030567152 0.024443278 -0.030591352 -0.002676248
0.028484832 -0.029520676 -0.045687046 -0.041526973 0.0047026095 0.0083410805 0.020131793 0.049056966
0.04112652 -0.01791203 -0.004574015 0.00036183838 0.05307155 0.049451035 0.010275047 -0.025762338
-0.024520686 0.009945573 0.042323872 0.009799566 -0.011435766 0.0035087564 -0.05183049 0.04012617
-0.010180618 0.037588436 -0.0019600403 0.03739746 0.012572736 -0.04404609 -0.002399621 0.022448469
0.05801345 0.031925496 -0.048266575 -0.019912316 0.0011114102 0.013174842 0.02569599 -0.028647555
0.0054086274 -0.04646364 0.030673373 -0.053143818 0.016453149 0.029018056 0.009503747 -0.030462535
-0.03779345 0.016964767 0.017644538 -0.0044035655 -0.011928751 0.04498402 -0.0019514109 0.010624956
0.022843696 0.024870858 -0.023762217 0.023066983 0.010900609 -0.019960098 0.0428286 -0.0068944497
-0.02705002 0.04344989 0.046264343 -0.035641972 -0.04910181 0.028599195 -0.0019219769 -0.050919883

decoder.1.bias f4 [32]
00000000: 5d2a 233d 7a78 1e3d d157 babb 2e19 62bb
00000010: 28bb 65bb 078e c7bc b09c 11bd 9287 c33b
00000020: 0e3a e03b ca38 d93c ffdb 78bd 5b2c 593c
00000030: 0591 28bd 2a88 6e3d be23 03bd 7c02 40bc
00000040: 4064 d2bc 500a 80bd c37f b93d b38d 9e3c
00000050: 7b4b 23bd caa2 343d f988 923c abb6 b23d
00000060: 8a99 a1bc c3f8 31bd 6bf4 6abd 60b9 09bb
00000070: e753 a8b9 cd0d 283d 0aec f13c 55bd 333d
0.039835323 0.038689114 -0.005686738 -0.0034499872 -0.003505418 -0.024359716 -0.03554982 0.005967089
0.006842858 0.026516337 -0.06075668 0.013255204 -0.041153926 0.058235325 -0.03201651 -0.011719342
-0.025682569 -0.06251967 0.09057572 0.019354677 -0.039866906 0.04410056 0.01788758 0.087262474
-0.019726533 -0.04345013 -0.057362 -0.0021015033 -0.0003210597 0.041028786 0.029531498 0.043881733

decoder.4.weight f4 [16, 32, 3, 3]
00000000: feb0 2abd f7e4 45bd 0707 153c e79a 313d
00000010: 0ac4 283d 3a2a 53bc fe6b ba3c fc24 213d
00000020: 32c4 153d c480 4fbd 4a8d 5c3c 7b05 133c
00000030: de2a af3c e389 3abd 9ab7 26bd 7716 e5bc
00000040: 068a a93c 5e2a d73c 60a1 86bd 5825 a23b
00000050: 44a5 fc3c ddb6 7cbd 9fc6 e43c f172 433d
00000060: 769c 813c ed6d 023c afee 8bbd 6b8e 4abc
00000070: 7400 5ebc 63e4 673d 6036 3ebb d8af 6bbd
00000080: eb53 bfbc 7640 d7bc 75e5 0f3d 7886 073d
00000090: ff23 19bd 0f55 ecbc a9f8 3a3d 9356 423d
000000a0: 5810 db3b f801 db3b d601 d83c 82b1 a3bc
000000b0: 27bb 703d cabe 3abc b5c0 0e3d 4277 533d
000000c0: 3001 6bbd 27d0 8fbb 901c c5bb 267d 56bd
000000d0: 8c8d dc3b 9100 3a3d 4164 393d c90e 563c
000000e0: e2d5 7ebd da01 23bd 383f 103d c236 1bbd
000000f0: d61b fb3c 9e03 debb bd60 483d 5a12 db3c
00000100: 3eac c03c 56a3 39bd 3ce9 293c 6327 5a3d
00000110: eecc c9bc d5da 373d ec10 f8bc 804b 103b
00000120: b812 173d 8028 7139 6a1b 89bd 79d4 01bd
00000130: 906e 86bd 3a6d b5bc 54c9 84bd 144c 1b3d
00000140: 962b 76bd 28d9 d8bc 826d bd3c 2678 12bd
00000150: c777 683d 5fb7 66bd 0070 22bd 6cdb 543c
00000160: 20c5 83bb 04cd 0d3c c20c 9b3c 63b6 1e3d
00000170: 3c74 71bd 3c6b 2a3d 6029 063d be13 e03c
00000180: e6b3 18bd 2901 8dbd 6ea5 353d 439d 363d
00000190: 2e37 143d 4a13 bfbb 42bc fc3c 48f3 c83a
000001a0: 599b 85bc 0447 cabc ecbf 6ebd 8c61 1b3c
000001b0: ebcb 3c3d 9261 103d 31ff 493d 65b5 c23c
000001c0: 9587 3ebd 30a6 1ebd 8ec8 2abd 6905 edbb
000001d0: beda 8ebc 44a8 773b cf93 0fbc 1f62 103d
000001e0: 9c6d e8bc b6f8 d63c 1796 0fbd 8bec 04bd
000001f0: 747f 5fbd 671d 88bd 5f93 5c3d 4f44 1cbd
00000200: b0fa 01bd 7261 52bd d50a 1ebd ea2a 9e3c
00000210: dee9 bd3c aaa3 cbbc e182 223d 3efe 82bc
00000220: 381d c7bb c212 b83c 8e2d 9f3c 8413 6ebd
00000230: 8ea2 843c a28e 37bd 82c3 fe3c 19f9 3bbd
00000240: 02f9 3dbd 56bd 1cbd 6d75 39bd cc1b 0abd
00000250: b921 0d3d 3b70 4dbd 9f3d 153d 49da 413d
00000260: 1cf4 033c 97a1 3d3d 9275 4dbd c531 343c
00000270: 50eb b3bb 4f18 87bd 235b 4ebd 003d f5bc
00000280: d4af 5ebd b251 c0bc 7b48 abbc 11fb 293d
00000290: 3262 1bbd 4ac0 caba 3ddc 313b 1007 3ebc
000002a0: 160f e7bc 9224 4fbd 6ce6 543d a9cc 32bc
000002b0: 0897 66bd d012 ae3a f1ad 773c e400 063d
000002c0: 4ccb 39bd 334c 103d b015 1ebc 08ee 393b
000002d0: cc93 53bd e5f4 1f3d a677 c63c 41dd c73c
000002e0: e310 65bd b258 74bc bf75 4fbd 07c2 6c3c
000002f0: 0dc5 20bd f867 89bc fddb 30bd 4e3e 16bd
00000300: 2d89 513d e72b 0e3d 8068 b1bc 82bf f23c
00000310: 32e9 2cbd 41b4 e6bc 41ba 163d 18b2 aa3b
00000320: 4acf f43c 457c 17bd 9bf0 61bd 8630 1dbd
00000330: 3ac8 953c b8ae 03bd 21cb 4cbd c8df f3bc
00000340: 4082 9bb9 d16a 143d a095 09bd 6dc0 8abc
00000350: 794a 1e3d 34cb abbc 8e4b a6bc 2853 a9bc
00000360: 6b4c 343d 67ba 11bd 0d96 6e3d f05a 13bc
00000370: 1b5c e8bc 38bc 5abd 87e3 163d 958b 183d
00000380: 7cf7 6c3c 1b1e 463d 822a b0bc 307e 7abb
00000390: 4ba3 f9bc 6b26 253d f0ea 453b e4bb 233c
000003a0: 7b38 1c3d bdeb 3a3d f647 253c 0f6f 003c
000003b0: b447 ad3c 536f a93c b044 c6bc 78f9 d7ba
000003c0: 9e18 aebc 21e2 7cbd e402 d63c 95c9 163d
000003d0: 6e08 cdbc 24a3 02bd da4d 0fbd 86cb bd3c
000003e0: f80a ff3b c8a8 31bc 106a 2c3b 1eb0 f13c
000003f0: 806a 2dbb ee1f c0bc 81fc 243d 5510 5b3d
-0.0416727 -0.04831406 0.009095914 0.043360617 0.041202582 -0.012888486 0.022756573 0.03934191
0.03656406 -0.05065991 0.01346142 0.008973475 0.021382745 -0.045541655 -0.04070244 -0.027964814
0.020695698 0.02626532 -0.065737486 0.0049482994 0.030840524 -0.06169783 0.027926741 0.04771704
0.015821677 0.007960779 -0.06832635 -0.012363057 -0.013549913 0.05661429 -0.002902411 -0.057540745
-0.023355445 -0.026275855 0.035130937 0.033087224 -0.037387844 -0.028849153 0.045647297 0.047445845
0.006685298 0.0066835843 0.026368063 -0.019982103 0.058772232 -0.011398027 0.03485175 0.051627405
-0.05737418 -0.0043888274 -0.006015368 -0.052365445 0.006730741 0.045410696 0.045261625 0.0130650485
-0.062215693 -0.039796688 0.03521654 -0.037894018 0.030652922 -0.0067753335 0.04892038 0.02674215
0.023519631 -0.045321785 0.010370549 0.05326022 -0.02463385 0.04488643 -0.030281506 0.0022017658
0.036883086 0.00022998638 -0.06694682 -0.03169677 -0.06564057 -0.02214681 -0.06483713 0.03791435
-0.06010016 -0.026470736 0.023123506 -0.035759114 0.056754854 -0.05632722 -0.039657593 0.012991767
-0.004021302 0.008654837 0.018926982 0.038748156 -0.05894874 0.041606173 0.032754302 0.027353164
-0.03728094 -0.06884987 0.04434722 0.04458357 0.036185436 -0.005831157 0.030851487 0.0015331293
-0.016309427 -0.024692066 -0.0582885 0.009483706 0.04609291 0.0352493 0.049315635 0.023768136
-0.04651602 -0.038732708 -0.04169517 -0.007233311 -0.017438289 0.0037789503 -0.008763268 0.035249826
-0.028372578 0.026241641 -0.035055246 -0.032452147 -0.05456491 -0.06646233 0.05385148 -0.03815108
-0.031733215 -0.051362462 -0.03858455 0.019307572 0.023182806 -0.024858315 0.039675597 -0.015990373
-0.006076481 0.022469882 0.019430902 -0.05812408 0.016190793 -0.04481376 0.031099085 -0.045891855
-0.04638005 -0.038266502 -0.045278 -0.033717915 0.03445599 -0.05015586 0.03643572 0.047327314
0.008053806 0.046296682 -0.050160952 0.010998194 -0.005490698 -0.06596433 -0.050379883 -0.029936314
-0.0543669 -0.023476455 -0.020908585 0.0414992 -0.037935443 -0.0015468684 0.002713933 -0.0115983635
-0.028205436 -0.050571986 0.05197756 -0.010913053 -0.05629638 0.0013280753 0.015117154 0.032715693
-0.045359895 0.03522892 -0.009648725 0.0028370637 -0.051654622 0.03905191 0.024226975 0.024397494
-0.055924308 -0.014913725 -0.0506494 0.014450557 -0.039250422 -0.016773209 -0.043178547 -0.036680512
0.05115621 0.034709837 -0.021656275 0.029632334 -0.04221458 -0.028162124 0.03679872 0.0052092187
0.029884 -0.036983747 -0.0551611 -0.038376354 0.018283952 -0.032149047 -0.049998406 -0.029769793
-0.00029660948 0.03623468 -0.03358996 -0.016937459 0.03864524 -0.020970918 -0.0202997 -0.020669535
0.04401819 -0.035578158 0.05824857 -0.008993849 -0.028364232 -0.053402156 0.03683808 0.03724249
0.014463302 0.048368555 -0.021504644 -0.0038222186 -0.030473372 0.04031984 0.0030199848 0.009993527
0.0381398 0.045634974 0.010087958 0.007838978 0.021152355 0.020682966 -0.024202675 -0.0016477546
-0.021251973 -0.06173909 0.026124425 0.036813337 -0.025028434 -0.031893864 -0.034986354 0.023168337
0.00778329 -0.010843463 0.0026308335 0.029502925 -0.0026461184 -0.023452725 0.04027987 0.053482372

decoder.4.bias f4 [16]
00000000: b217 72bd 2180 d43c f648 2a3d c3ad 393d
00000010: e4bf 583c a012 a1bc aa0d 24bd 2e90 10bd
00000020: b088 62bd 5031 4bbd 00ed 9cb8 332a 4dbc
00000030: 61a7 22bd 44e4 6dbd 1a14 57bd a6dc 113d
-0.05910463 0.025940003 0.041573487 0.045331728 0.013229344 -0.019662201 -0.040052094 -0.03529375
-0.055306137 -0.049607575 -7.482804e-05 -0.012522268 -0.039710406 -0.05807902 -0.052509405 0.035610817

decoder.7.weight f4 [2, 16, 3, 3]
00000000: 2868 a3bd 34dd 143d 6fcb 083d cce4 923d
00000010: a389 57bd 3c88 86bd 1470 153d aff9 653d
00000020: 81e7 50bd d813 7d3d 4175 63bd 1fbc a33d
00000030: fdd5 f13b 3cdb 34bd 3b92 cd3c 196c 803d
00000040: 388a a53d b0bf d4bc 5574 43bd 3433 ebbb
00000050: fd01 8c3c 92ec 293d aa3b dabc e501 6f3d
00000060: 816b a1bd 8ad8 94bd 829c 96bd 55b4 a2bd
00000070: fc8a 9f3c a802 22bd db32 9ebc 733c b03b
00000080: 5916 e83c 98af 863d 7f43 3abd 2fc1 ca3c
00000090: 85f4 943d 7624 8ebd 1b04 8b3d 719f e13c
000000a0: 7ce4 cf39 5b15 083d 64ad 303d 2136 9a3d
000000b0: beee 8dbc 0091 5fbc 1031 e03b 2e10 07bd
000000c0: 4047 d03c e06d 2ebd fb44 57bd 1847 04bd
000000d0: 7280 5f3d 2be2 8c3d 2cc7 dabc 440d a5bc
000000e0: 305d 8ebc 0809 223d e257 5e3d 0509 a03d
000000f0: 4317 5cbd aad2 503d 3a02 253d 2618 a0bd
00000100: 25a7 b4bd 3615 80bd 5f9f 9dbd 67e4 afbd
00000110: 162f 3c3c 461a 00bd b84a 81bd eda7 cfbc
00000120: 183a 22bd c26f 8fbd 88ad 6f3b 165a 813d
00000130: 1bca 023c a379 353d 6507 2cbd 788d 4bbd
00000140: a0ef 183c 1711 813d 3096 84bd f94a 5dbd
00000150: ae5d a8bd e6ee 3d3d a8da b4bb 04ed 62bd
00000160: 6398 ae3c 1037 583d 3ec7 a23d 0926 653d
00000170: e716 7fbd 9883 16bd 5632 8f3b 30d5 e6ba
00000180: fc1d eabc 6c90 90bb 2806 17bc 86e6 39bd
00000190: 52d8 043d 0678 3a3d 9364 823d 9d8c aebc
000001a0: 2f43 8c3d 3788 89bd faf7 2bbc 5cf2 993d
000001b0: 9687 44bd 1383 41bd 20d6 e4ba 007c 88b7
000001c0: 24e5 7bbd fb02 17bd 9e68 2cbd 7ecd a2bd
000001d0: 2b00 113c ea8c 783d afd7 983d 1e8c 73bd
000001e0: b12b 983d 8467 9bbc 98b1 653c 1228 653d
000001f0: 8088 cd3b 46b3 86bd 4d8a a03d 96de 24bd
00000200: a237 643d 0e0c 00bd 6e1b 31bd 3654 93bd
00000210: 80b5 09bc 40e3 65bd 2ffa 9cbd c48c 703d
00000220: f5f6 933b 6d6d 10bc c15b 763d 8654 9abd
00000230: de41 243c 6ddc 663d 3c8a ce3c ebea 3abc
00000240: 245d ebbc 0ea4 733c f2dd 69bc 5930 213c
00000250: a046 d3bc 70f1 313d cff2 34bc c431 623d
00000260: e408 84bb 0be4 933d 0d29 933d 257e 8c3d
00000270: 322b cd3c bede 953d 40de fcbb 3be7 3bbd
00000280: 76a7 d83b 8a45 693d 5ad2 a13d fb76 ad3d
00000290: a737 f5ba 625e eebb fd7c 88bd c80b 1cbd
000002a0: 215b 083d 40a7 313c 2596 3bbc 951e 44bd
000002b0: a4cc e3bc bc4c 17bc 33f1 573d 7d12 753d
000002c0: f864 9cbc 5c79 37bd bc83 a73d 7766 8a3d
000002d0: a823 92bc d030 e03b 9a50 c537 5a9f 353d
000002e0: 91b5 b4bc ceeb 803d 81c8 293c 11e8 88bd
000002f0: 6c59 5abc 0ec3 4dbd 00e0 57bd aebe 45bd
00000300: 7a36 8fbd 803e 5e3a 8699 b7bc 7a28 3a3d
00000310: c2df 493d abc7 69bd b83e 383c f087 9dbd
00000320: a04f 3ebb bba7 36bd 603c 503c 2c0e b1bc
00000330: 2dc0 9e3d ae3a 87bd 8383 a33d a89c 4bbd
00000340: 9ae1 54bd bd91 8bbd a81c b6bc 69ba afbd
00000350: a2aa e33c 994c 8f3d a24a e4bc 84ba 423d
00000360: 9683 3e3c 296e abbc f8d9 84bd 02a9 34bd
00000370: 7e58 e13c 002a 05bb cdbd 86bd 6296 0b3b
00000380: cd3b 8e3d 0846 c03c 9215 02bd ca7d 80bd
00000390: 735d 073d 5707 35bd 6a7e ff3b 981d b7bd
000003a0: 8481 c83c 1a64 8fbc 711f a43d 9b97 36bd
000003b0: 6899 bd3c 0684 e7bb d14d 75bd 550c eebc
000003c0: fc62 40bc 1e20 0bbd 687b c43c a2f3 4c3d
000003d0: 37bc 1ebd 3174 9ebd 818c bdbc 48b1 3b3d
000003e0: a4b8 3a3d b298 713d 3f28 09bd 66c4 243d
000003f0: 2e50 673d 4286 423c 7c86 a53d 93f2 333d
-0.079788506 0.03634377 0.033397134 0.07172546 -0.052621495 -0.065689534 0.03648384 0.05614632
-0.05100203 0.061786503 -0.055531744 0.079948656 0.0073802457 -0.04415439 0.025094142 0.06270618
0.08083004 -0.02597031 -0.047718365 -0.0071777347 0.017090792 0.041485377 -0.026639778 0.058351416
-0.07881833 -0.07267864 -0.0735407 -0.07944552 0.019475453 -0.039553314 -0.01931136 0.0053783
0.028330969 0.065764606 -0.045474526 0.02475032 0.07273201 -0.06940548 0.067878924 0.027541848
0.0003965235 0.03322349 0.04313411 0.075298555 -0.017325755 -0.013645411 0.006841786 -0.032974415
0.0254246 -0.042585254 -0.05255602 -0.032294363 0.054565854 0.068790756 -0.0267063 -0.020147927
-0.01737842 0.039559394 0.05428303 0.0781422 -0.05373312 0.050982155 0.040285327 -0.07817106
-0.08820943 -0.06254046 -0.07696413 -0.08588486 0.011485836 -0.031275056 -0.063130796 -0.025348628
-0.039606184 -0.07003738 0.0036571939 0.06316011 0.007982756 0.044305455 -0.04199924 -0.049695462
0.009334475 0.06302088 -0.064739585 -0.054026578 -0.08220993 0.04637041 -0.00551923 -0.055401817
0.021312898 0.052786887 0.07948159 0.055944476 -0.0622777 -0.03674659 0.004370014 -0.0017611142
-0.02857875 -0.0044117477 -0.009217776 -0.04538586 0.03243286 0.04552462 0.06366839 -0.021307284
0.06848752 -0.06715434 -0.010496134 0.075169295 -0.047980867 -0.047244143 -0.0017458834 -1.6270205e-05
-0.061497822 -0.036868077 -0.04209196 -0.07949351 0.008850138 0.06068126 0.074630134 -0.059459798
0.074302085 -0.018970259 0.014019392 0.055946417 0.0062723756 -0.065771624 0.07838879 -0.040251337
0.055717118 -0.031261496 -0.04323905 -0.07193796 -0.008405089 -0.056124926 -0.07664906 0.058727995
0.0045155236 -0.008815152 0.060146097 -0.07535653 0.01002547 0.05636256 0.0252124 -0.011408548
-0.028730936 0.014870657 -0.014274107 0.009838187 -0.025790513 0.043443143 -0.011044218 0.05522324
-0.00402938 0.0722123 0.07185564 0.06859998 0.025045011 0.07317875 -0.007716924 -0.045874815
0.00661176 0.056951083 0.079014495 0.08469959 -0.0018708602 -0.007274435 -0.066644646 -0.038097173
0.033290032 0.010843098 -0.011449371 -0.047880728 -0.027807541 -0.0092346035 0.05272026 0.059832085
-0.019091114 -0.04479347 0.08179423 0.06757825 -0.017839268 0.0068417564 2.3521763e-05 0.044341423
-0.022059234 0.06294976 0.010362745 -0.06684888 -0.013326984 -0.050234847 -0.052703857 -0.04827755
-0.069928125 0.0008477941 -0.022412073 0.045448758 0.049285658 -0.057075184 0.011245422 -0.07691944
-0.002903916 -0.044593554 0.012709707 -0.021613203 0.07751498 -0.06602989 0.07984068 -0.049709946
-0.051972963 -0.06814907 -0.022230461 -0.08580477 0.027791325 0.06997032 -0.027867619 0.047541156
0.011628052 -0.020926552 -0.06486887 -0.04410649 0.027508017 -0.0020319223 -0.065791704 0.0021299352
0.06945 0.023470894 -0.031758852 -0.06273992 0.033048104 -0.044196453 0.007797052 -0.089411914
0.02447582 -0.017503787 0.080138095 -0.044578176 0.023144439 -0.007065299 -0.059888665 -0.029058615
-0.01174235 -0.033966176 0.023984626 0.050037034 -0.038753714 -0.077370055 -0.023138287 0.045823365
0.045586243 0.058983512 -0.033485647 0.040226363 0.05647295 0.01187283 0.080822915 0.04393251

decoder.7.bias f4 [2]
00000000: 06cf ccbc f67b d53c
-0.02500106 0.026060086
