trained_model/colorization_model.pth (torch, 132418 bytes, 16 tensors)

encoder.0.weight f4 [8, 1, 3, 3]
0.19012359 -0.21257761 0.30702052 -0.06543595 0.12480186 0.2938237 0.10952579 -0.15923144
0.00190161 0.32783526 -0.3153259 0.20662624 0.32274115 -0.02909484 -0.055562507 0.17123836
0.15510297 0.18144776 -0.0818016 -0.17251875 0.06637224 0.18361421 -0.20022948 0.20497343
-0.21219225 -0.06298976 0.11973609 -0.12987609 -0.04407908 0.02488362 0.19120643 0.18153675
0.30589986 -0.046746753 0.08406156 0.1610876 0.29760602 -0.03166318 0.04818657 -0.16192162
-0.27168903 -0.23937556 -0.3307444 -0.3045518 -0.1501298 -0.014892352 0.01917448 -0.1703897
-0.14848407 0.15736428 -0.2541404 -0.13420597 -0.29642364 -0.026380809 -0.14576624 0.21110591
-0.25469303 0.15421373 0.100374535 0.27477747 -0.28019783 -0.057282913 -0.1858552 -0.23849973
-0.076443665 0.09722563 -0.25270218 -0.2050647 -0.35838988 0.11607179 0.2113159 0.014415427
00000000: c2af 423e f2ad 59be cb31 9d3e 4903 86bd
00000010: 1e98 ff3d 0f70 963e 0f4f e03d 910d 23be
00000020: 723f f93a 06da a73e 6572 a1be d495 533e
00000030: 543e a53e 4d58 eebc 8395 63bd 1c59 2f3e
00000040: 50d3 1e3e 71cd 393e 9987 a7bd c1a8 30be
00000050: 2bee 873d 5d05 3c3e f508 4dbe 8ee4 513e
00000060: ed48 59be c600 81bd 3238 f53d 3dfe 04be
00000070: 448c 34bd bcd8 cb3c 9ecb 433e c5e4 393e
00000080: e89e 9c3e 8679 3fbd 7828 ac3d 26f4 243e
00000090: d15f 983e 40b1 01bd 485f 453d c8ce 25be
000000a0: d31a 8bbe de1e 75be 5457 a9be 37ee 9bbe
000000b0: a0bb 19be 0dff 73bc cd13 9d3c a37a 2ebe
000000c0: 350c 18be 1a24 213e b11e 82be 4a6d 09be
000000d0: d7c4 97be 911c d8bc bf43 15be 262c 583e
000000e0: 2067 82be 34ea 1d3e 2a91 cd3d a2af 8c3e
000000f0: 1776 8fbe 7da1 6abd d350 3ebe 4639 74be
00000100: 7f8e 9cbd 3b1e c73d 2e62 81be 7bfc 51be
00000110: e17e b7be 0cb7 ed3d 3263 583e af2e 6c3c

encoder.0.bias f4 [8]
-0.205775 -0.002590333 0.015552503 0.09516591 -0.12969606 0.101430655 -0.13498342 0.2470609
00000000: aeb6 52be 94c2 29bb edcf 7e3c 58e6 c23d
00000010: 0bcf 04be e0ba cf3d 1839 0abe 88fd 7c3e

encoder.2.weight f4 [16, 8, 3, 3]
-0.06152516 0.10121092 0.04525181 0.015754389 -0.035463218 0.06772916 0.0867144 -0.0976575
-0.09785764 0.09447937 -0.016749287 0.015655445 -0.08908813 -0.07466551 -0.08568656 -0.06452382
0.010606035 -0.0011959007 -0.10325788 0.06546114 0.033284914 -0.089241296 -0.059338354 -0.108911596
0.09235762 -0.092375726 -0.10082208 0.06208636 0.0484088 -0.11311752 0.0557988 -0.04544575
-0.015006946 -0.13240975 -0.07872595 0.00071767106 -0.03214793 0.112555884 0.047663487 0.0105324015
-0.05569193 0.08985289 0.024106316 0.11074769 -0.04165148 -0.03075016 -0.09462594 0.103764266
0.046972547 -0.121990114 -0.060898088 0.0130097605 -0.00049481686 0.058463015 0.11148085 0.037328705
-0.10574585 -0.06663028 -0.0022970974 -0.024700316 -0.068235636 -0.079775035 0.09357829 -0.11875494
-0.07489159 0.08116355 -0.05456049 -0.03683943 0.06706232 -0.008967917 -0.014274211 0.028503103
0.057511322 -0.0778358 -0.10672591 0.011918865 -0.024848968 0.07480455 0.05157227 -0.05063299
-0.076935336 -0.10419069 0.026384078 -0.0702118 -0.05530852 0.02317918 0.0091475025 -0.10602954
0.1009875 -0.051823877 -0.055977676 -0.10789904 0.06588147 0.00047528744 0.023026012 0.049382947
-0.027419351 -0.07411422 -0.03181813 -0.029055491 -0.086552426 0.00045770407 -0.03892009 0.10132433
-0.11053272 0.0147849545 -0.10693767 0.08373221 -0.032015435 0.093833335 -0.06943238 -0.093360595
0.10522286 0.06312198 -0.11755904 0.017234348 -0.08510102 0.022480063 -0.0010947064 0.053450204
-0.056764316 0.090882294 0.0016672164 0.087623365 -0.029010534 -0.03911615 0.04612007 -0.050065763
0.019270219 -0.03190571 -0.08774856 0.019263051 -0.08834172 -0.016355284 0.060968526 -0.07171334
-0.054098092 0.029734574 0.014135279 -0.05888846 0.0025498867 -0.016144857 -0.058743898 0.015166603
0.023760311 0.07156611 0.047189854 -0.08756078 -0.08641998 0.009882249 -0.03880337 0.06218759
0.026528828 0.04124149 -0.012681329 -0.027749285 0.09922332 -0.10195178 -0.08963302 0.06579886
0.06360372 0.058216654 -0.032820918 0.048035227 -0.045235105 0.06698563 -0.053683147 -0.082967885
0.062079333 -0.07495555 -0.005847007 -0.11125078 -0.01370219 -0.019603722 -0.0762972 -0.005764486
0.10040472 -0.10756859 -0.09943099 -0.110477455 0.010249488 0.0075188354 0.105330445 -0.105833165
-0.006232299 -0.068053186 -0.10285649 0.0011653602 0.08064564 -0.046064466 0.035281707 -0.063787006
0.000568673 -0.0072915475 -0.08713532 0.016973905 -0.09041567 -0.069293365 -0.04069207 -0.092925936
-0.09217168 -0.064748466 -0.08392021 -0.117742784 -0.096710905 -0.11691079 0.09303502 0.070351705
0.05173434 -0.038567938 -0.022063851 0.10350257 0.020903938 -0.021975763 -0.08637251 0.015693568
-0.06879369 0.009567844 -0.24921127 0.06817018 0.087910004 -0.15151176 0.014216249 0.15404348
0.11393701 -0.06775095 -0.0060220743 -0.15294191 0.087417 0.12465096 -0.05495478 0.059561074
0.15291433 -0.010312404 -0.033193473 -0.11230474 -0.18579756 0.15995952 0.14337088 -0.02072495
-0.013153697 0.047757607 0.056075856 -0.14386998 -0.06146906 -0.23674661 0.051853873 -0.0037701502
-0.002394637 0.0615694 0.035054535 -0.045096118 -0.065868005 -0.050932206 0.074327014 -0.035584792
00000000: ce01 7cbd ac47 cf3d f659 393d 590f 813c
00000010: e141 11bd 96b5 8a3d 5297 b13d a800 c8bd
00000020: 9669 c8bd 667e c13d cd35 89bc d93f 803c
00000030: d673 b6bd 3bea 98bd 6f7c afbd 1125 84bd
00000040: efc4 2d3c c5bf 9cba de78 d3bd 7d10 863d
00000050: c355 083d 24c4 b6bd c60c 73bd 0b0d dfbd
00000060: fe25 bd3d 7c2f bdbd cf7b cebd 444e 7e3d
00000070: 4e48 463d 29aa e7bd 488d 643d 5325 3abd
00000080: b2df 75bc 6c96 07be 123b a1bd 1722 3c3a
00000090: 8cad 03bd b383 e63d ca3a 433d 1890 2c3c
000000a0: 391d 64bd cb04 b83d 9c7a c53c afcf e23d
000000b0: be9a 2abd c2e7 fbbc 3fcb c1bd 5c82 d43d
000000c0: 4966 403d f4d5 f9bd 4670 79bd e426 553c
000000d0: 99b6 01ba ea76 6f3d 1250 e43d fce5 183d
000000e0: 4891 d8bd 7575 88bd e68a 16bb 5158 cabc
000000f0: 20bf 8bbd 1861 a3bd f9a5 bf3d ca35 f3bd
00000100: c360 99bd 1339 a63d d27a 5fbd f1e4 16bd
00000110: f857 893d 2cee 12bc 61de 69bc 577f e93c
00000120: fe90 6b3d 6068 9fbd 1d93 dabd 5847 433c
00000130: 1090 cbbc 2133 993d 723d 533d 8a64 4fbd
00000140: 4690 9dbd ee61 d5bd 6c23 d83c 34cb 8fbd
00000150: 308b 62bd 44e2 bd3c 68df 153c 0426 d9bd
00000160: 89d2 ce3d 4645 54bd d948 65bd 2cfa dcbd
00000170: ddec 863d 0030 f939 0ca1 bc3c c645 4a3d
00000180: 8c9e e0bc 32c9 97bd ba53 02bd c805 eebc
00000190: 6642 b1bd 00f8 ef39 ac6a 1fbd 2183 cf3d
000001a0: fb5e e2bd 983c 723c 2302 dbbd cb7b ab3d
000001b0: 9e22 03bd b12b c03d 9032 8ebd d733 bfbd
000001c0: 157f d73d 1946 813d cbc2 f0bd 0c2f 8d3c
000001d0: 7249 aebd 1c28 b83c 407c 8fba 9aee 5a3d
000001e0: b381 68bd 7f20 ba3d 8086 da3a e173 b33d
000001f0: 80a7 edbc 4238 20bd 66e8 3c3d c211 4dbd
00000200: 94dc 9d3c 90af 02bd 84b5 b3bd 8ccd 9d3c
00000210: 81ec b4bd 84fb 85bc 22ba 793d 72de 92bd
00000220: f695 5dbd ec95 f33c a897 673c 0735 71bd
00000230: 001c 273b 3842 84bc 719d 70bd 587d 783c
00000240: fca4 c23c 4191 923d 264a 413d 1153 b3bd
00000250: f5fc b0bd 28e9 213c 48f0 1ebd 6ab8 7e3d
00000260: fc52 d93c d6ec 283d 59c5 4fbc 7852 e3bc
00000270: 9935 cb3d 18cc d0bd 8491 b7bd 8dc1 863d
00000280: ab42 823d 9674 6e3d 3a6f 06bd 96c0 443d
00000290: 7248 39bd c32f 893d dce2 5bbd 11eb a9bd
000002a0: e646 7e3d 4c82 99bd 4098 bfbb 73d7 e3bd
000002b0: 267f 60bc fc97 a0bc b541 9cbd 03e4 bcbb
000002c0: fda0 cd3d ec4c dcbd 7aa2 cbbd 0142 e2bd
000002d0: 78ed 273c 9060 f63b 7db7 d73d 0fbf d8bd
000002e0: 5038 ccbb 785f 8bbd 6ca6 d2bd 00bf 983a
000002f0: 8b29 a53d 18ae 3cbd 8d83 103d c3a2 82bd
00000300: 0013 153a efed eebb 0174 b2bd dc0c 8b3c
00000310: da2b b9bd aee9 8dbd baac 26bd f44f bebd
00000320: 81c4 bcbd d89a 84bd 5cde abbd 2123 f1bd
00000330: 5e10 c6bd ed6e efbd 2589 be3d 8e14 903d
00000340: 63e7 533d 6af9 1dbd 40bf b4bc 28f9 d33d
00000350: bc3e ab3c 8406 b4bc 12e4 b0bd cc8f 803c
00000360: b5e3 8cbd 72c2 1c3c 3d31 7fbe cf9c 8b3d
00000370: 290a b43d e625 1bbe 45eb 683c 93bd 1d3e
00000380: cf57 e93d 03c1 8abd d254 c5bb ce9c 1cbe
00000390: af07 b33d 0149 ff3d 4318 61bd 50f6 733d
000003a0: 9395 1c3e 5bf5 28bc e1f5 07bd 0700 e6bd
000003b0: b741 3ebe 6ecc 233e d1cf 123e 5fc7 a9bc
000003c0: 9b82 57bc 7b9d 433d ccaf 653d a752 13be
000003d0: fbc6 7bbd b46d 72be ba64 543d a014 77bb
000003e0: 58ef 1cbb 3230 7c3d 5895 0f3d b5b6 38bd
000003f0: cee5 86bd 4a9e 50bd c338 983d 5cc1 11bd

encoder.2.bias f4 [16]
-0.018927569 -0.048094653 -0.07356195 0.09779437 -0.004474385 -0.0061376584 0.09861716 0.001778744
0.0022208507 0.06500072 -0.095046744 0.026923 0.03700187 0.07932116 0.02202426 0.085319854
00000000: fd0d 9bbc e6fe 44bd a6a7 96bd 6a48 c83d
00000010: dd9d 92bb 691e c9bb cbf7 c93d bf24 e93a
00000020: b18b 113b 191f 853d dea7 c2bd a08d dc3c
00000030: 468f 173d 2273 a23d 396c b43c 2dbc ae3d

encoder.4.weight f4 [16, 16, 3, 3]
0.07058712 -0.012908068 -0.02308173 0.0010222846 -0.01079733 0.017319301 -0.029781004 -0.006947374
0.046014346 0.0003841892 -0.0072483346 0.03888742 -0.04728678 -0.03272432 -0.026200227 0.061891563
0.040241994 -0.050892048 -0.07187056 0.01582504 0.0051501766 0.048128955 -0.051493376 0.058983408
-0.005122781 0.021971114 -0.0056942403 -0.05120272 -0.14485778 0.02461239 0.09999809 0.15569055
0.010599013 0.051246613 -0.13831766 -0.08363928 0.08213135 0.048096586 0.053687934 -0.026780134
-0.09670089 0.03929061 0.024171276 -0.07316762 0.004487938 -0.076899245 -0.08489228 0.008494205
0.011788027 0.029730858 0.022105964 0.062716074 -0.05039863 -0.07407744 0.08089792 -0.09704988
-0.027364992 -0.032729864 -0.07300023 0.009733737 0.003481323 -0.029421706 -0.12611888 0.043692656
0.009456175 0.1571506 0.104763605 0.09383361 0.090024136 0.052976806 0.114963755 0.09263925
0.078403175 0.008568871 -0.05507057 -0.06072957 0.064941324 -0.006040763 0.057211716 0.048206523
-0.16100319 -0.0032757237 -0.046289504 -0.0023007093 -0.091003686 -0.09794598 -0.03482052 0.033432156
0.0048612454 -0.010265985 0.058490902 0.03763393 0.035438977 -0.05090505 0.048702534 0.06814418
0.049888328 0.060502756 -0.06610123 -0.048229497 0.041039724 -0.064147614 0.0320253 0.06006441
-0.07950328 0.040799968 -0.043072727 -0.0028944372 -0.05237878 -0.023975728 -0.014588846 -0.06114793
0.075076714 0.028426938 -0.050797734 0.08680597 0.093121625 0.050321214 -0.06304354 -0.06844206
0.025513269 0.015546714 -0.0070238975 0.004268898 -0.097628064 -0.051757954 -0.044360206 0.07335784
0.06077808 0.0051845927 0.047782023 0.046531696 0.044797502 -0.06434856 0.110351406 0.07256943
-0.09040398 -0.07396279 -0.051913176 0.022415794 -0.0736469 0.044086114 -0.033851065 -0.09881033
-0.007523283 -0.08237518 -0.039731644 -0.017476419 0.079074584 0.030722806 0.02882707 -0.025178697
-0.06509322 0.02572868 0.028941132 -0.041666627 -0.06581625 0.02238343 -0.0051262453 -0.027079962
-0.08057382 -0.05532044 -0.0029638708 0.0743038 0.0061189607 0.029423349 -0.01695633 0.060502864
-0.0023820326 -0.06635074 -0.035386633 -0.048617527 -0.06899604 0.0013302843 0.08173952 0.037308745
0.046941914 0.0053835604 -0.07295324 -0.026039787 0.04798856 0.04502413 -0.0038891695 -0.07778644
0.057486437 0.003349069 0.020839982 -0.040609542 -0.045204613 -0.10506796 -0.0695288 -0.12064148
0.016136032 0.014237998 0.021022994 -0.08912229 0.059883673 0.03269732 -0.020663202 -0.06219836
-0.01911093 -0.01614025 0.061441552 0.09217976 0.041832946 0.028137049 -0.0034147417 0.01888695
-0.024881868 0.06614837 0.112492904 0.027265817 0.07877115 0.08109317 0.10398466 -0.012974384
0.1102488 0.051410228 0.022614386 0.108729884 0.05133634 0.111950114 0.041315425 0.06744167
-0.027529124 0.0363213 -0.019204684 0.0012788089 -0.0017870786 -0.030364526 -0.09043496 0.007015934
-0.07682646 0.013486048 -0.03132473 -0.0139877 -0.060081404 0.042898927 0.031173777 -0.041263297
0.024928372 0.051108446 -0.03782157 0.016303476 -0.017818015 -0.0049652234 -0.003193201 -0.01620035
-0.09105168 -0.048301052 0.050255705 -0.06729327 -0.11032184 -0.050328903 -0.08694582 -0.009898575
00000000: fb8f 903d 5c7c 53bc e515 bdbc 2efe 853a
00000010: 49e7 30bc 35e1 8d3c 4bf7 f3bc cca6 e3bb
00000020: 8a79 3c3d 006d c939 7083 edbb 6a48 1f3d
00000030: c8af 41bd f009 06bd dca1 d6bc 0282 7d3d
00000040: cad4 243d 2e74 50bd df30 93bd 84a3 813c
00000050: d0c2 a83b de22 453d b8ea 52bd 9698 713d
00000060: 00dd a7bb c4fc b33c c096 babb f1b9 51bd
00000070: 9955 14be ec9f c93c cccb cc3d 586d 1f3e
00000080: 7ca7 2d3c f8e7 513d 25a3 0dbe 124b abbd
00000090: 7b34 a83d ed00 453d e1e7 5b3d 0362 dbbc
000000a0: 1e0b c6bd 31ef 203d d702 c63c e8d8 95bd
000000b0: 8d0f 933b 5a7d 9dbd 01dc adbd 472b 0b3c
000000c0: 9222 413c 218e f33c 9117 b53c 4971 803d
000000d0: cb6e 4ebd eab5 97bd cfad a53d 16c2 c6bd
000000e0: 8c2c e0bc c00f 06bd 2581 95bd 417a 1f3c
000000f0: e826 643b ca05 f1bc 4f25 01be 12f7 323d
00000100: 13ee 1a3c 16ec 203e 4d8e d63d d62b c03d
00000110: 935e b83d 35fe 583d 1e72 eb3d a6b9 bd3d
00000120: d891 a03d 7364 0c3c ae91 61bd 92bf 78bd
00000130: f5ff 843d 98f1 c5bb d556 6a3d 3474 453d
00000140: 05de 24be 86ad 56bb 109a 3dbd 7fc7 16bb
00000150: 2460 babd e797 c8bd f69f 0ebd 28f0 083d
00000160: 154b 9f3b a932 28bc 2894 6f3d 0926 1a3d
00000170: 7628 113d d081 50bd 4f7c 473d 2d8f 8b3d
00000180: b457 4c3d bdd1 773d 1560 87bd 4b8c 45bd
00000190: 4519 283d d35f 83bd f62c 033d 1906 763d
000001a0: 9ed2 a2bd de1d 273d 076d 30bd 99b0 3dbb
000001b0: 228b 56bd bf68 c4bc 0e06 6fbc 4076 7abd
000001c0: d2c1 993d 9cdf e83c 4911 50bd 54c7 b13d
000001d0: 8db6 be3d 9e1d 4e3d f91c 81bd 5a2b 8cbd
000001e0: 3401 d13c a5b7 7e3c b928 e6bb 1de2 8b3b
000001f0: 39f1 c7bd 2600 54bd 0cb3 35bd a33c 963d
00000200: 70f2 783d 84e3 a93b 15b7 433d 0598 3e3d
00000210: 967d 373d 2ec9 83bd ebff e13d 489f 943d
00000220: b925 b9bd ce79 97bd e9a2 54bd 54a1 b73c
00000230: 30d4 96bd a493 343d 6aa7 0abd 125d cabd
00000240: df85 f6bb 52b4 a8bd a6bd 22bd b52a 8fbc
00000250: dbf1 a13d 65ae fb3c bf26 ec3c 8e43 cebc
00000260: 984f 85bd f4c4 d23c f415 ed3c a0aa 2abd
00000270: acca 86bd 745d b73c 10fa a7bb ccd6 ddbc
00000280: e303 a5bd b097 62bd 803d 42bb 972c 983d
00000290: 9081 c83b 3c09 f13c 00e8 8abc dad1 773d
000002a0: e01b 1cbb e6e2 87bd 93f1 10bd 2c23 47bd
000002b0: cc4d 8dbd ef5c ae3a 0d67 a73d 0ed1 183d
000002c0: 2a46 403d 9468 b03b 8268 95bd 6451 d5bc
000002d0: a78f 443d 396b 383d 70e1 7ebb 7f4e 9fbd
000002e0: e676 6b3d 0e7c 5b3b 9cb8 aa3c 3156 26bd
000002f0: 7928 39bd df2d d7bd 1e65 8ebd e112 f7bd
00000300: b62f 843c 7e46 693c 6a38 ac3c bf85 b6bd
00000310: 9548 753d a0ed 053d e045 a9bc b5c3 7ebd
00000320: 868e 9cbc 8f38 84bc 23aa 7b3d bec8 bc3d
00000330: 0659 2b3d ab7f e63c dcc9 5fbb ceb8 9a3c
00000340: 0fd5 cbbc cc78 873d ae62 e63d 905c df3c
00000350: c552 a13d 2d14 a63d e9f5 d43d 8392 54bc
00000360: 1fca e13d 8893 523d ce41 b93c c6ad de3d
00000370: 0e46 523d 1a46 e53d 5d3a 293d dc1e 8a3d
00000380: c284 e1bc a5c5 143d 2453 9dbc b59d a73a
00000390: 683c eaba 07bf f8bc f735 b9bd ece5 e53b
000003a0: 3157 9dbd 96f4 5c3c 5c4e 00bd ab2c 65bc
000003b0: eb17 76bd c9b6 2f3d 2660 ff3c b403 29bd
000003c0: 9636 cc3c 1757 513d caea 1abd de8e 853c
000003d0: 16f7 91bc 50b3 a2bb 0645 51bb 99b6 84bc
000003e0: 4e79 babd 53d7 45bd edd8 4d3d 0ed1 89bd
000003f0: 6bf0 e1bd ae25 4ebd a610 b2bd a22d 22bc

encoder.4.bias f4 [16]
0.003091524 -0.009285845 -0.0424985 -0.067279875 -0.042167682 0.05718892 -0.036186635 -0.07179828
0.06134426 0.005175975 -0.0062549068 -0.026513183 0.06816426 0.066356726 0.020786552 0.04981087
00000000: 2a9b 4a3b a823 18bc e812 2ebd 08ca 89bd
00000010: 05b8 2cbd ee3e 6a3d 7038 14bd fa0a 93bd
00000020: 1e44 7b3d 3a9b a93b f6f5 ccbb 2d32 d9bc
00000030: b499 8b3d 09e6 873d 8f48 aa3c 7c06 4c3d

encoder.6.weight f4 [32, 16, 3, 3]
-0.09047484 0.015800769 -0.05870804 -0.034847327 0.062007923 -0.009034403 -0.1049362 0.11262641
-0.13336848 -0.004151568 0.022853903 0.06581637 0.015311533 0.134738 0.071959615 0.054953437
0.056805063 -0.014171365 -0.003707675 -0.02374395 -0.066934556 -0.06597954 -0.0726296 0.036480144
0.026770232 -0.058319487 0.03884452 0.036775954 0.008437611 0.03533461 0.024821766 0.07803405
0.045489453 0.06250278 0.035416014 -0.06702217 -0.056419086 -0.060721792 -0.03449163 -0.015413776
0.044448927 -0.06394958 0.03138633 0.015225506 -0.020283485 0.004140009 -0.044195022 -0.05452637
-0.0809364 -0.08315526 0.0036005042 -0.08311492 -0.044765938 -0.034105837 0.052032173 0.03879974
8.581167e-05 0.050328422 -0.033246245 -0.019162282 0.025135102 -0.078979746 0.031327337 -0.0820262
0.034452032 -0.0704585 0.025524922 0.08121456 0.034940526 -0.044436775 -0.06776089 -0.016822724
-0.022252878 0.05818671 0.11922478 -0.01452491 0.10774129 0.008869151 0.016226277 0.07782637
-0.035318956 0.062027857 -0.030961135 -0.09293328 -0.064560436 0.021772297 0.0312606 -0.052956115
0.1137083 0.05566723 0.024931306 -0.033284497 -0.058322333 -0.012712548 0.03066835 -0.09721662
-0.0777239 -0.017803967 -0.10617871 0.026950613 0.06634335 -0.025544256 -0.042833824 0.002489185
-0.08151009 0.066369146 -0.04046036 0.02997914 0.018981144 -0.08966632 0.033266954 0.028458457
0.05123458 -0.03785903 -0.001794478 -0.08866546 -0.035320465 0.037377506 -0.024500966 0.05592203
-0.064245954 0.036833193 -0.10623982 -0.029435929 -0.017626205 0.01242465 0.038354054 -0.0021062235
0.016650744 0.06285531 -0.020066654 -0.043105092 0.051164407 -0.09416197 -0.035031673 0.0781953
0.052914634 -0.035674162 0.09161962 -0.026578458 -0.05307329 -0.041320417 0.03326701 -0.06173874
-0.0858714 0.037306536 -0.10679832 0.040506978 -0.047883905 0.060390547 -0.07324639 0.026270447
0.055892557 -0.03236892 -0.09238067 0.06193897 0.007922958 -0.007928381 0.07124331 0.03213242
-0.00231815 -0.011855035 -0.034940522 0.0654763 0.02480375 -0.034982357 -0.010933888 0.031981908
0.014723126 0.072552145 -0.02992942 -0.04022078 -0.06290056 0.0051780716 -0.04742255 0.08076585
0.0593955 -0.055047624 -0.07431378 0.028404802 -0.08255239 -0.054164883 -0.005464532 0.0043910863
-0.080569945 0.015397446 0.05067478 -0.07536598 -0.054668956 0.07583827 -0.0014763908 0.023474034
0.071318 -0.016659798 -0.027058452 0.02271028 -0.10460976 -0.033888455 -0.016778052 -0.029710641
-0.024544526 0.06939272 -0.049495257 0.022686997 0.07502307 -0.0651985 -0.01012859 0.061017122
0.016075946 0.01842919 0.070670635 -0.06795528 -0.06503344 0.019657083 0.0071807206 0.007914849
-0.03696952 -0.074828625 -0.08965415 0.03707788 -0.02008332 0.056889553 -0.08532833 -0.06917051
-0.07033218 0.043616924 0.029935904 -0.08708978 0.04913444 0.055038128 0.018132893 0.016323883
0.04357517 -0.025177997 -0.012202797 0.0300766 -0.0498373 -0.07046075 -0.050690435 0.07170964
0.0418261 -0.058044367 -0.009902865 0.06829596 -0.051733285 0.03633664 0.06483822 0.04894676
-0.07559622 0.047118433 -0.028379165 -0.042528167 0.079682395 -0.06919653 0.0008566667 0.0148894405
00000000: df4a b9bd 9d70 813c d777 70bd 12bc 0ebd
00000010: 05fc 7d3d 0805 14bc cae8 d6bd ada8 e63d
00000020: bf91 08be e009 88bb 1c38 bb3c bcca 863d
00000030: 39dd 7a3c c2f8 093e 905f 933d db16 613d
00000040: 6dac 683d 032f 68bc 77fc 72bb ac82 c2bc
00000050: fc14 89bd 4820 87bd d4be 94bd 346c 153d
00000060: 3f4d db3c 6ae0 6ebd 6e1b 1f3d 62a2 163d
00000070: e83d 0a3c 06bb 103d 0457 cb3c 51d0 9f3d
00000080: 2653 3a3d 7501 803d 6210 113d eb42 89bd
00000090: b317 67bd 6ab7 78bd 1847 0dbd 108a 7cbc
000000a0: 1410 363d fff7 82bd f48e 003d 6774 793c
000000b0: 8d29 a6bc eaa8 873b d705 35bd 0b57 5fbd
000000c0: fcc1 a5bd 4e4d aabd 70f6 6b3b 2838 aabd
000000d0: 7d5c 37bd 90b2 0bbd b01f 553d 7aec 1e3d
000000e0: caf5 b338 2d25 4e3d 372d 08bd 38fa 9cbc
000000f0: 21e8 cd3c 22c0 a1bd 1851 003d 5afd a7bd
00000100: 931d 0d3d 8c4c 90bd a419 d13c d253 a63d
00000110: cc1d 0f3d 5603 36bd 39c6 8abd cfcf 89bc
00000120: ab4b b6bc 3055 6e3d 1f2c f43d e3f9 6dbc
00000130: 77a7 dc3d ea4f 113c f8ec 843c 6f63 9f3d
00000140: 9caa 10bd ec10 7e3d 35a2 fdbc ce53 bebd
00000150: 4338 84bd d15b b23c 1d0b 003d 83e8 58bd
00000160: e6df e83d 5203 643d bd3c cc3c 5355 08bd
00000170: 66e3 6ebd 4a48 50bc 313c fb3c 8219 c7bd
00000180: b52d 9fbd a0d9 91bc 3974 d9bd 88c7 dc3c
00000190: 06df 873d 3042 d1bc 8572 2fbd 9821 233b
000001a0: c3ee a6bd 8cec 873d c3b9 25bd d096 f53c
000001b0: 587e 9b3c faa2 b7bd ee42 083d b621 e93c
000001c0: 5adb 513d 1212 1bbd b134 ebba 3d96 b5bd
000001d0: 31ac 10bd 2819 193d 40b6 c8bc 800e 653d
000001e0: 6293 83bd 67de 163d 4394 d9bd 9e23 f1bc
000001f0: d564 90bc c290 4b3c 2419 1d3d 9108 0abb
00000200: 2467 883c 49ba 803d d362 a4bc f78e 30bd
00000210: c591 513d fed7 c0bd 5f7d 0fbd dc24 a03d
00000220: 04bd 583d 121f 12bd 11a3 bb3d 11bb d9bc
00000230: 6163 59bd 993f 29bd fd42 083d c3e1 7cbd
00000240: 58dd afbd bdce 183d 14b9 dabd a5ea 253d
00000250: ea21 44bd 145c 773d 3402 96bd 1f35 d73c
00000260: 98ef 643d 4695 04bd 1432 bdbd b8b3 7d3d
00000270: 4bcf 013c 0ae6 01bc 03e8 913d 499d 033d
00000280: 1aec 17bb 9f3b 42bc cb1d 0fbd 7018 863d
00000290: 3c31 cb3c a949 0fbd 0d24 33bc 76ff 023d
000002a0: 4439 713c 3896 943d 8b2e f5bc 8bbe 24bd
000002b0: 02d2 80bd d0ac a93b 263e 42bd 9168 a53d
000002c0: b248 733d 9e79 61bd d331 98bd 30b1 e83c
000002d0: 3a11 a9bd ffdb 5dbd d10f b3bb 1ae3 8f3b
000002e0: db01 a5bd 9245 7c3c 5c90 4f3d 7b59 9abd
000002f0: 8eec 5fbd 1851 9b3d 7483 c1ba 9e4c c03c
00000300: 2c0f 923d 217a 88bc b0a9 ddbc e90a ba3c
00000310: a43d d6bd 9fce 0abd 2072 89bc bb63 f3bc
00000320: 9a11 c9bc c51d 8e3d 8abb 4abd 15da b93c
00000330: b2a5 993d cb86 85bd 63f2 25bc 17ed 793d
00000340: b4b1 833c d0f8 963c c4bb 903d 232c 8bbd
00000350: 4130 85bd e407 a13c 404c eb3b 48ad 013c
00000360: 5a6d 17bd c03f 99bd 989c b7bd fade 173d
00000370: c685 a4bc 0505 693d 9fc0 aebd 45a9 8dbd
00000380: 510a 90bd a9a7 323d 243c f53c 205c b2bd
00000390: 3241 493d a96f 613d 6f8b 943c aab9 853c
000003a0: e17b 323d 1642 cebc 3eee 47bc 3463 f63c
000003b0: 3222 4cbd ba4d 90bd c6a0 4fbd 81dc 923d
000003c0: d851 2b3d eebf 6dbd a03f 22bc c1de 8b3d
000003d0: 48e6 53bd bbd5 143d e7c9 843d 667c 483d
000003e0: 31d2 9abd 42ff 403d 6c7b e8bc 0432 2ebd
000003f0: 8630 a33d e9b6 8dbd ee91 603a d7f2 733c

encoder.6.bias f4 [32]
0.01823266 -0.023940278 0.027033601 0.030284122 0.020035354 -0.05208683 -0.069036156 0.06981995
0.0071264915 0.05724506 0.08698021 -0.062143795 0.055810485 0.046350338 0.013802467 -0.019013228
0.0723263 0.039185405 -0.031154482 0.051891524 0.04212829 -0.03043372 -0.0042955596 -0.032526072
-0.044639427 -0.020582953 -0.008293561 -0.041160192 0.035832603 -0.052583307 0.004627674 -0.077655464
00000000: a95c 953c 671e c4bc 9275 dd3c 6816 f83c
00000010: 2f21 a43c 0059 55bd d462 8dbd c3fd 8e3d
00000020: 5885 e93b cc79 6a3d ae22 b23d 7e8a 7ebd
00000030: 8999 643d dad9 3d3d be23 623c a1c1 9bbc
00000040: d01f 943d e080 203d af37 ffbc 358c 543d
00000050: b78e 2c3d 2350 f9bc c4c1 8cbb 0f3a 05bd
00000060: d5d7 36bd 959d a8bc b7e1 07bc 9797 28bd
00000070: 35c5 123d 9861 57bd bea3 973b d409 9fbd

encoder.8.weight f4 [32, 32, 3, 3]
-0.011678868 -0.036581904 -0.012854572 -0.02026829 -0.0014453732 0.044761706 0.0026461023 0.043785553
-0.013362575 0.029643837 0.028992798 0.029730398 0.052961838 0.02014954 0.044604365 -0.012873683
0.056026433 -0.028490616 0.036515083 0.049265973 0.023375103 -0.03322914 0.048213605 0.035862762
-0.0054974826 -0.051540907 -0.037287712 0.01587675 0.023457939 0.05691902 0.042694192 -0.052634194
-0.047932293 0.017050691 -0.024029188 -0.052766163 -0.02297237 -0.0009869125 -0.028374575 0.054336946
-0.018256256 0.018123645 0.01313727 0.007956724 0.008465547 0.03114267 0.046338078 0.02671605
-0.022330273 0.026520114 -0.04613351 0.012541804 0.010145713 0.010461498 0.056821365 0.021891896
-0.043065652 -0.056521058 0.010666829 -0.049465418 0.029922936 -0.008795831 0.04248373 0.009306046
0.051424418 -0.0062468317 -0.0073031057 0.025010034 -0.039606504 -0.047720622 -0.023969261 -0.04829
-0.0032138012 0.043191 0.012506086 0.0062323823 -0.02282861 -0.047978174 0.01880948 0.034658942
-0.0089002475 -0.008977285 0.053128622 0.006384421 0.047240574 0.045160186 -0.015742395 0.0012017069
-0.0008878598 -0.033636793 -0.050954804 -0.03346038 0.010335196 -0.018282933 -0.0002474432 -0.023196053
-0.0067016073 -0.010382861 0.039869387 0.043488834 -0.032265436 0.04224645 -0.007097136 0.033345032
0.026413884 -0.020979755 0.031617884 0.016157273 0.023986306 0.0061860667 -0.031718403 -0.037463266
-0.031584132 0.02621061 0.05094548 -0.042778216 0.041949306 0.023560593 -0.054385036 -0.02421593
0.052986085 0.00688705 0.04907724 0.0086435005 -0.027624063 0.036027987 -0.05633373 0.007651925
-0.0292653 -0.0038832014 -0.03719686 0.027345074 -0.0112768095 -0.00830723 -0.016984794 0.035241473
-0.04651585 0.024915475 -0.0409499 -0.03474606 -0.052536123 0.05291314 -0.007615499 -0.055708293
-0.039361455 -0.057767686 -0.016049994 0.053133056 0.0059173377 -0.045709644 -0.04774303 -0.03521943
-0.015968304 -0.0514138 -0.051737618 -0.022512702 -0.008076514 -0.014719848 -0.0053826384 -0.020220121
-0.037523694 0.0076411404 0.004527632 -0.038382873 -0.009949088 0.017080892 0.03334896 -0.002738528
0.046774346 0.057290178 0.026679244 -0.027056891 -0.017280392 -0.04347562 0.048487913 0.030360978
0.013375174 -0.021084398 -0.0052071325 0.003471516 -0.041488104 0.025624314 -0.04202768 -0.045179367
-0.02997291 -0.051179297 -0.007885766 -0.015466038 -0.022152904 0.0047877394 -0.017880335 -0.047559734
-0.028207397 -0.0014767051 0.028613213 -0.039214835 -0.058747508 0.029957395 -0.027776994 -0.054749135
0.045504306 0.013729956 -0.03202496 -0.051213436 0.04387449 -0.035790507 0.04858231 0.014100652
0.019642431 0.010358084 0.05261911 0.0537169 0.03745945 0.048812877 0.04332402 -0.048673272
-0.034086607 0.0018815622 0.034721617 -0.0022692345 0.048133966 -0.031276055 0.046804372 -0.019299816
0.008190129 0.016519483 0.024107177 -0.0030637048 0.012297031 -0.037450194 -0.046573047 0.04927845
-0.02904227 -0.021594957 -0.0019980483 -0.040120438 0.001641389 -0.038807694 -0.037357904 0.0057151653
0.03022978 0.05883984 -0.05699965 -0.015153021 -0.0006464496 -0.005782198 -0.04595925 -0.032298647
-0.0051978715 -0.030914271 0.048116926 -0.04677458 0.058364056 -0.055705115 -0.04410695 -0.044599943
00000000: b958 3fbc e8d6 15bd fc9b 52bc af09 a6bc
00000010: ad72 bdba 0d58 373d 3b6a 2d3b 7b58 333d
00000020: b4ee 5abc a2d7 f23c 4e82 ed3c 2a8d f33c
00000030: 83ee 583d a610 a53c 11b3 363d 24ec 52bc
00000040: f97b 653d 2765 e9bc d790 153d 1ecb 493d
00000050: 257d bf3c 471b 08bd a17b 453d d5e4 123d
00000060: 3a24 b4bb 8f1c 53bd 00bb 18bd f50f 823c
00000070: dd2a c03c eb23 693d 1be0 2e3d f496 57bd
00000080: a754 44bd e4ad 8b3c dcd8 c4bc 5521 58bd
00000090: 8d30 bcbc 4a5b 81ba cc71 e8bc 6b90 5e3d
000000a0: 258e 95bc 0a78 943c b43d 573c eb5c 023c
000000b0: 14b3 0a3c ea1e ff3c ffcc 3d3d 9edb da3c
000000c0: faed b6bc b640 d93c 7ef6 3cbd 247c 4d3c
000000d0: 343a 263c b466 2b3c 85bd 683d a256 b33c
000000e0: 9c65 30bd a082 67bd ecc3 2e3c 409c 4abd
000000f0: f220 f53c 641c 10bc 6b03 2e3d 6378 183c
00000100: 69a2 523d 39b2 ccbb e44e efbb d8e1 cc3c
00000110: 6e3a 22bd b376 43bd 2f5b c4bc bccb 45bd
00000120: a39e 52bb 0ce9 303d 54e6 4c3c 0339 cc3b
00000130: 1103 bbbc c384 44bd 5716 9a3c 89f6 0d3d
00000140: 58d2 11bc 7615 13bc 669d 593d 6834 d13b
00000150: 557f 413d e3f9 383d 32f6 80bc 9882 9d3a
00000160: 43bf 68ba bcc6 09bd fcb5 50bd c00d 09bd
00000170: f454 293c 17c6 95bc 44bb 81b9 a605 bebc
00000180: 2899 dbbb e01c 2abc 154e 233d 5921 323d
00000190: c328 04bd 9d0a 2d3d 188f e8bb cd94 083d
000001a0: ee61 d83c bcdd abbc c181 013d 425c 843c
000001b0: ee7e c43c 7db4 ca3b 28eb 01bd 1573 19bd
000001c0: 5d5e 01bd a2b7 d63c 35ac 503d 3638 2fbd
000001d0: 09d3 2b3d 2502 c13c d8c2 5ebd 7c60 c6bc
000001e0: f007 593d c3ac e13b 3705 493d 789d 0d3c
000001f0: dc4b e2bc 1592 133d 33be 66bd 00bd fa3b
00000200: c8bd efbc 4f7d 7ebb bc5b 18bd c702 e03c
00000210: 5ec2 38bc 0c1b 08bc b223 8bbc 5d59 103d
00000220: 6787 3ebd 8a1b cc3c 15bb 27bd e251 0ebd
00000230: 1e30 57bd 73bb 583d 708b f9bb 612e 64bd
00000240: 7a39 21bd cf9d 6cbd 477b 83bc 0ca2 593d
00000250: 3ae6 c13b 093a 3bbd 328e 43bd 4042 10bd
00000260: f6cf 82bc 4797 52bd d3ea 53bd 8f6c b8bc
00000270: 5b53 04bc 842b 71bc d860 b0bb aba4 a5bc
00000280: 72b2 19bd 8862 fa3b 885c 943b 5c37 1dbd
00000290: 8001 23bc 3aed 8b3c eb98 083d e078 33bb
000002a0: 7596 3f3d 1ba9 6a3d 6e8e da3c 6aa6 ddbc
000002b0: 9c8f 8dbc 7e13 32bd 439b 463d 96b7 f83c
000002c0: 8c23 5b3c 30b9 acbc 98a0 aabb 6082 633b
000002d0: 6eef 29bd 15ea d13c 3725 2cbd 000e 39bd
000002e0: c089 f5bc 62a1 51bd 4d33 01bc 4465 7dbc
000002f0: 027a b5bc 78e2 9c3b c879 92bc ffcd 42bd
00000300: 3313 e7bc 008e c1ba 4266 ea3c bc9f 20bd
00000310: 3aa1 70bd 3669 f53c 948c e3bc a140 60bd
00000320: b962 3a3d 9cf3 603c 9b2c 03bd 2ec5 51bd
00000330: bdb5 333d 1199 12bd 3ffe 463d 6c06 673c
00000340: 2ae9 a03c f4b4 293c 2387 573d 4106 5c3d
00000350: 156f 193d 03f0 473d 8774 313d a05d 47bd
00000360: 669e 0bbd c09e f63a 4138 0e3d 70b7 14bb
00000370: 1f28 453d 521b 00bd f1b5 3f3d a61a 9ebc
00000380: e42f 063c de53 873c 6a7c c53c 70c8 48bb
00000390: 7c79 493c 6065 19bd 61c3 3ebd 33d8 493d
000003a0: 0eea edbc e8e7 b0bc b0f1 02bb 5455 24bd
000003b0: e023 d73a d1f4 1ebd 9a04 19bd 4846 bb3b
000003c0: 72a4 f73c 0b02 713d 7778 69bd 6044 78bc
000003d0: 8076 29ba 9878 bdbb c43f 3cbd 964b 04bd
000003e0: e852 aabb ed3f fdbc 4116 453d b496 3fbd
000003f0: 260f 6f3d 0c2b 64bd 7da9 34bd 6eae 36bd

encoder.8.bias f4 [32]
-0.016594188 -0.015215041 -0.0006881928 -0.040537775 -0.056916725 0.003437066 0.037928738 -0.024152886
-0.03271979 -0.061267197 0.030239489 -0.049620934 -0.034240253 0.0006741397 0.011086398 0.013261529
0.054984596 -0.0074668275 0.004173115 -0.011216739 0.03080506 0.006148728 0.024698345 -0.0037225033
-0.032121215 -0.0050069746 -0.017398324 -0.030255992 0.0522713 0.01236972 0.046123423 0.052815467
00000000: 89f0 87bc 8248 79bc d667 34ba f00a 26bd
00000010: 8321 69bd 6640 613b 2a5b 1b3d 46dc c5bc
00000020: 3005 06bd 50f3 7abd ceb8 f73c 523f 4bbd
00000030: 823f 0cbd c0b8 303a b9a3 353c e246 593c
00000040: 8737 613d 4aac f4bb a0be 883b 6ac6 37bc
00000050: e55a fc3c 457b c93b 2f54 ca3c 3ef5 73bb
00000060: 8991 03bd 8c11 a4bb ee86 8ebc 6adb f7bc
00000070: 6e1a 563d 5eaa 4a3c eaeb 3c3d 0855 583d

decoder.1.weight f4 [32, 32, 3, 3]
0.050224695 -0.0049965126 0.05442336 -0.016332317 -0.047447566 0.03524497 -0.014991864 0.023466669
0.033816457 0.0032320907 0.039065883 0.04111313 0.036928616 -0.04448814 -0.0668689 -0.010386115
-0.040240545 -0.0007219837 -0.041505005 -0.017396046 -0.027303478 0.01644665 -0.009748796 0.054691542
-0.002643356 -0.05879929 -0.033466317 -0.020868424 -0.03344528 -0.04715296 -0.01187092 -0.017402312
-0.010013771 -0.01685818 0.016435068 0.051272694 -0.05644062 0.009388585 -0.028410073 0.05315533
-0.0021230744 -0.058868457 -0.034391142 -0.013591107 0.0017239652 -0.014404694 0.008032005 -0.03218242
0.012727982 -0.019324102 0.05523426 -0.034094863 -0.039681237 0.061248187 0.023424901 0.010241924
0.039437573 0.04789547 -0.014032804 0.031438984 -0.051249932 -0.017161934 0.010498247 -0.059932943
-0.019209139 -0.02965324 0.055885352 -0.030219592 0.047484178 0.036736388 -0.046396744 0.015943239
0.044781405 0.054676753 -0.045026068 -0.014783982 -0.016701877 -0.035470106 0.025743883 -0.048560552
0.016722139 -0.057164483 -0.054069784 0.027081635 0.035328697 0.023424529 0.039763648 -0.02150949
0.051194865 -0.031068522 -0.022768568 -0.021107396 0.0670028 -0.005550166 0.051176026 0.050205335
-0.02786668 -0.018079096 -0.032856934 0.0030097326 0.021903412 -0.04445294 -0.0078534605 -0.018600274
0.020572111 -0.056383982 -0.057510994 -0.027308568 -0.0009366214 -0.05733801 -0.032421824 -0.02586092
-0.058848653 0.04307377 -0.054331705 -0.021325793 -0.036358427 -0.037403833 0.038694575 0.030202167
0.019175384 -0.007649429 -0.031166583 0.050082743 0.055802576 0.0023932653 0.042064972 0.028177744
0.0007829416 0.016406763 -0.04907735 -0.02656767 0.028359637 0.026042333 -0.002599848 0.02609521
-0.052157357 0.002289544 0.054581616 -0.017006047 -0.045586098 -0.002465825 -0.026069064 -0.034649923
0.026109342 0.021810956 -0.052151833 -0.024455968 -0.012202539 0.030956998 0.011795169 0.0025026374
0.045722056 0.01981776 -0.019910555 0.0056191436 0.020422459 -0.01406813 -0.04651353 -0.040610887
0.004969411 0.048150204 -0.01659645 0.0022252258 0.05861874 0.044862576 0.031333808 0.022872046
0.04736918 0.05439283 0.027899105 0.002587325 0.022070251 -0.024262995 0.032895606 -0.0076062423
0.007509784 -0.012721916 -0.003890933 0.048952013 0.057665825 0.012241872 -0.011271944 0.025859052
-0.0024513388 0.057885572 -0.027310157 0.056916233 -0.046869628 -0.04299872 0.007730921 0.010410399
-0.044628754 0.028179718 0.0014905842 -0.0066466597 0.028438697 0.053450104 -0.029725105 -0.029744215
-0.05437014 0.014386339 -0.043092266 0.022299934 0.05526832 0.05813666 0.027748615 -0.049905945
0.015342326 0.049505543 -0.034322336 0.05403284 0.04267161 -0.0252713 0.0132771535 -0.031654485
0.05285985 0.025214331 0.03568882 -0.04277665 -0.00901768 -0.032910213 -0.012910638 0.023255978
0.0056766295 0.063729756 0.0025333073 -0.00839783 -0.008382591 -0.03317967 0.0169916 0.043465808
0.028170146 0.03972702 -0.059156135 -0.047874153 0.004594124 0.022170605 -0.008977118 -0.019109406
0.041461848 -0.050803937 0.007072618 -0.0067272205 0.047088522 -0.05479174 -0.0021556318 -0.050709877
0.042326547 -0.01668341 -0.024789074 -0.019680923 0.056709643 0.045742445 0.041411657 0.036574375
00000000: 69b8 4d3d c9b9 a3bb 07eb 5e3d 5acb 85bc
00000010: 6158 42bd 085d 103d 6fa0 75bc 2c3d c03c
00000020: 2083 0a3d 7cd1 533b 8c03 203d 3e66 283d
00000030: 7642 173d 3239 36bd 90f2 88bd 862a 2abc
00000040: 45d3 24bd 8243 3dba 2701 2abd 2782 8ebc
00000050: 8bab dfbc 20bb 863c 6ab9 1fbc 3d04 603d
00000060: 283c 2dbb 86d7 70bd fa13 09bd 42f4 aabc
00000070: ebfd 08bd 7623 41bd 3f7e 42bc 4b8f 8ebc
00000080: cd10 24bc 2a1a 8abc d6a2 863c 5103 523d
00000090: 482e 67bd 94d2 193c 3ebc e8bc 67b9 593d
000000a0: 4723 0bbb 0d20 71bd badd 0cbd 3cad 5ebc
000000b0: acf6 e13a aa01 6cbc ac98 033c b7d1 03bd
000000c0: 0789 503c 944d 9ebc 523d 623d 0ea7 0bbd
000000d0: cb88 22bd 61df 7a3d 94e5 bf3c becd 273c
000000e0: 4b89 213d 0a2e 443d d9e9 65bc 2ac6 003d
000000f0: 73eb 51bd 2f97 8cbc d700 2c3c 3f7c 75bd
00000100: 7c5c 9dbc 5aeb f2bc 0ae8 643d 148f f7bc
00000110: c57e 423d e578 163d 830a 3ebd 659b 823c
00000120: b56c 373d bbf4 5f3d 416d 38bd 8438 72bc
00000130: 60d2 88bc 1a49 11bd d6e4 d23c 6ee7 46bd
00000140: defc 883c 4e25 6abd 4778 5dbd 4eda dd3c
00000150: d3b4 103d cce4 bf3c 35df 223d ac34 b0bc
00000160: b5b1 513d 6a83 febc 2685 babc 6be9 acbc
00000170: c438 893d 2bde b5bb f49d 513d 1ca4 4d3d
00000180: aa48 e4bc 9d1a 94bc fe94 06bd ef3e 453b
00000190: c96e b33c 4914 36bd cdab 00bc 9a5f 98bc
000001a0: d886 a83c e4f2 66bd a690 6bbd 38b6 dfbc
000001b0: 9987 75ba 43db 6abd bfcc 04bd 48da d3bc
000001c0: 490b 71bd 1f6e 303d ec8a 5ebd 6eb3 aebc
000001d0: 93ec 14bd c334 19bd 347e 1e3d 896a f73c
000001e0: b215 9d3c 10a8 fabb 1051 ffbc 9023 4d3d
000001f0: 3e91 643d 54d8 1c3b 524c 2c3d 03d5 e63c
00000200: 523e 4d3a 7a67 863c 5505 49bd 71a4 d9bc
00000210: 7852 e83c bb56 d53c 3662 2abb 9fc5 d53c
00000220: f4a2 55bd 2d0c 163b f990 5f3d 4450 8bbc
00000230: 7db8 3abd ae99 21bb ca8e d5bc 14ed 0dbd
00000240: 42e3 d53c e4ac b23c 299d 55bd e257 c8bc
00000250: 28ed 47bc 8899 fd3c 8640 413c 4a03 243b
00000260: 0d47 3b3d db58 a23c 761b a3bc cb20 b83b
00000270: 004d a73c 047e 66bc f984 3ebd 9a57 26bd
00000280: 71d6 a23b 2639 453d 47f5 87bc 18d5 113b
00000290: 341a 703d d2c1 373d e157 003d 285e bb3c
000002a0: 2f06 423d 04cb 5e3d aa8c e43c 1c90 293b
000002b0: accc b43c 30c3 c6bc 8bbd 063d c93d f9bb
000002c0: a214 f63b 956f 50bc 06ff 7ebb e881 483d
000002d0: 0033 6c3d 2292 483c f6ad 38bc 5dd6 d33c
000002e0: a4a6 20bb 6c19 6d3d 8db9 dfbc ff20 693d
000002f0: 5efa 3fbd 6d1f 30bd aa53 fd3b 6190 2a3c
00000300: a4cc 36bd 27d9 e63c b55f c33a 39cc d9bb
00000310: 45f8 e83c 7fee 5a3d 1082 f3bc 24aa f3bc
00000320: 39b3 5ebd aeb4 6b3c 8481 30bd 5aae b63c
00000330: 0961 623d b520 6e3d 1051 e33c 2d6a 4cbd
00000340: 615e 7b3c 53c6 4a3d 9495 0cbd 8a51 5d3d
00000350: 6dc8 2e3d c205 cfbc 6b88 593c 22a8 01bd
00000360: 9283 583d 498e ce3c 712e 123d 9236 2fbd
00000370: e4be 13bc dccc 06bd 2487 53bc 5283 be3c
00000380: 0503 ba3b bf84 823d d805 263b 0d97 09bc
00000390: 2357 09bc 68e7 07bd f831 8b3c 3409 323d
000003a0: 14c5 e63c cdb8 223d b44d 72bd b017 44bd
000003b0: 4e8a 963b 219f b53c c314 13bc 548b 9cbc
000003c0: e6d3 293d ca17 50bd 6cc1 e73b 0470 dcbb
000003d0: e5df 403d 4e6d 60bd 8045 0dbb 29b5 4fbd
000003e0: 9a5e 2d3d a6ab 88bc 7512 cbbc e339 a1bc
000003f0: 5f48 683d 6e5c 3b3d 459f 293d 03cf 153d

decoder.1.bias f4 [32]
0.015815493 -0.00990011 0.0073908046 0.008159001 -0.033330947 0.031783156 0.02721034 0.017103637
-0.015268674 0.03000928 0.010488029 -0.035871916 -0.0020089208 0.016796855 0.040971015 0.048224583
0.035410818 -0.03353758 -0.013693391 -0.00394228 0.008927552 0.01651485 -0.02039824 0.058582865
0.054983728 -0.05396916 -0.03828335 -0.0028116119 0.03931479 0.0056533962 0.013653026 0.011708881
00000000: 7e8f 813c 1234 22bc 902e f23b 55ad 053c
00000010: 0886 08bd 0e2f 023d 38e8 de3c ed1c 8c3c
00000020: 7629 7abc 06d6 f53c fbd5 2b3c 6eee 12bd
00000030: 19a8 03bb 8f99 893c 39d1 273d 2487 453d
00000040: ef0a 113d b45e 09bd 3f5a 60bc 3e2e 81bb
00000050: de44 123c 274a 873c 361a a7bc 96f4 6f3d
00000060: 9e36 613d c40e 5dbd 01cf 1cbd 0543 38bb
00000070: 8c08 213d 2040 b93b f1b0 5f3c 9bd6 3f3c

decoder.4.weight f4 [16, 32, 3, 3]
-0.05508995 0.018876234 -0.055161096 -0.028769445 -0.02450954 -0.04456279 -0.0102795875 0.048256896
0.035951193 0.0318659 -0.038126584 -0.01568938 0.044783942 0.038989577 -0.018004026 -0.0586365
-0.036903 0.003956897 -0.018690806 0.048068788 0.016699791 -0.05036997 -0.060902327 0.002835196
-0.045389008 -0.0010285676 0.049019057 0.026434682 0.047352917 -0.01148255 -0.035905045 0.058162823
-0.024887603 -0.06536149 0.04659555 -0.00010077184 -0.011975955 0.012392331 0.020718489 0.027179938
-0.003934767 -0.025812712 -0.05864401 -0.05274197 0.01052634 0.026100304 0.03801606 -0.050399255
-0.015006876 -0.03665488 0.030784098 0.040015474 -0.019420985 -0.030375263 0.021261742 -0.11550469
-0.034316644 -0.054190334 -0.0075778156 -0.022602225 0.01075187 -0.0110244015 -0.077540465 -0.017002396
-0.04480928 0.031296473 -0.046451926 -0.0021012232 0.0028308295 -0.06690753 -0.041915372 -0.021311985
0.016443636 0.03712935 -0.0353674 -0.054058705 0.013968705 0.03159817 -0.018548843 -0.028086567
0.032236528 -0.03569785 0.030859366 0.0446752 0.03846113 -0.054332983 -0.014465153 0.032147773
-0.040882345 0.012508896 0.020501854 -0.04160635 -0.044457704 0.0341652 -0.03944972 -0.035803452
-0.002283716 0.00070888223 -0.021923143 0.01163717 -0.0001466833 0.053563166 0.054949764 0.03823452
-0.039661877 0.026903074 0.045213822 0.000107482076 -0.016088137 -0.026924614 -0.050547805 0.018571092
0.0012604891 -0.021591643 -0.06084326 0.04829611 -0.029432496 0.019512119 -0.050648425 0.005268024
-0.005386733 0.015066304 -0.02926659 -0.01238904 -0.0042437795 -0.026011366 -0.04838332 -0.055571035
-0.060353238 -0.046556287 0.00039203718 -0.026347868 -0.038127825 -0.0028227228 -0.043432053 -0.04604528
0.027853733 0.034323044 0.02290368 -0.024888534 0.044977255 -0.060823843 0.04980128 0.021933645
-0.07560114 -0.010285448 -0.020588905 -0.05013117 -0.01105075 -0.031455155 0.037742794 0.03734195
0.04324666 -0.032920264 -0.0065095685 -0.012669217 0.014724623 0.012381647 -0.047822244 -0.007348977
-0.0263087 -0.016158454 -0.0047600823 -0.004572315 -0.00196445 0.011602657 0.039557476 0.048065722
0.008861376 -0.05798522 -0.02952814 -0.024686461 -0.044692874 0.00013107294 0.025692074 0.037766557
-0.062204994 0.012973066 -0.02614025 -0.019270081 -0.015061795 -0.018823862 -0.025542984 0.02696234
-0.0040836367 -0.060061377 -0.025957853 -0.040663425 0.050433286 -0.037147466 0.01851647 0.038956344
-0.008148713 -0.05567366 -0.04370093 0.017434733 -0.061457146 -0.06295659 0.01459643 0.014282688
0.009922255 0.016534716 0.010303697 -0.052223194 -0.047318395 0.015385174 -0.006812916 0.04085846
0.04468804 -0.03497321 0.013044701 0.032764476 0.048513617 -0.035858363 0.020756524 0.04327438
-0.059456095 -0.04491567 -0.03969599 -0.013296294 -0.023408303 0.04564258 -0.061874367 -0.0099618
-0.030728545 0.037821967 -0.045810815 0.006111879 0.013357107 -0.003837444 0.026375193 -0.04509205
0.012350317 0.052716937 0.054747332 -0.004022777 -0.02456138 -0.030642789 0.0020013154 -0.014196217
-0.044003382 -0.007055573 -0.042628307 -0.046927903 0.012960989 -0.02384662 -0.05532116 -0.0062669376
-0.02985663 0.023962807 0.02846983 0.04053477 0.03818573 -0.030067883 -0.10405134 0.042653482
00000000: 00a6 61bd 55a2 9a3c 9af0 61bd e6ad ebbc
00000010: 3bc8 c8bc 7987 36bd b76b 28bc 06a9 453d
00000020: 8f41 133d d185 023d 9f2a 1cbd 0487 80bc
00000030: 5e6f 373d 89b3 1f3d 2e7d 93bc d42c 70bd
00000040: 9a27 17bd dca8 813b 761d 99bc c7e3 443d
00000050: 00ce 883c be50 4ebd b874 79bd b2ce 393b
00000060: d3e9 39bd 00d1 86ba 35c8 483d 8c8d d83c
00000070: 22f5 413d 4e21 3cbc 2b11 13bd 243c 6e3d
00000080: 16e1 cbbc 3fdc 85bd fada 3e3d 7855 d3b8
00000090: cc36 44bc 3409 4b3c d2b9 a93c 76a8 de3c
000000a0: 38ef 80bb 2e75 d3bc b434 70bd f707 58bd
000000b0: ac76 2c3c 4ed0 d53c bab6 1b3d 736f 4ebd
000000c0: 66df 75bc 6d23 16bd ef2e fc3c 44e7 233d
000000d0: c218 9fbc 8bd5 f8bc 1b2d ae3c b98d ecbd
000000e0: 9c8f 0cbd aff6 5dbd 534f f8bb 4d28 b9bc
000000f0: 9d28 303c b19f 34bc 89cd 9ebd 9c48 8bbc
00000100: f089 37bd bb30 003d 6044 3ebd adb4 09bb
00000110: 7085 393b d106 89bd 74af 2bbd 7996 aebc
00000120: ceb4 863c f214 183d 68dd 10bd a96c 5dbd
00000130: ffdc 643c 156d 013d bef3 97bc cd15 e6bc
00000140: 730a 043d e937 12bd c8cc fc3c 58fd 363d
00000150: 6b89 1d3d 438c 5ebd 40ff 6cbc 62ad 033d
00000160: 3f74 27bd 1df2 4c3c 81f3 a73c 6c6b 2abd
00000170: 4819 36bd cff0 0b3d 0896 21bd a4a6 12bd
00000180: 66aa 15bb 48d4 393a 2a98 b3bc d4a9 3e3c
00000190: 00cf 19b9 0d65 5b3d 0113 613d cd9b 1c3d
000001a0: 7e74 22bd d663 dc3c 2132 393d 0068 e138
000001b0: 45cb 83bc 0291 dcbc 370b 4fbd 6722 983c
000001c0: ff36 a53a f5e0 b0bc c836 79bd 24d2 453d
000001d0: 6b1c f1bc e1d7 9f3c b974 4fbd 639f ac3b
000001e0: 3183 b0bb a9d8 763c 7dc0 efbc 66fb 4abc
000001f0: 670f 8bbb ca15 d5bc 972d 46bd 749e 63bd
00000200: f534 77bd ceb1 3ebd 578a cd39 7cd7 d7bc
00000210: ec2b 1cbd 6efd 38bb cfe5 31bd fa99 3cbd
00000220: 832d e43c 5296 0c3d 80a0 bb3c 0ae3 cbbc
00000230: 123a 383d 6c22 79bd 6dfc 4b3d 30ae b33c
00000240: c5d4 9abd 4c84 28bc 10aa a8bc 5756 4dbd
00000250: 340e 35bc 1fd7 00bd 3098 1a3d dff3 183d
00000260: 6923 313d 66d7 06bd 384e d5bb 8c92 4fbc
00000270: 8c3f 713c 64dc 4a3c 42e1 43bd b0cf f0bb
00000280: 5885 d7bc bc5e 84bc 77fa 9bbb 5cd3 95bb
00000290: 01be 00bb 1219 3e3c 0507 223d 90e0 443d
000002a0: 4e2f 113c e981 6dbd ffe4 f1bc 433b cabc
000002b0: e00f 37bd a070 0939 2f78 d23c 1bb1 1a3d
000002c0: aaca 7ebd fc8c 543c 1424 d6bc 4adc 9dbc
000002d0: bfc5 76bc 8034 9abc 853f d1bc 20e0 dc3c
000002e0: 07d0 85bb eb02 76bd 90a5 d4bc b18e 26bd
000002f0: 2293 4e3d f127 18bd daaf 973c b090 1f3d
00000300: 2e82 05bc 100a 64bd bfff 32bd 49d3 8e3c
00000310: 7dba 7bbd 62ef 80bd dd25 6f3c ef01 6a3c
00000320: f490 223c d073 873c d6d0 283c fde7 55bd
00000330: efd0 41bd 1912 7c3c e23e dfbb 335b 273d
00000340: ce0a 373d 1240 0fbd 71b9 553c 0b34 063d
00000350: 37b6 463d 38e0 12bd 9609 aa3c 7a40 313d
00000360: 3c88 73bd 7ef9 37bd 4398 22bd b3d8 59bc
00000370: c5c2 bfbc b7f3 3a3d fa6f 7dbd d136 23bc
00000380: 6eba fbbc 35eb 1a3d 1fa4 3bbd 2846 c83b
00000390: c4d7 5a3c a07d 7bbb ca10 d83c 71b2 38bd
000003a0: fc58 4a3c b7ed 573d bd3e 603d 80d1 83bb
000003b0: f234 c9bc 9606 fbbc 8028 033b 4097 68bc
000003c0: e43c 34bd 7032 e7bb 059b 2ebd 7937 40bd
000003d0: 545a 543c fd59 c3bc 7198 62bd e25a cdbb
000003e0: e495 f4bc a64d c43c 9039 e93c c907 263d
000003f0: a468 1c3d ec50 f6bc de18 d5bd 6bb5 2e3d

decoder.4.bias f4 [16]
-0.0067818295 -0.006885452 0.0060345773 0.023179375 0.066041075 0.028722458 0.030109499 0.0467144
0.057853885 -0.017096538 -0.014419321 -0.014645595 0.030102432 0.006031793 0.021268087 -0.035767242
00000000: 1c3a debb 5c9f e1bb b4bd c53b ace2 bd3c
00000010: 8b40 873d 5c4b eb3c 32a8 f63c 9957 3f3d
00000020: 32f8 6c3d 0a0e 8cbc 043f 6cbc 14f4 6fbc
00000030: 6099 f63c 59a6 c53b 693a ae3c ac80 12bd

decoder.7.weight f4 [2, 16, 3, 3]
-0.007648612 -0.08405695 0.008454648 0.016418075 0.071475826 0.062223937 0.04143007 0.07555404
0.06526221 -0.025292642 -0.064649224 0.06121182 -0.043445647 -0.0052119484 0.065167 -0.05573714
-0.080404304 0.037006244 0.00366624 -0.039061517 0.0458564 0.05286098 -0.07994328 -0.07925168
0.028283255 -0.027053682 0.046122808 -0.09863992 -0.08252362 0.08047934 -0.0017591249 0.05782549
0.07346352 -0.11405587 -0.049275924 0.0017244001 -0.034467023 -0.055772256 -0.07694008 -0.022065567
-0.0569885 -0.08277886 0.06663565 0.053653944 -0.06786795 0.036304154 0.019028654 -0.03260442
-0.07761418 -0.011095474 -0.05998458 -0.05094119 0.023278808 -0.04360045 0.009019197 -0.069457375
-0.04221172 0.02318995 0.042156998 0.03805466 -0.025847213 -0.03798152 -0.039452095 -0.026504273
0.014223244 0.012775934 -0.011874053 -0.009381362 0.060876697 0.02973219 -0.045039047 -0.047469433
-0.084141955 -0.009306661 -0.08344548 -0.09801429 -0.048933852 -0.08696469 -3.2385546e-05 0.0054546245
0.00966972 0.018399358 -0.00382068 0.00031296164 0.07421043 -0.008716725 -0.0007328391 -0.031415682
-0.070976794 0.06478045 0.054216437 -0.078382276 0.012972496 0.042111106 -0.06794729 0.034314074
-0.01029665 0.06453193 0.08224853 -0.052426904 0.028027944 -0.07293458 0.0060297847 0.079394944
-0.0010193363 -0.069395065 -0.01841309 0.06986857 0.03431043 -0.076331355 0.056944713 0.0647514
-0.030987727 0.048167314 0.006618225 0.04734882 0.07060258 0.013967374 -0.011164132 -0.015615172
0.045863967 0.015956955 0.0013150796 -0.051363602 0.024812125 -0.06785762 0.018792268 -0.049845148
-0.0703665 0.05870103 -0.0005107038 0.03733541 0.04223871 0.013475115 -0.06092696 -0.0518099
-0.028883569 -0.016111307 0.023919784 0.014302723 -0.012702435 -0.05020848 0.0068803653 0.015599318
0.037386604 -0.0027367612 0.022513945 0.027782317 -0.018366562 0.04795667 0.07928072 -0.032032944
-0.062373687 0.038383186 -0.053477097 0.050738744 -0.023175962 -0.014833988 0.074470565 0.03475772
-0.058915008 0.010191564 0.0846233 0.05107197 -0.050097656 0.06291466 -0.040734377 -0.07695993
0.07302505 -0.05072571 0.048477013 -0.052818794 0.028458042 -0.049771547 0.0017006571 -0.003996314
-0.04520521 0.09863227 0.0050938395 -0.057469122 0.061359726 0.053720605 -0.02368282 0.0056684874
0.012196597 0.022171529 -0.06873757 0.04998537 -0.0027308408 -0.05336663 0.046433732 -0.04597425
0.07522892 0.0040354845 -0.05358104 -0.045814823 0.08657199 0.030910075 0.029633086 0.07538916
0.029661717 -0.0003319613 0.08626212 0.066548645 0.077105455 -0.062327355 -0.08096647 0.062603354
-0.053095672 -0.028009487 0.026414275 0.030477373 0.012384608 -0.06883661 0.05597624 0.026788812
0.09944272 0.054564722 -0.04570553 0.011477328 -0.023588594 0.0088096745 -0.03567343 0.0461995
0.102870405 -0.07499041 0.042928405 -0.039717287 -0.062790096 -0.053667486 -0.06782694 0.022772789
-0.07724637 -0.028374612 -0.05604161 0.02232162 -0.07471244 -0.058499776 -0.06422975 0.06025871
0.030674614 0.028500944 -0.074419096 0.036414556 0.07239679 -0.027275056 -0.05354762 -0.0795847
0.010350443 0.024710394 0.023561962 0.065668054 -0.06717907 0.083820745 0.0726356 0.06452917
00000000: 35a1 fabb 0d26 acbd 5d85 0a3c 337f 863c
00000010: eb61 923d 87de 7e3d 94b2 293d 14bc 9a3d
00000020: 32a8 853d 8432 cfbc d066 84bd 3fb9 7a3d
00000030: 10f4 31bd fec8 aabb 4776 853d a14c 64bd
00000040: 03ab a4bd dc93 173d 4d45 703b f8fe 1fbd
00000050: ecd3 3b3d c184 583d 4db9 a3bd b44e a2bd
00000060: 49b2 e73c af9f ddbc 45eb 3c3d ba03 cabd
00000070: 2502 a9bd 5ad2 a43d 7092 e6ba 6cda 6c3d
00000080: 0b74 963d 2096 e9bd 8dd5 49bd 4405 e23a
00000090: 4b2d 0dbd 7371 64bd c392 9dbd d9c2 b4bc
000000a0: c66c 69bd f787 a9bd 4678 883d 3dc4 5b3d
000000b0: 5afe 8abd aab3 143d fbe1 9b3c 368c 05bd
000000c0: 2ff4 9ebd cac9 35bc 64b2 75bd b6a7 50bd
000000d0: 33b3 be3c 6396 32bd 41c5 133c ab3f 8ebd
000000e0: 32e6 2cbd daf8 bd3c d1ac 2c3d 34df 1b3d
000000f0: 89bd d3bc 8392 1bbd 8598 21bd 7d1f d9bc
00000100: 9c08 693c 2752 513c 638b 42bc 49b4 19bc
00000110: d859 793d ec90 f33c dd7a 38bd 4f6f 42bd
00000120: 9e52 acbd f77a 18bc 77e5 aabd b7bb c8bd
00000130: dd6e 48bd 8b1a b2bd b7d5 07b8 b5bc b23b
00000140: bf6d 1e3c 40ba 963c 6064 7abb 0015 a439
00000150: a3fb 973d 98d0 0ebc 001c 40ba bbad 00bd
00000160: 485c 91bd 9dab 843d 0e12 5e3d e386 a0bd
00000170: 988a 543c b27c 2c3d f327 8bbd ea8c 0c3d
00000180: 48b3 28bc 5129 843d eb71 a83d 98bd 56bd
00000190: dc9a e53c ba5e 95bd 8095 c53b d199 a23d
000001a0: 409b 85ba 001f 8ebd 0cd7 96bc 4117 8f3d
000001b0: 1889 0c3d 9d53 9cbd dc3e 693d 629c 843d
000001c0: f9d9 fdbc 174b 453d b2dd d83b d6f0 413d
000001d0: 1698 903d 6ad7 643c c3e9 36bc c7d6 7fbc
000001e0: dbdb 3b3d 29b8 823c c05e ac3a a462 52bd
000001f0: cc42 cb3c f0f8 8abd 3ef2 993c 6d2a 4cbd
00000200: 501c 90bd 7e70 703d c0e0 05ba 04ed 183d
00000210: 7f02 2d3d bbc6 5c3c 8c8e 79bd 9e36 54bd
00000220: 3c9d ecbc dcfb 83bc 6cf3 c33c f855 6a3c
00000230: e01d 50bc 68a7 4dbd b074 e13b 4894 7f3c
00000240: b222 193d 3c5b 33bb 2a6f b83c be97 e33c
00000250: 7975 96bc 376e 443d ee5d a23d fa34 03bd
00000260: 8d7b 7fbd b037 1d3d cd0a 5bbd 6ed3 4f3d
00000270: 84db bdbc 410a 73bc 0684 983d 1c5e 0e3d
00000280: dd50 71bd 85fa 263c fb4e ad3d d830 513d
00000290: 3333 4dbd 67d9 803d 17d9 26bd 2b9d 9dbd
000002a0: 288e 953d c3c5 4fbd d58f 463d 8558 58bd
000002b0: d720 e93c 40dd 4bbd 95e8 de3a 83f3 82bb
000002c0: 1929 39bd b7ff c93d 39ea a63b be64 6bbd
000002d0: 5654 7b3d 230a 5c3d 7902 c2bc b8be b93b
000002e0: 3cd4 473c 11a1 b53c 48c6 8cbd 76bd 4c3d
000002f0: e8f7 32bb f896 5abd 4c31 3e3d 7f4f 3cbd
00000300: 9f11 9a3d 193c 843b cb77 5bbd 53a8 3bbd
00000310: a84c b13d 2037 fd3c 16c1 f23c a265 9a3d
00000320: 21fd f23c 170b aeb9 32aa b03d a84a 883d
00000330: 77e9 9d3d f84a 7fbd c0d1 a5bd 3036 803d
00000340: d97a 59bd 2774 e5bc c062 d83c afab f93c
00000350: d0e8 4a3c 35fa 8cbd 5847 653d 3674 db3c
00000360: a0a8 cb3d 427f 5f3d b935 3bbd 670b 3c3c
00000370: de3c c1bc 7456 103c 4d1e 12bd b03b 3d3d
00000380: b8ad d23d 9294 99bd b2d5 2f3d 98ae 22bd
00000390: 1898 80bd 70d2 5bbd dae8 8abd 008e ba3c
000003a0: 5833 9ebd e071 e8bc e38b 65bd d4db b63c
000003b0: d602 99bd 769d 6fbd e38a 83bd d6d1 763d
000003c0: 5449 fb3c d07a e93c 0a69 98bd 6e27 153d
000003d0: c544 943d f06f dfbc c054 5bbd 4efd a2bd
000003e0: e894 293c 746d ca3c 0405 c13c f97c 863d
000003f0: 2e95 89bd 36aa ab3d f9c1 943d df27 843d

decoder.7.bias f4 [2]
0.034568164 0.07014625
00000000: 5997 0d3d d6a8 8f3d
