trained_model/colorization_model1.pth (torch, 132438 bytes, 16 tensors)

encoder.0.weight f4 [8, 1, 3, 3]
000000 59 bc 71 3e 27 05 0a 3e 16 ad a4 be 7f 1f 8e 3e
       0.23607005 0.13478528 -0.32163304 0.27758405
000010 11 56 eb 3c 18 3a b0 3e c0 bc 2d 3e 11 f8 d3 3b
       0.028727563 0.34419322 0.16966534 0.006468781
000020 eb c1 3e be e7 94 a2 3e f6 1c 35 be 07 58 9c bd
       -0.18628661 0.31754228 -0.17686829 -0.076339774
000030 97 7f f5 bd 1d 8c 92 3e 3f 68 9e 3e 0e 34 9f 3e
       -0.119872265 0.28622523 0.30938908 0.31094402
000040 97 cc 74 3e 3c 2a d5 bc 07 08 13 3e 3a a7 58 bc
       0.2390617 -0.026021115 0.14358531 -0.013223464
000050 5e 37 a3 3c 6c 46 2c bd e6 53 91 3e ec 9b 97 be
       0.019923862 -0.042059347 0.28384322 -0.29611146
000060 af 64 2d 3e ea fb 4c be 98 6e c7 3d 40 3d 9c 3d
       0.16932939 -0.20017973 0.09737891 0.0762887
000070 00 48 ae 3a d0 a9 ff bd 2b 17 54 be 0b 63 9e 3e
       0.0013296604 -0.12483561 -0.20711963 0.3093494
000080 cc f2 a7 be 3c de fd 3d 3c de b6 3d 60 6b 52 3d
       -0.32802427 0.123959035 0.089291066 0.051371932
000090 24 82 31 3e a6 8f d4 3d c1 bf 69 be a8 a0 61 be
       0.17334801 0.10378961 -0.22827055 -0.22033942
0000a0 76 bc 62 bc 62 42 2f be ef 81 6c 3d 46 c2 1f bb
       -0.013838878 -0.17115167 0.0577411 -0.002437727
0000b0 51 ee 33 bb 8b 7d df bd ab 85 16 be 68 c4 94 be
       -0.002745528 -0.10912617 -0.14699428 -0.29056096
0000c0 6f 1d 94 be 71 7b 20 bd 8e 55 37 3e 38 1a b4 3e
       -0.28928706 -0.039180223 0.1790373 0.35176253
0000d0 b6 7a 9d 3e a5 6f 58 3d d0 5b 91 be a8 aa 69 bd
       0.30757684 0.052840848 -0.2839036 -0.057047516
0000e0 40 30 a1 bd df 15 9a be fe 82 41 be d3 a5 68 be
       -0.07870531 -0.3009481 -0.18897626 -0.22719507
0000f0 60 24 43 bd e2 7d 2c 3e ed 9a a8 3e 2b d5 0c 3e
       -0.04764211 0.16844895 0.329307 0.13753192
000100 71 0f 29 be 02 f7 26 3e 34 50 a4 3d 33 cc 76 be
       -0.16509797 0.16305164 0.0802311 -0.24101333
000110 ed 3b 88 be e3 e8 91 be 8d 13 d4 3d b0 90 3b be
       -0.2660822 -0.2849799 0.103552915 -0.18316913

encoder.0.bias f4 [8]
000000 d0 8c 23 b8 7c 16 d1 3d c5 65 9a 3e 3f 6b 96 be
       -3.899337e-05 0.10209367 0.3015577 -0.29378697
000010 2b 9a a2 3e 28 13 45 3d 40 ef 98 be 86 b9 84 3e
       0.31758246 0.048113972 -0.29870033 0.25922793

encoder.2.weight f4 [16, 8, 3, 3]
000000 21 ea 11 be 73 40 20 bd 1d 6d f6 bd 37 41 37 3d
       -0.1424947 -0.039123964 -0.120325305 0.044739928
000010 5e 7f 0d 3d 7a 5d 62 bc dd 8e 30 3d 6c f9 d5 3d
       0.034545295 -0.013816232 0.043104995 0.10447964
000020 53 ff 3f bd 23 c7 23 be 29 f4 09 be 81 c7 4c 3d
       -0.046874356 -0.15993933 -0.13472046 0.04999495
000030 45 95 33 3d 8d 49 80 3d f7 fa 83 3d 56 6a 22 3d
       0.043843526 0.06264029 0.06444352 0.03965219
000040 ee eb 6e 3d a2 68 77 3d 1b 2b 29 be a4 23 c4 bd
       0.05833047 0.06040252 -0.1652035 -0.095771104
000050 57 b8 a1 3b 8a ff d6 bb 7c 77 b5 bd 92 25 fa 3d
       0.004935305 -0.0065612243 -0.088606805 0.12214197
000060 0b aa 96 bd 88 4e 0f 3e 52 4e a9 3d 28 c3 34 bd
       -0.07356652 0.13994801 0.082668915 -0.044131428
000070 d2 39 61 3d ee 5d 49 bd df db c5 3d 65 14 80 bd
       0.054986782 -0.049161844 0.09661078 -0.0625389
000080 e5 13 e8 3d 93 a2 eb 3d 48 c9 a6 bd c5 9d c6 3d
       0.113319196 0.11505618 -0.0814386 0.09698061
000090 f8 bf 98 bd b7 d8 05 bd b5 55 9f bd 9c 14 f1 3d
       -0.0745849 -0.03267738 -0.07780019 0.11771509
0000a0 e8 50 d8 bd 31 58 b2 3d de 1e a3 3d 3f 70 01 3e
       -0.10562307 0.087082274 0.07964872 0.12640475
0000b0 9f ee e2 3d 84 2a a3 3d f4 a4 33 bd 05 34 a2 3d
       0.110806696 0.079670936 -0.043858483 0.07920078
0000c0 d8 23 11 3e b0 ab 1d 3e 4e aa 81 3d 8c 32 c6 3d
       0.1417383 0.15397525 0.06331311 0.0967761
0000d0 aa 65 9f 3d 42 8e 30 3e ae dc 19 bd 51 dd 68 bd
       0.07783063 0.17241767 -0.037563972 -0.05685169
0000e0 ca c2 13 3d 84 75 35 bd 00 7f fb bb 94 08 d4 3c
       0.036074437 -0.044301525 -0.0076750517 0.025882997
0000f0 e6 46 f1 bd 64 5e 24 bd d7 13 80 3d ce 99 0e 3c
       -0.11781101 -0.04012908 0.06253784 0.008703662
000100 21 39 50 bc f2 fb e4 3c 06 e2 0a 3d 9e e3 d3 bd
       -0.012708933 0.027952168 0.03390696 -0.10346149
000110 29 eb 66 bd 72 64 a4 3c ef 89 10 bd 34 03 2d bd
       -0.05637661 0.020067427 -0.035287794 -0.042239383
000120 21 e9 ad 3d 63 ab 25 bd 7c 65 78 3d 1e 40 4a 3d
       0.084917314 -0.04044665 0.060643658 0.049377553
000130 18 ca ad 3d 72 1f 7d 3d 51 d0 11 3d e2 8d 70 bd
       0.08485812 0.061797567 0.035599057 -0.05872906
000140 eb 9d a5 bc 4d 67 6d bd 18 26 4f bd 1e 1e 1d 3d
       -0.020216903 -0.057959843 -0.05057344 0.0383588
000150 cb c3 97 bd 98 3a c9 bd 5c 82 e9 bd 03 89 b1 bd
       -0.074103914 -0.09825629 -0.11401817 -0.08668711
000160 69 31 3c 3d 8f 76 6b 3d 7e 3c bd bd 6b 31 75 3d
       0.04594556 0.057486113 -0.092400536 0.05986158
000170 9e b9 18 bd b5 14 77 3d 79 ee 37 bc 7d 59 65 bd
       -0.037286393 0.060322482 -0.01122629 -0.055993546
000180 cb 6a 09 3d b7 f0 ad 3d 04 2f 80 bd 9c 88 c7 3c
       0.03354911 0.08493178 -0.062589675 0.024357133
000190 aa dd 7b bd c0 da 37 bc fb 61 db 3d de e8 5d 3d
       -0.061490692 -0.011221588 0.10712048 0.054177158
0001a0 22 0a b4 bd a0 21 27 bc 55 fa 98 3d 8c e0 c2 bd
       -0.08790995 -0.010200888 0.07469622 -0.09515485
0001b0 7d dc b8 3d 5e f7 76 3c 7c b1 4a bd df 41 a6 bd
       0.0902643 0.015073625 -0.04948567 -0.08118033
0001c0 0f 04 a1 3c bb 55 3c 3c 08 a9 06 3d 59 24 b2 bd
       0.019655256 0.011495049 0.032876045 -0.08698339
0001d0 ef b0 c0 3d 02 98 f9 3d ee d9 f2 3d 3c 37 7e 3d
       0.094087474 0.12187196 0.11857973 0.062064394
0001e0 c7 fa be bc 10 8a d6 bc ec 0f 2b bd 7c 73 59 bd
       -0.02331294 -0.02618888 -0.04176323 -0.05308865
0001f0 fc e8 0b be f6 e7 57 3d 90 72 d9 bd 76 7b 3c 3d
       -0.13663095 0.05271145 -0.10617554 0.04601618
000200 10 de eb bc 12 bb cf bd 9b 4a b3 3d 85 19 8f 3d
       -0.028792411 -0.10143103 0.08754464 0.06987289
000210 ad d3 8b 3d f0 17 58 bd c6 b0 5b 3d 6b b9 d5 3d
       0.06827483 -0.052757204 0.05363538 0.10435756
000220 2a ae 89 bd a6 51 8a 3d 41 36 ea bc b9 ca dc 3d
       -0.06722672 0.067538545 -0.028590323 0.10780854
000230 40 c6 c0 bb 99 44 3f bd b7 f0 e5 bb cc 66 90 3d
       -0.0058830082 -0.04669628 -0.007017221 0.07050857
000240 c7 11 11 be e0 ef 07 bc 5b 3a 14 be 19 7d 71 bd
       -0.14166938 -0.008296937 -0.14475386 -0.058957193
000250 51 5f bf 3d 83 b1 05 3e ef 1a 30 3c e8 a3 38 bd
       0.09344352 0.13055997 0.010748609 -0.04507819
000260 cf ca a4 3d b4 e8 18 3d e9 da af bd 42 82 ba bc
       0.08046495 0.037331298 -0.08586676 -0.02276719
000270 d5 be c4 3d 4b 7a c4 3d 2c 26 3d 3d bd 18 f7 3d
       0.09606711 0.09593638 0.04617898 0.12065265
000280 dd fc ca bd a7 bb 49 3d 9c 5c e9 bc ef 0b 02 bd
       -0.09911511 0.049251225 -0.028486542 -0.031749662
000290 89 fd 50 bd 18 ff ed 3c 34 7c c4 3d e6 43 32 bd
       -0.05102304 0.029052302 0.09594002 -0.043521784
0002a0 9a 83 37 bb 4c e6 18 3d 0c d8 36 3d 38 ee 04 bd
       -0.0028002025 0.037329003 0.044639632 -0.032453746
0002b0 47 ad bb 3d 08 4b ab bd 46 f1 81 bd ff 1f a0 bd
       0.091639094 -0.083639205 -0.063448474 -0.07818603
0002c0 30 9e 92 bd 85 fb d2 bd 55 29 c5 3d 7c fc 9b 3c
       -0.07159078 -0.1030188 0.09627024 0.019041292
0002d0 1b 2a 18 be dc d5 af bd 64 98 04 bd d7 f3 96 bd
       -0.14859812 -0.08585712 -0.032371894 -0.073707275
0002e0 47 92 b2 bd 29 00 88 3d a1 28 05 3d b2 69 9f bc
       -0.087193064 0.066406555 0.03250945 -0.01945958
0002f0 a6 3c 5f bd 35 bc f4 bd 18 67 e9 3b cc 51 13 be
       -0.0545012 -0.1194996 0.0071228854 -0.14386672
000300 1d 2d 3e 3e ae 23 02 3d d2 2c 3d 3d 50 98 99 3d
       0.18571897 0.031772308 0.046185322 0.074997544
000310 10 2f f3 3d 06 6f 0c 3d b8 91 46 bd 0c fe 94 bc
       0.11874211 0.034285568 -0.048478812 -0.018187545
000320 da 1e 3a 3d b5 d4 8e 3d f3 41 d5 3d 6c f8 ae bd
       0.04543958 0.069741644 0.104129694 -0.085434765
000330 3d cd 99 3d 70 60 89 bb 58 3f 0c 3c ec d5 5d 3c
       0.07509849 -0.0041924044 0.008560024 0.0135397725
000340 02 c8 56 bd 4e 9f 54 bd be e1 a2 3d 64 82 eb bc
       -0.052436836 -0.051909737 0.07953213 -0.028748699
000350 23 b8 a6 bb b8 c9 26 3e c1 ad 30 3e 9d 4e fd 3c
       -0.005087869 0.16287887 0.17253782 0.030921275
000360 cc 75 99 bd 84 78 9e bd 70 fe 9f bb 9e 02 46 3d
       -0.07493171 -0.0773783 -0.0048826262 0.04834234
000370 40 e2 ff bc fb 6a c3 3d b9 88 d1 3d 54 05 38 bd
       -0.031235814 0.09541889 0.10231156 -0.044926956
000380 bd 00 a8 bd 90 6f f8 3b ed f4 85 3d f9 f8 91 bd
       -0.08203266 0.0075816587 0.065408565 -0.07127566
000390 f1 b9 85 bd b0 30 bb bd bd 6d e4 bd da 60 48 3d
       -0.06529606 -0.09140146 -0.111537434 0.04892049
0003a0 88 99 9c bd d0 7d 30 bd 61 56 95 3d 58 0b 09 bc
       -0.07646471 -0.043088734 0.07291866 -0.008364521
0003b0 0c 7a a0 bd 00 67 a8 39 7b 7f 9c 3d 72 d6 03 3d
       -0.078357786 0.00032120198 0.076415025 0.032186933
0003c0 bd 0e a7 bd f4 83 62 bd 48 00 7a bc 19 06 aa bd
       -0.08157108 -0.05530162 -0.015258856 -0.08301944
0003d0 e2 57 cc bd 30 c0 d1 bb 44 77 97 bd 25 dc 7a bd
       -0.099777 -0.0064010844 -0.07395795 -0.061245102
0003e0 60 6b 7a bd aa d5 3f 3d 80 5c 8e bb ce 99 89 bd
       -0.061137557 0.046834625 -0.004344523 -0.06718789
0003f0 5c 08 9d bd 24 96 81 bd 40 0d ce bc 80 8e 4a bc
       -0.0766761 -0.06327465 -0.025152802 -0.012363076

encoder.2.bias f4 [16]
000000 dd f6 68 bd 61 d1 3e 3d 5d 07 aa bd 52 fe 0e 3d
       -0.056876052 0.046586398 -0.08302186 0.034910508
000010 95 dc d8 bd 70 4a a9 bd 8c 8f dd bc 6a 1e eb 3d
       -0.10588948 -0.08266151 -0.027045988 0.114804104
000020 e2 e2 0e bd bd 47 5f 3d 36 8a b2 3d 91 4d ed bd
       -0.03488434 0.054511774 0.08717768 -0.1158706
000030 b2 d3 68 bd ff e9 d7 3d 56 b0 d0 3d ab cb d0 bd
       -0.056842513 0.10542678 0.101898834 -0.101950966

encoder.4.weight f4 [16, 16, 3, 3]
000000 9c 57 f3 3c f0 b1 9e bd 12 d3 82 bd 3d 2f 84 bd
       0.029704861 -0.07748783 -0.06387915 -0.064543225
000010 58 b5 18 bd 11 36 95 bd b5 17 93 bd 75 2b 55 3c
       -0.037282318 -0.07285703 -0.07182256 0.013010849
000020 86 f7 16 be 18 1f ca bd e0 b9 f0 3c 26 09 8d bd
       -0.1474286 -0.09869212 0.029385507 -0.068865106
000030 57 6c 50 3d 7a b7 e0 3c 71 07 8d 3d c2 0b 76 bd
       0.05088457 0.027431238 0.06886185 -0.060069807
000040 86 e6 e9 3c 30 af a3 bc 32 0a 00 3e fc 30 df 3d
       0.028552305 -0.019980997 0.12503889 0.10898015
000050 62 68 ee bc f6 74 84 bc 4c 1d 56 bd 61 3a 47 3b
       -0.029102508 -0.016169053 -0.052274033 0.0030399787
000060 1f 19 9f bd ae bb 7d 3c dc 72 1e bc e4 50 a1 bc
       -0.07768463 0.015486641 -0.009670939 -0.019691892
000070 e2 6f 33 3d 30 0e 64 bd 8c f4 ae 3c ad c5 95 3d
       0.04380787 -0.055677593 0.021356843 0.07313094
000080 43 20 33 bd 00 11 c4 3b ab 3a 9f 3d 72 17 80 bd
       -0.04373194 0.005983472 0.07774862 -0.06254472
000090 87 7f 84 bd a0 da a3 bd 64 bb 9f 3c cd 86 9b 3d
       -0.064696364 -0.08000684 0.019498535 0.075940706
0000a0 7c cf d4 3c 70 50 d5 bc d0 68 18 3d 98 13 0c 3c
       0.025977843 -0.026039332 0.037209332 0.008549593
0000b0 36 4b 20 bd 80 f8 0c bd d0 da c8 bb 50 14 ac bb
       -0.039134227 -0.034416676 -0.0061296 -0.005251445
0000c0 88 8e 1c bc 60 37 24 bd c8 45 7f 3c 68 17 26 3c
       -0.0095554665 -0.040091872 0.015580602 0.010137416
0000d0 3a ae 7d 3d 14 0b 8c bc 71 45 a9 bc 07 82 b9 3c
       0.061933734 -0.017095126 -0.020662995 0.02264501
0000e0 8f b4 9f 3c 89 73 ac bd 16 ef 0d bd ea 2b 10 3d
       0.019495277 -0.08420474 -0.03465184 0.03519813
0000f0 be 0f e7 bc d1 80 fe 3d a4 b2 aa 3d 61 18 35 3c
       -0.028205749 0.124269135 0.08334854 0.011053176
000100 73 d4 11 3d aa e2 ac 3c a2 47 af bd af ca 95 bd
       0.035602998 0.021104176 -0.08558585 -0.073140495
000110 b9 3e 7a 3c ef cf 18 bd 39 5c 04 3d 10 95 61 3d
       0.015273743 -0.037307676 0.032314513 0.055073798
000120 a3 b8 95 bd ea 94 61 3d c4 bd dd 3c b9 d9 a1 3d
       -0.07310607 0.055073656 0.027068026 0.079028554
000130 c8 d0 37 3c a0 43 af bc 26 a1 5b 3d 96 d0 0c bd
       0.011219211 -0.02139455 0.05362048 -0.03437861
000140 40 93 9f 3a 54 bf a1 3d f0 0f 9b 3d a3 70 80 bd
       0.0012174621 0.07897821 0.07571399 -0.06271484
000150 d0 c2 e8 3a f5 96 8d bd 42 7d cf 3c 66 e9 7e 3d
       0.0017758254 -0.069135584 0.025328282 0.062234305
000160 c4 59 ee 3c 48 09 ae bd 80 64 39 39 62 a0 83 bd
       0.029095538 -0.08497864 0.00017680414 -0.06427075
000170 cb e9 24 3d d1 2d 73 3d 69 ba c3 3c 1f 43 dd 3c
       0.040262025 0.059369866 0.023892598 0.027009545
000180 bd b7 7b bc fa ee 07 bd 94 d8 79 bc 35 8c 06 bd
       -0.015363631 -0.03318689 -0.01524939 -0.032848556
000190 3f d9 82 bd f4 ca b3 3c 6c fb 11 bd 68 4b 5b 3d
       -0.06389093 0.021947362 -0.035640165 0.05353871
0001a0 ea b2 1d 3d d5 0a 73 bd 02 7f 96 3d bf 58 98 3d
       0.038500704 -0.059336502 0.073484436 0.07438802
0001b0 76 37 d5 3b b0 8e 36 3d c1 11 e8 3c b0 3d 01 ba
       0.0065068556 0.04456967 0.028328778 -0.00049301516
0001c0 0d cf 8c 3d f7 f0 47 3d 1f da 56 3d 41 7f 9f bd
       0.06875429 0.048813786 0.05245411 -0.07787944
0001d0 17 3d 94 bd b9 39 2a bd 1d 42 80 3d 13 a5 5c bd
       -0.072382145 -0.041558955 0.0626261 -0.053868365
0001e0 c9 c4 84 bd f2 4d b6 3b 3a d8 91 bb a5 02 c3 3b
       -0.06482846 0.005563491 -0.004450825 0.005951243
0001f0 c7 e9 3f 3d b2 f0 8c 3d 0c 5c 72 bd f2 a1 a3 bd
       0.046853807 0.068818465 -0.059169814 -0.07989873
000200 94 c9 6b bd 07 8b dd 3d 7a 6b 95 3d 25 31 1f bd
       -0.057565287 0.10817533 0.0729589 -0.038865227
000210 5c d5 29 3e cd 88 7a 3d c2 86 3b bd b3 03 39 bd
       0.16585296 0.06116562 -0.045782812 -0.045169543
000220 73 70 5e bd f0 19 ba 3b 00 d9 c0 3c 40 92 66 bc
       -0.05430646 0.0056793615 0.023540974 -0.014072955
000230 50 5e 91 3b 28 3d 02 bd a8 22 5c bd cc 29 95 bd
       0.0044362918 -0.031796604 -0.05374399 -0.07283363
000240 fb 6c dd bc 84 9f fb 3c 8e 53 c1 bd cb d0 2a bd
       -0.027029505 0.030715711 -0.09439765 -0.041703027
000250 d3 19 c8 bc 7b 10 d7 bd aa 1f 1d 3c b6 a0 6b bd
       -0.024426376 -0.1050119 0.009590069 -0.057526313
000260 9c 0a 38 bb b1 0e 76 3d 99 58 34 bc 66 a6 9a 3d
       -0.0028082496 0.060072605 -0.011007451 0.07551269
000270 91 d9 53 bc ef 6a a1 3c 66 d4 9e 3d 89 94 ae 3c
       -0.01293029 0.01970431 0.077553555 0.021311061
000280 d9 96 5b 3c 43 41 ee 3b 11 af 42 bd 54 2d 23 bd
       0.013402664 0.0072709634 -0.047530238 -0.03983815
000290 1c 2a a7 ba 52 6c bb bd 81 36 25 3d 24 60 aa bc
       -0.0012753638 -0.0915152 0.040335182 -0.020797797
0002a0 bf 48 55 bd 0e eb a6 bd df 43 9c bd eb ff 72 bd
       -0.05207133 -0.08150302 -0.07630133 -0.059326094
0002b0 e0 bb 11 3c d0 a7 ea bb d1 20 92 3d ad 46 a8 3d
       0.008894891 -0.007161118 0.071351655 0.08216605
0002c0 00 6f 98 bd bc f9 ce bc 2a b3 4d 3d 52 51 8b bd
       -0.074430466 -0.025265567 0.050219692 -0.0680262
0002d0 b8 ff 5d bd 50 33 06 bd 24 64 a8 3c 90 82 04 bd
       -0.05419895 -0.03276378 0.020555563 -0.032351077
0002e0 0e 14 42 bd bc 2a c2 3c 20 5f f6 bc 30 87 c8 bb
       -0.047382407 0.023702018 -0.030074656 -0.006119631
0002f0 d8 85 18 bd e2 56 50 3d 20 f5 24 3d 98 01 93 bd
       -0.03723702 0.050864108 0.040272832 -0.07178038
000300 54 4c e4 3c 68 5c 2b 3c 7b b3 80 bd 0e bc 27 3d
       0.027868427 0.010459043 -0.06284233 0.040950827
000310 49 38 8c 3d a0 b4 6d bc c3 d6 92 3d a3 81 ea 3c
       0.06846673 -0.014508396 0.07169869 0.028626269
000320 81 c5 5b 3d 78 72 53 3c d4 d2 7f 3d f7 25 94 3d
       0.05365515 0.012905709 0.06245692 0.07233804
000330 dc b4 22 bd 31 ad 03 3e 15 d9 8a 3d 8a 45 37 3d
       -0.039723262 0.12859036 0.06779686 0.044744052
000340 85 9d 51 bd 1d 22 13 bd 7e a7 af bd 54 c0 36 bc
       -0.051175613 -0.035921205 -0.085768685 -0.011154253
000350 c6 42 b1 3c 64 57 6f b8 48 75 95 3d 59 6e 4b bc
       0.021638285 -5.706343e-05 0.0729776 -0.012416446
000360 fc 13 e4 3c 76 b0 53 3d a0 9a 39 3b a2 d5 92 bd
       0.02784156 0.05168196 0.0028320923 -0.071696535
000370 f6 69 17 3d 60 6f 25 3c c6 12 e3 bc 12 c2 87 bd
       0.036966287 0.010097355 -0.027718913 -0.06628813
000380 5f ae 80 bd cf a4 2f 3d 18 4a 17 3d 05 3a 5e 3d
       -0.06283259 0.042881783 0.036935896 0.05425455
000390 24 c4 8f bd 91 a3 27 bd d6 74 c3 bd 59 aa b1 bd
       -0.07019833 -0.040927473 -0.09543769 -0.08675069
0003a0 0b 5d 8e 3d e2 db 95 3d ab 8d cf 3d 28 da d4 3c
       0.0695134 0.0731733 0.10134443 0.025982931
0003b0 bd b4 1a bd ae e5 7f 3d 43 63 c2 bc ce b0 aa bd
       -0.03777002 0.0624749 -0.023728972 -0.08334504
0003c0 a2 fb 2c bd 2d 24 a8 3d b0 a0 6d bd 32 60 44 3d
       -0.042232163 0.08210025 -0.05801457 0.0479433
0003d0 c6 14 87 bb 21 09 84 3d 43 09 3d bb 75 9c 43 3c
       -0.0041223494 0.06447054 -0.0028844632 0.011939158
0003e0 4d 0d 5a 3d 02 e5 7e bd 35 47 90 3c c5 d4 3b 3d
       0.05323534 -0.062230118 0.01761208 0.04585721
0003f0 7c ad fe 3c 7e 21 c2 3c 3c a5 22 bd b3 2d 96 bd
       0.031088583 0.023697611 -0.03970836 -0.07332935

encoder.4.bias f4 [16]
000000 49 91 f1 bc 10 a6 8c 3c e9 68 c8 bc 93 b3 72 ba
       -0.029488223 0.017169029 -0.024464088 -0.0009258326
000010 d6 7f 87 3a 99 65 ac 3d 5b 33 ab bd a6 71 e2 3b
       0.0010337781 0.08417816 -0.08359405 0.0069105206
000020 80 ee b4 bc 67 51 2b bd 03 0e 7d 3d 24 83 03 3d
       -0.022086382 -0.04182568 0.06178094 0.032107487
000030 72 9d da bc 61 19 be 3c 86 87 99 bd 6e 88 98 bd
       -0.026686404 0.023205461 -0.07496552 -0.07447897

encoder.6.weight f4 [32, 16, 3, 3]
000000 fc b1 cb 3c d8 22 6e bc bd 1e d7 3b f6 64 8f bd
       0.024865143 -0.014534675 0.0065649436 -0.07001679
000010 4c c3 38 3a 8b 78 36 bd d9 26 74 3d d4 b9 28 3d
       0.00070481445 -0.044548552 0.05960736 0.041192845
000020 c5 85 6f bc 51 c4 1d 3d a3 0f 01 bd 45 f1 b5 3c
       -0.0146192955 0.0385173 -0.031509053 0.022209773
000030 56 84 26 bd 14 03 2c 3d c3 52 b3 3b ea d3 69 bd
       -0.04065355 0.041995123 0.0054725125 -0.057086863
000040 54 5f 50 3d 13 c8 8e bd ee 03 8d 3c 7e d3 9a bb
       0.050872162 -0.06971755 0.017213788 -0.004724919
000050 1d e6 5c 3d 27 4a 2c 3d 40 df b4 3c dd dc 49 bb
       0.05393039 0.042062905 0.02207911 -0.003080181
000060 c3 fe 97 3d ad 75 e7 3d e8 9f 19 bd be eb 7b 3d
       0.07421639 0.11301742 -0.037506014 0.06150412
000070 06 6e ff bc 44 ee 00 bd 47 6d 61 bd 71 4a 4f 3d
       -0.031180393 -0.031477228 -0.055035856 0.050608102
000080 1c 4b cb bd eb d7 52 bb ed 8c 5f bd b9 2a 8f 3d
       -0.09926435 -0.0032172154 -0.054577757 0.069905706
000090 aa cd 20 3d 4d c5 8d bd 01 ab 51 bd 63 d5 7c bc
       0.039258637 -0.06922398 -0.051188473 -0.015431735
0000a0 bf 20 8a bd 30 42 90 3d f8 44 fc 3c 98 2d 14 bd
       -0.06744527 0.07043874 0.030794606 -0.036176294
0000b0 c7 06 7d 3c c1 c4 91 bd 41 d8 c3 bd 3d b3 ab bd
       0.01544351 -0.07117606 -0.095627315 -0.08383796
0000c0 98 f7 2e 3d 89 98 55 3d 09 8c 8f bd dd cc 9c 3d
       0.042716593 0.052147422 -0.070091315 0.07656262
0000d0 fd cc 43 3d 0b a9 82 bd f6 40 4e 3d f1 8c 83 bd
       0.047802914 -0.06379899 0.05035492 -0.06423367
0000e0 8e 5e 22 3d 59 07 85 bc 58 60 fb 3c 38 70 9e 3d
       0.039640956 -0.016238855 0.030685589 0.07736248
0000f0 da f7 85 3c 23 10 5f bd 84 58 29 bc 06 16 64 3d
       0.016353536 -0.05445875 -0.010336045 0.055685066
000100 6d ee f7 3c c2 9a dc bb f4 1a b9 3c 1d 3e d9 3b
       0.030265057 -0.0067323158 0.02259586 0.006629719
000110 b2 0b 05 3d d6 36 55 bd 4c 7f 23 3c 5b 6e 1b 3c
       0.032481857 -0.05205425 0.00997908 0.00948676
000120 61 e3 6d bc 14 b1 ec bb 8a 8b 80 bd 9c 15 d8 bb
       -0.014519543 -0.007223258 -0.06276615 -0.006594373
000130 a1 2a e8 3c c0 f6 b4 3c bc e4 a2 3d 5f eb 5b bd
       0.02834064 0.022090316 0.07953784 -0.053691264
000140 18 74 59 3c b2 ed 98 bd 16 95 e9 bc 04 fc f9 3c
       0.013272308 -0.07467212 -0.028513473 0.030515678
000150 f0 58 62 bd 26 90 64 bd 0a 46 4f 3d bd 33 93 bd
       -0.0552606 -0.055801533 0.050603904 -0.07187603
000160 fe 35 8c bd 50 7c fc 3c f2 08 59 3c 85 db 5d bd
       -0.06846236 0.030820996 0.013246762 -0.05416443
000170 72 c6 a9 bc ad 90 77 3c a6 db d8 bc 3f d1 48 3d
       -0.020724509 0.015110177 -0.026471924 0.049027678
000180 64 ec fb bc 69 2b c7 3d 6f 21 8e bd a4 9c 08 3d
       -0.030752368 0.09725077 -0.06939971 0.03335251
000190 9f 1a 2a 3d 0a cf 6e bb 33 46 9c 3d 2f 6d 18 3d
       0.041529294 -0.0036439323 0.07630577 0.0372135
0001a0 6e b6 91 bd 53 95 3a 3d 55 dd 95 bd ae 62 0e bd
       -0.07114874 0.045552563 -0.07317606 -0.034762077
0001b0 cb 56 1e 3d cb 69 46 bd ee ed 43 3d 10 3e f3 ba
       0.03865699 -0.048440736 0.04783433 -0.0018557925
0001c0 82 3e 38 3d f4 87 83 3c 73 83 67 bd 3f a6 de 3c
       0.044981487 0.016056038 -0.056521844 0.027178882
0001d0 49 72 15 bd 5b 3f 8f bd 64 43 4e bd 8b 7c cc bc
       -0.036485944 -0.06994506 -0.050357237 -0.02496173
0001e0 30 f6 8c 3c ee f5 a2 3d 30 df 7f bd 6b b6 d7 3d
       0.017207235 0.079570636 -0.062468708 0.1053284
0001f0 29 a9 7e 3d 9f 27 90 bd 8c 83 6c bd 35 93 cc 3c
       0.062173042 -0.07038807 -0.05774264 0.024972538
000200 b2 3e 45 3d 66 80 4c 3b ec 30 20 bd 31 a0 8d 3d
       0.048155494 0.003120446 -0.039109156 0.0691532
000210 42 e9 79 3d c9 c4 67 3c 37 62 82 bc 75 8f 46 3d
       0.061013468 0.014146038 -0.015915973 0.048476655
000220 10 42 1d 3d 36 f0 d6 bc 5c 47 ac 3c 3e 28 ab bc
       0.03839308 -0.026237588 0.02103012 -0.020893212
000230 4c 5a ac 3c a9 9d f0 bc 12 11 29 bd 12 79 a5 bd
       0.02103915 -0.029372053 -0.041276045 -0.08079733
000240 08 d0 4d bc 1d bf 88 bb 73 fc c9 bd 98 41 b5 3c
       -0.012561806 -0.004173173 -0.09862604 0.022126004
000250 1d 7e 0b 3d bf 0f af bc 4f 44 1e 3d 73 87 59 bd
       0.034055818 -0.021369813 0.038639363 -0.05310769
000260 40 6d 38 3d d9 d8 16 3c ff 0f 81 bd d8 3b 89 bd
       0.045026064 0.009206974 -0.06301879 -0.067008674
000270 3e a5 91 bd af 1d 32 bc f7 5a 91 3d ad 9e 2f 3d
       -0.071115956 -0.010871335 0.07097428 0.042875934
000280 31 be 62 3c e3 a8 a9 bc 4b ba ec 3c b1 af 73 bc
       0.0138392905 -0.020710414 0.028897425 -0.014873431
000290 71 cb 21 bc 79 e8 84 bb 83 c1 b8 bd 6b 35 83 bd
       -0.009875164 -0.004056033 -0.090212844 -0.06406673
0002a0 5e 3b 2c bd e8 e6 21 bd b6 71 b0 bd 67 87 4e 3d
       -0.042048804 -0.03952685 -0.08615439 0.0504221
0002b0 5d eb 68 3d ae d7 86 3d e7 a7 40 3d b7 aa 03 bd
       0.056865085 0.065841064 0.047035124 -0.03214523
0002c0 64 64 0a 3d f8 5e 11 bc ba cd 7a 3c af 04 84 bc
       0.033787146 -0.00887274 0.015307838 -0.016115515
0002d0 64 3a 45 3b ef 5d 36 3c 75 4f 02 be 25 44 b7 bd
       0.0030094618 0.011130794 -0.12725623 -0.089485444
0002e0 cc 40 fd bd 28 e7 9f bb 31 0b 10 bd 4c 86 b0 3c
       -0.12365875 -0.004879851 -0.035166923 0.021548413
0002f0 e7 e7 d0 bd e8 ef 8f 3d 5e be b9 3c 5a 95 b2 bc
       -0.10200482 0.0702818 0.022673782 -0.021799732
000300 6a 40 90 3b 20 22 3d 3b b0 bd b2 bd e5 e8 37 3c
       0.00440221 0.0028859451 -0.08727586 0.01122496
000310 e8 7f 90 bd 9e 0b 28 3d 88 df 9b 3b 51 e7 82 bd
       -0.07055646 0.041026704 0.0047568716 -0.06391776
000320 3a cc 54 ba 98 39 c3 3c cf 49 05 3d 48 c4 a2 bd
       -0.00081175903 0.023831174 0.032541092 -0.07947594
000330 c1 ff 1d 3d 3b 26 4d 3b 7b f1 01 bc ff 3b 30 3d
       0.038573984 0.0031303305 -0.007931109 0.043025967
000340 de d7 29 3d 6b 2f 23 bd 9d f0 c9 bd 63 c3 23 bb
       0.041465633 -0.039840143 -0.098603465 -0.0024988286
000350 01 74 af bc 15 e6 be bd 5c 44 88 3d 4e 38 b1 bd
       -0.02141762 -0.093212284 0.066536635 -0.086533174
000360 24 20 a3 3d e9 7c a7 3d b9 f4 8e bd 11 58 64 3d
       0.07965115 0.081781216 -0.06980271 0.05574805
000370 d5 bb 09 bd fb 75 20 3d a9 28 0e 3d 50 89 94 bc
       -0.033626396 0.039175015 0.034706745 -0.018131882
000380 86 c8 87 3d 9c 82 0f bb 11 a1 98 3d 05 22 6f 3d
       0.06630044 -0.0021897918 0.07452596 0.058382053
000390 4a 7c a3 3b e6 97 30 3d 74 5c 5c 3c 22 59 7c bd
       0.0049891816 0.04311361 0.013449777 -0.06160844
0003a0 04 59 7e bd 8e ec 54 bd d4 99 38 3d 16 8d 63 3d
       -0.06209661 -0.05198341 0.045068577 0.055554472
0003b0 f6 94 b2 bd 19 ca f9 bc 18 79 03 bd 0e ef ac bd
       -0.08719818 -0.030491875 -0.032097906 -0.084440336
0003c0 90 da 73 3d 94 35 ad 3c f0 73 b0 bd a2 ee 46 bc
       0.05953461 0.021143712 -0.08615863 -0.012141855
0003d0 a7 47 1d 3d 5a 8c cb 3d ae 42 d2 3d 60 69 a7 3d
       0.03839841 0.09938879 0.102666244 0.081743956
0003e0 65 a1 42 bd ca c3 c5 3d 1c 38 d7 bb 3d 3e 78 3d
       -0.0475172 0.096564844 -0.006567968 0.06060623
0003f0 f7 f3 8a 3c bb d5 76 bd 08 90 32 3c f9 75 84 bd
       0.016962035 -0.060262423 0.010898598 -0.06467814

encoder.6.bias f4 [32]
000000 76 e9 57 bd 09 0c 65 3d fb b3 92 3d a2 54 02 bd
       -0.05271288 0.05591968 0.07163235 -0.031818993
000010 1c be 3e bd 8d 6f d4 3c 93 08 03 3b 2b 04 6e 3d
       -0.04656802 0.025932098 0.0019994124 0.058109444
000020 64 2a c9 3d 69 e2 b8 bd 49 c2 13 3d 24 86 2d bd
       0.098225385 -0.09027559 0.036073957 -0.042364255
000030 80 79 ab 3d 15 1e bf 3d d8 2c c2 3c e2 0e 46 bd
       0.08372784 0.093319096 0.023703024 -0.048354037
000040 17 ea 70 3d 4b f6 97 bd e9 7e cb 3c 21 ce d4 bc
       0.058816995 -0.074200235 0.024840789 -0.025977196
000050 06 ac 85 3d e4 b7 0d 3d 46 3b 04 bd 94 f8 53 3d
       0.065269515 0.0345992 -0.03228309 0.051750734
000060 91 8d a4 bd e1 99 7e bd 41 9d 49 3b ea f5 c2 3d
       -0.08034814 -0.06215847 0.0030763897 0.09519561
000070 df 4b 50 bd e2 02 a4 bc 16 47 60 3d ad ed 39 bd
       -0.050853606 -0.020020906 0.054755293 -0.04539268

encoder.8.weight f4 [32, 32, 3, 3]
000000 ff cb 3f 3d 85 ca 09 bd 34 71 38 bc 5b 0a 53 3d
       0.046825405 -0.033640403 -0.0112574585 0.051523548
000010 6d 28 19 3d 92 0e da 3c 44 d0 06 bc a5 ad 46 bd
       0.03739207 0.026618276 -0.008228365 -0.048505444
000020 74 f2 6b 3c a5 65 86 bd 62 12 75 bd 3d a3 75 bd
       0.014401067 -0.06562356 -0.059831984 -0.05997013
000030 bc cc d7 bc d8 80 dd bc 49 b6 52 bd a6 c6 84 3b
       -0.026342742 -0.027038977 -0.051443372 0.004052001
000040 80 1d c2 b8 8d 12 2e 3d 01 98 a6 3c aa ff 95 bc
       -9.256136e-05 0.04249816 0.020336153 -0.018310387
000050 63 e6 0a bc 3f b5 f5 3b f2 4d 18 3d 87 47 0f 3d
       -0.00847778 0.007498413 0.03718371 0.034980323
000060 58 24 fd ba 63 fe 82 bd 60 dd cb 3c c1 ec f1 bc
       -0.00193132 -0.06396177 0.024885833 -0.029531838
000070 80 30 58 bd 4c 81 68 bd 88 4a 97 3c 0f bb 4f 3d
       -0.05278063 -0.056763932 0.018468156 0.050715502
000080 04 e3 dc 3b b5 67 5d 3d bc 3e a8 bc 24 d8 9c 3c
       0.0067409296 0.05405398 -0.020537727 0.019146033
000090 31 e8 2e bd a1 28 6e bd 73 00 39 3d 2f 5f 89 3b
       -0.042701904 -0.058144215 0.045166444 0.004192255
0000a0 7c 37 58 bd 96 14 72 bd 86 06 bc bc db 2b ee bb
       -0.05278729 -0.059101664 -0.02295233 -0.0072684116
0000b0 7b c3 3b 3c 0c 29 16 3d 78 e4 3d 3d 4c fb 10 3d
       0.01146018 0.03666024 0.046360463 0.035395905
0000c0 8d 76 2a bd 65 ec 18 3d a4 7d 75 3b c2 2a 05 bd
       -0.041616965 0.03733482 0.003745892 -0.03251148
0000d0 d7 5e ca bc ae 4a 85 bd e9 fb 3e bc 5a ca 09 3d
       -0.024703426 -0.06508385 -0.01165674 0.033640243
0000e0 8e 22 6a bc 42 30 5c bc 2b a1 5f bd 82 3f ce bc
       -0.014290465 -0.01343924 -0.05459706 -0.025176767
0000f0 2d 9d 02 bd d4 50 2d bc 6d be ea 3c 94 7f 7d bd
       -0.031888176 -0.010578353 0.028655255 -0.061889246
000100 81 17 51 bd b5 7e 43 3c a1 df 00 bd 69 96 d3 3c
       -0.051047806 0.011932065 -0.03146327 0.025828557
000110 bb ba b4 bc c0 b9 75 bc 49 13 91 bc 92 fb f6 bc
       -0.022061696 -0.0149978995 -0.017709391 -0.030149255
000120 e5 00 37 3d 52 61 02 bd 01 e0 8e 3c f0 73 fe 39
       0.044678587 -0.031831093 0.017440798 0.00048533035
000130 38 fd 3b bd 03 1a 13 3d 26 33 69 bd 7e 93 f7 3b
       -0.045895785 0.03591348 -0.056933545 0.0075554242
000140 22 fd 8c 3c b8 3f 1e bd d0 19 bd bb f8 2d 69 bd
       0.017210547 -0.038634986 -0.0057708994 -0.056928605
000150 5e 30 b7 bc d2 a8 ee 3c 6a b0 ca 3c e5 ae 4d 3d
       -0.02236193 0.029133234 0.024742324 0.05021562
000160 32 0a 05 bd 7e 5b 3d bd 8d cd 3d 3d 47 fa 0a 3d
       -0.032480426 -0.046229832 0.046338607 0.03393009
000170 b7 2f a3 bc ff 07 28 bd c8 ea 43 b9 f5 e3 8a bc
       -0.019920213 -0.04102325 -0.00018684112 -0.016954402
000180 44 28 ff 3c 4f 85 37 bd 24 33 89 bd e2 86 f3 3c
       0.03114713 -0.044804867 -0.066992074 0.029727403
000190 48 68 e1 ba 1a f0 2d 3c ef 14 f9 3c 32 e8 8e bb
       -0.0017197216 0.010616327 0.03040549 -0.004361176
0001a0 51 ed ad 3c 2e 3b 78 bc 70 bb 49 bd 48 2e 83 3a
       0.021231325 -0.015150828 -0.04925102 0.00100083
0001b0 4b 40 d0 3c 1a 38 5b 3c 2c 08 de 3c 3a 85 22 bd
       0.025421282 0.013380075 0.027103506 -0.039677836
0001c0 ab 78 88 bb 1a 04 50 bd bd 40 81 3c 0e d9 81 bc
       -0.0041647754 -0.05078516 0.01577794 -0.01585057
0001d0 b2 29 79 bd ac 47 6b bd df ac d0 3c 9d 81 86 3c
       -0.06083078 -0.0574414 0.025473056 0.016419226
0001e0 44 7d ca bc ba f4 f7 bc db 7b 27 bd 6f 74 56 bd
       -0.024717934 -0.030268062 -0.040889602 -0.052357133
0001f0 8d 2b 27 bd 69 a6 46 bd 8a 81 45 3c 81 e8 56 3c
       -0.040813018 -0.048498545 0.01205481 0.013116957
000200 78 2e f2 3c 99 61 12 bd 31 2d fa bc ea f0 a4 3b
       0.029563174 -0.035737608 -0.030539127 0.005033602
000210 46 9e 8f 3c e6 8d 20 bd 39 d7 18 bd 00 c8 42 3d
       0.017531525 -0.039197825 -0.037314627 0.047554016
000220 56 0d ff bb 5f dc 55 bd d6 15 6c bc fb 07 2d bd
       -0.007783572 -0.052212115 -0.014409503 -0.04224394
000230 ab 0d 5c bd 59 64 1c bc 7b 47 54 bd 67 96 2e 3d
       -0.053723972 -0.009545409 -0.05182598 0.042623904
000240 92 af 7c bc fc 2e 49 3d 0c 28 81 bd 22 41 bd bb
       -0.015422719 0.049117073 -0.063064665 -0.0057755867
000250 c3 d7 78 3c 2d 8a 59 bb e8 77 56 bd f4 81 83 bd
       0.01518816 -0.0033193931 -0.052360445 -0.06421271
000260 fe 53 6a bc 6d d1 11 bd 54 a3 fe 3c 03 c4 98 3c
       -0.014302252 -0.035600115 0.03108374 0.018648153
000270 5e e8 dc 3c 53 c2 fa bc 88 cf e8 3c 3f 72 43 bd
       0.02696627 -0.03061024 0.028419271 -0.047716375
000280 1a 1f 85 bb 5d c9 b0 3c 4b 0e 74 bd 90 3f 00 bd
       -0.0040625455 0.021580392 -0.059583943 -0.031310618
000290 16 92 f5 3c 70 f4 77 bd 2e 0c 21 bc 4c ee 1f 3c
       0.029976886 -0.06053585 -0.009829564 0.009761404
0002a0 6c 96 6c bb 10 d5 c3 bc ed da 6f 3c e2 c6 d7 3c
       -0.00361004 -0.023905307 0.014639598 0.026339952
0002b0 13 c7 62 bd e8 f4 10 bd ae 36 90 bc d7 41 33 3d
       -0.055365633 -0.03538981 -0.017604198 0.04376396
0002c0 81 9d 34 3d 37 b1 6d 3d 06 f9 1f bd 0e 80 25 bd
       0.04409552 0.058030333 -0.039055847 -0.040405326
0002d0 00 41 80 bd 98 fd f9 39 24 0f e2 3c c3 46 17 3d
       -0.06262398 0.00047681923 0.02759511 0.036932718
0002e0 b1 ee 85 bd 90 6d 4f 3c 32 ed 51 bc d3 e2 59 bd
       -0.065396674 0.012660399 -0.012812899 -0.053194832
0002f0 d5 ba f3 3c d8 38 af 3c 7d e5 c8 bc 98 9f bb bc
       0.029752174 0.02138941 -0.024523491 -0.022903249
000300 db 1e 2b bd d4 7a 70 bd 8f 96 96 3b 28 14 a5 bc
       -0.041777473 -0.058710888 0.0045955847 -0.020151213
000310 9e 20 eb 3b 8c 87 26 3d b0 41 6e 3b fc bc 09 bd
       0.007175519 0.04065661 0.003635507 -0.033627495
000320 c7 b0 1e 3d 7a 75 80 bc f0 d1 5c bd 82 00 fd 3c
       0.038742807 -0.015681017 -0.05391115 0.030884031
000330 41 8f 3b 3d ba 50 c9 bb 8d c6 2e bd 42 19 b6 3b
       0.045790914 -0.0061436566 -0.04266982 0.00555721
000340 2f 62 a5 bb 75 cd 0c bd c0 7e 58 3c d5 db d9 3c
       -0.005047105 -0.034375627 0.013213813 0.026594082
000350 70 5c 82 bd 3c 8b ce 3c 0a 30 80 3b 68 ee d5 bc
       -0.06365287 0.025212876 0.0039119767 -0.026114658
000360 9c 2e 9f bc 24 e2 d1 bc 77 58 2c bd 64 2b 11 bd
       -0.019431405 -0.025620528 -0.042076554 -0.03544177
000370 cc 0c cd bc d2 43 0b bd 33 6d 6f 3d 9e c6 e2 bc
       -0.025030516 -0.034000225 0.05845375 -0.027682599
000380 82 ac e5 3c d6 88 21 bd ae 5e 28 3c 86 66 8e 3b
       0.02803636 -0.039437138 0.01027648 0.004345718
000390 b9 28 0e 3d 46 0a 9e 3c e5 9a 57 3d a7 bd 0e 3d
       0.034706805 0.019292008 0.052637953 0.034848835
0003a0 e1 f1 e6 3c 59 ab 01 3d e1 74 89 bc f1 d1 ee bc
       0.028191509 0.03165755 -0.016779365 -0.029152842
0003b0 53 4e 53 3d cf 01 19 bd 98 20 df bc 0a 7a 2e bd
       0.051588368 -0.03735524 -0.027237222 -0.042596854
0003c0 c6 16 f2 bc a0 56 17 3b 88 b3 84 3b fe 4d 2a bc
       -0.029551875 0.0023092404 0.004049722 -0.010394571
0003d0 44 60 0d bd 35 c8 e0 bc e8 5f 5a bd c6 57 8e 3b
       -0.034515634 -0.027439216 -0.05331412 0.0043439595
0003e0 f6 ad 9a 3c 7c c9 26 bb 08 1d 54 bd b2 78 28 bd
       0.01888178 -0.0025449684 -0.0517855 -0.04113073
0003f0 66 c5 f3 3c 50 6e 1c bc dc c3 58 bc ee 0b 3f bd
       0.029757213 -0.009547785 -0.01323029 -0.046642236

encoder.8.bias f4 [32]
000000 84 2d ac 3a 58 6e 0d bd e5 d7 06 3d ba 8b 4c 3d
       0.0013136123 -0.03452906 0.032920737 0.04993794
000010 ea 04 02 bd a4 12 6b bd 5c 34 26 bd 66 fa 36 bd
       -0.031742968 -0.057390824 -0.040577278 -0.044672392
000020 05 e6 0a 3b 93 33 98 bc 9c 90 8a bc a6 bf 35 3d
       0.0021194231 -0.01857928 -0.016914658 0.044372223
000030 91 be 29 bd cb 87 5a bd e0 b1 d8 bc 70 de 27 bd
       -0.041441504 -0.05335216 -0.026452005 -0.040983617
000040 52 08 eb 3c 4c 73 17 bd 5b 59 23 3d 96 8a 2d bd
       0.02869049 -0.03697519 0.039880138 -0.042368494
000050 79 ce 48 bd 96 3f 86 3c 6b 2b 2c bd 01 d9 b1 3b
       -0.049025033 0.016387742 -0.042033594 0.00542748
000060 42 81 2c bc 6e 85 69 bb 4e 00 be 3c d9 cc 1c 3d
       -0.010528864 -0.0035632509 0.023193505 0.038281295
000070 d1 2e 01 3d 09 48 66 3c ec e8 94 3c 69 8a 05 3c
       0.03153879 0.01405526 0.018177472 0.008150675

decoder.1.weight f4 [32, 32, 3, 3]
000000 bf b4 48 bc 97 75 a8 bc 6a 4c bc bc c8 91 27 3c
       -0.0122501245 -0.020563884 -0.022985656 0.010227628
000010 e8 7e a1 3c e6 7e aa 3c 75 3c 39 bc f8 38 bd 3c
       0.019713834 0.020812463 -0.011305918 0.023098454
000020 d6 2c 05 3d aa 99 8d 3c c9 c4 21 bd 8e 23 c6 3c
       0.032513462 0.017285187 -0.03949431 0.024186876
000030 09 19 42 3d ee 86 49 bd b8 ae 2a bd b5 1d 43 bd
       0.047387157 -0.049200945 -0.04167053 -0.047635753
000040 95 eb 41 bd f8 ab 3c bd a1 a8 d1 3c 35 59 26 3d
       -0.04734381 -0.04606244 0.025593104 0.04061242
000050 46 e6 41 3d b9 6f fa 3c 17 09 8d bc fd 68 40 bd
       0.047338746 0.030570852 -0.017216248 -0.046975125
000060 e3 d5 21 3d 4f 1b 2a bd d3 11 e9 3b 64 b7 84 3c
       0.03951062 -0.04152995 0.0071127205 0.016200729
000070 04 82 4a bc 9e 1f 12 3d 51 61 01 bd 72 ba b4 3c
       -0.0123601 0.035674684 -0.03158695 0.02206156
000080 2f 75 3f ba 92 fd 5d 3c 58 7b 7e bd 7f 92 13 ba
       -0.00073035335 0.013549225 -0.06212935 -0.00056294346
000090 9e c9 6e 3d da 33 7f bc b5 9c ad 3c d7 a4 47 3d
       0.058297746 -0.015576327 0.021192888 0.048741188
0000a0 54 ca 0d 3d a1 66 39 3d a3 7b 2d bd 8d e0 66 bd
       0.034616783 0.04526389 -0.042354237 -0.056366492
0000b0 d1 15 48 bc 98 4e 74 bc df 19 2c bd 6e 4c a1 3c
       -0.012212233 -0.014911316 -0.04201686 0.019689765
0000c0 92 13 f3 3c 62 f1 ba bc 16 c8 ed 3c 26 96 18 bd
       0.029672418 -0.022820178 0.029026072 -0.037252568
0000d0 af 0e 52 3d b9 89 4c bd 2c dd 44 bd e6 64 48 3b
       0.051283535 -0.04993603 -0.04806249 0.0030577718
0000e0 5f 0b a1 3c 5d 00 04 3c c3 cc 24 3c ac 55 b2 bc
       0.019658742 0.008056727 0.010058585 -0.021769367
0000f0 1b 05 01 bd ee 23 ec 3c 99 fd 4c 3d 96 3c a9 3c
       -0.03149901 0.028825726 0.050046537 0.020658772
000100 e8 0b ad 3b 58 c7 a3 3b 84 c5 26 3c ec c5 08 bd
       0.0052809604 0.004998129 0.010178927 -0.033391878
000110 00 29 9d 3a 58 31 3d bd 05 f8 52 bd b1 32 0a 3d
       0.0011990368 -0.046189636 -0.05150606 0.03373975
000120 f2 e7 15 bd ed 1e e6 3b e2 d9 34 bd 2c 8b 14 3d
       -0.036598153 0.0070227296 -0.0441531 0.036265537
000130 f3 b8 29 bd 02 83 5f bc 38 3e 26 bd 75 45 61 bd
       -0.041436147 -0.013642075 -0.04058668 -0.05499788
000140 32 82 0b 3d be b5 db 3c 43 0d 22 bd 38 c8 cd 3b
       0.03405971 0.02682006 -0.03956343 0.0062799715
000150 9b 57 71 3d fc 1e f6 bc 4c 09 2a bd 10 e9 64 bd
       0.058921438 -0.030044071 -0.041512772 -0.05588633
000160 29 e2 6b bd 5d 19 59 bd 47 06 28 bd 40 9b 22 bd
       -0.05758873 -0.053002704 -0.04102161 -0.03969884
000170 5f f9 96 3c 6d ee df 3c 0f 0e ef 3c 63 81 d0 39
       0.018429456 0.02733537 0.029181508 0.00039769252
000180 0d d9 66 bc d1 0e 80 3a 44 ad 85 bd 52 8e 30 3d
       -0.014089835 0.0009770041 -0.065271884 0.043104477
000190 6b 21 76 bd a8 97 d6 3c c8 de 6a 3b 6f 29 6e bd
       -0.060090464 0.026195362 0.0035838354 -0.058144983
0001a0 d0 c0 ce 3c 2c 74 36 3d fd 30 80 3c f2 78 ec bc
       0.025238425 0.044544384 0.01564836 -0.028866265
0001b0 c6 64 f2 bc 40 d0 81 bc 76 d7 35 bc 48 6c 22 bd
       -0.029589068 -0.015846372 -0.011098733 -0.039654046
0001c0 df 41 76 3b b6 6f 85 3c 8c c9 23 3d cf 97 8b 3c
       0.0037575883 0.01628862 0.039987132 0.017040161
0001d0 b3 32 4c 3c 1a 74 45 3d cd af 9a 3c 7c 5d 82 bd
       0.0124632595 0.048206426 0.018882656 -0.06365487
0001e0 01 a8 89 bd b1 cc 00 3d 3a aa 66 bc d6 df dc 3c
       -0.06721497 0.03144521 -0.014078671 0.026962202
0001f0 a0 f8 21 ba 58 51 4f bd cd f9 d8 bc 79 c0 2b 3d
       -0.00061787106 -0.050614685 -0.026486302 0.041931603
000200 9c b1 27 3d d0 9c 4f bc ad 8e 2c 3d 80 78 b1 bc
       0.040940866 -0.012671664 0.042128254 -0.021663904
000210 ff 72 1b 3d 49 a5 13 3c 79 92 c2 bc 44 42 37 3c
       0.037951466 0.009011575 -0.023751484 0.011185233
000220 1e ee a8 3c f2 38 ab bc 01 eb 04 3d 5f cd f3 bc
       0.020621356 -0.020901177 0.03245068 -0.029761015
000230 68 9f df 3b c0 17 3a bd 97 0c f8 bc ce 07 91 bc
       0.0068244226 -0.045432806 -0.03027944 -0.017703917
000240 81 da 21 bd 5c de 45 bd a6 ae 07 3d 79 5d f8 3c
       -0.039515022 -0.04830776 0.033125542 0.030318009
000250 d0 79 52 bd 92 a8 94 3c 91 9b 43 3d d2 45 39 bd
       -0.0513857 0.018146787 0.04775578 -0.0452326
000260 b9 fc 45 bd 76 81 8d bc 7c f4 78 bc 34 18 2d bd
       -0.04833672 -0.017273646 -0.015195008 -0.04225941
000270 de d3 95 3c 78 97 af 3b 4a 09 8e 3c 56 cf b8 3c
       0.018289503 0.0053586327 0.017338414 0.022559803
000280 15 40 4e bd 9e 62 d2 3c b1 6e cc bc 18 64 b9 bb
       -0.050354082 0.02568179 -0.024955126 -0.005657684
000290 73 bb 74 bb 75 2b 63 bd 42 9c 15 3d f8 60 1d 3d
       -0.0037343174 -0.055461366 0.036525972 0.038422555
0002a0 8a 23 e4 3c 03 ee 1d bd 84 28 ec bc 44 d0 a1 bc
       0.027848978 -0.038557064 -0.028827913 -0.01975263
0002b0 36 43 88 bd ed 98 2b 3d c5 83 27 3d 9b 5a 25 3d
       -0.066534445 0.04189389 0.04089715 0.04036961
0002c0 b3 74 10 bc 17 28 e5 bc 8a 06 48 3c 64 92 8f bc
       -0.008816886 -0.027973218 0.01220859 -0.01752586
0002d0 0e ca 31 bd ba 18 d1 3c 56 82 b2 bc c4 0a 9d bc
       -0.043405585 0.025524486 -0.021790665 -0.019170173
0002e0 70 68 85 bb 0e 23 b9 bc b8 05 f0 3b 20 78 46 bb
       -0.004071288 -0.022599723 0.0073249005 -0.0030284002
0002f0 9c 4b 62 bd 8c ec 66 bc 41 89 62 bd 1a 94 91 3c
       -0.055247888 -0.014094483 -0.055306677 0.017770816
000300 db ff 9c 3c ce 2b 44 bd 06 9d c9 bc 06 dd 44 3d
       0.01916497 -0.047893338 -0.024611007 0.048062347
000310 67 12 8c bd 77 d5 1b 3c 80 30 ea 39 0c ed 57 bd
       -0.068394475 0.009511343 0.00044668093 -0.0527163
000320 e8 b0 82 3b 9a 44 8b 3c 06 b2 6d bd 1f ea 40 bd
       0.003988374 0.017000485 -0.058031105 -0.047098275
000330 c9 65 67 3d d8 8b 91 3b 47 3c 69 3d 19 fd ca bb
       0.056493554 0.0044417195 0.05694225 -0.0061947224
000340 a9 4b ec 3b 31 37 b4 3c 0d bf 41 3d a1 3d d1 bc
       0.007211168 0.021998974 0.04730134 -0.025542082
000350 e5 d8 07 3d fd dd c6 bc c4 a3 dd bc ba 72 2e 3c
       0.03316583 -0.024275774 -0.027055629 0.01064747
000360 34 26 60 bd 8c 0c b6 3b 65 12 8a bd 3a 73 39 3d
       -0.054723933 0.005555695 -0.0674179 0.045275904
000370 ae 43 d3 bc f5 9b 3a bd 28 04 3d bd 22 3d 3d bd
       -0.025789108 -0.04555889 -0.04614654 -0.04620088
000380 87 54 1a bc b4 79 ce bb 8e db 1d 3d 72 cf 99 bc
       -0.009419567 -0.0063011292 0.03853946 -0.018775675
000390 9a 4d 85 bc 01 1c 0b 3d 0a c1 f7 3c 3c c1 85 3c
       -0.016272355 0.033962253 0.030243415 0.016327493
0003a0 0e a2 d2 bb 6b 02 d4 bc cc 3f 9f 3b ea 64 3b bd
       -0.00642801 -0.02588006 0.0048599 -0.045750536
0003b0 b2 43 39 bd bc a1 cd bc a7 35 54 bd 2b 62 0f bd
       -0.045230575 -0.025101535 -0.05180898 -0.03500573
0003c0 88 7f e0 bb d5 79 77 bc 60 16 76 bc af a2 0b 3a
       -0.0068511404 -0.015104731 -0.015019983 0.0005326671
0003d0 f3 6e 7e bd 38 76 ae 3b 59 c5 10 3d 73 cf 39 3d
       -0.06211753 0.0053241514 0.035344455 0.045363855
0003e0 a9 c7 5c bd b6 de 1d 3d ab 2f bc bc a3 43 59 bd
       -0.05390135 0.03854247 -0.022971949 -0.05304302
0003f0 0d 62 cb bb 31 36 be 3c e4 db 3c bd 5d 43 0f bd
       -0.006206757 0.0232192 -0.04610814 -0.034976352

decoder.1.bias f4 [32]
000000 73 c2 d6 bb 47 5a 21 3d 7f 23 06 3c a0 25 f4 3a
       -0.006553942 0.039392736 0.008187174 0.0018626936
000010 a3 b5 7d bc 50 93 26 bd 7b c8 55 3d 72 dd 3b bc
       -0.0154852 -0.040667832 0.052193146 -0.011466371
000020 1c 79 45 bd 6d 31 58 3c a8 80 60 bc e4 9d 7a 3d
       -0.048211202 0.013195378 -0.013702549 0.061185732
000030 3e a4 1d bd ea a9 eb 3c 88 85 e0 bc bf cc 51 3d
       -0.03848671 0.028767545 -0.027407423 0.05122065
000040 b4 c3 0b bd 70 7d 36 3d c3 85 85 bc 8e 9f 9d 3c
       -0.034122184 0.04455322 -0.016299134 0.01924112
000050 24 38 a7 3b 4a 49 34 3c 64 3a 23 3d 80 d0 0d bd
       0.005103128 0.011003802 0.039850608 -0.03462267
000060 5a c6 62 bd 8c 19 42 3d f2 94 29 3d 6a 01 17 bd
       -0.055364944 0.047387645 0.04140181 -0.036866583
000070 db 83 51 bd 5d 5b 8c bc 84 9b d6 bc 8a ac 95 3b
       -0.051151138 -0.01713341 -0.026197203 0.0045676874

decoder.4.weight f4 [16, 32, 3, 3]
000000 84 66 7c 3c a1 95 86 3d 89 e2 02 bd a5 e1 39 3d
       0.015405301 0.06571508 -0.031954322 0.045381207
000010 f0 67 2d 3d 39 0b 70 3c e1 16 74 bc 1e 0c 4b bc
       0.04233545 0.014651113 -0.014898033 -0.012393026
000020 03 6f be 3b ea 61 6c bd 28 14 07 bd 03 de 96 bc
       0.0058115735 -0.057710566 -0.032978207 -0.01841641
000030 30 60 ea bb 2e 40 07 3d 83 3a 62 bd 83 3a 59 3d
       -0.0071525797 0.03302019 -0.055231582 0.053034317
000040 2d 4d e8 bc b5 32 55 3d fd 00 38 bd 36 d7 8c bd
       -0.028357113 0.05205031 -0.044922817 -0.06876986
000050 8e 78 36 3d e8 df 7c bd b0 ed a9 3c c8 19 59 3d
       0.044548564 -0.06173697 0.020743221 0.053003103
000060 48 1e b0 bc 58 0a eb bb 73 75 9f 3d d0 04 9e 3b
       -0.021498814 -0.007172864 0.077860735 0.004822351
000070 24 d2 a4 bd 83 c9 e5 bc f3 ed 06 3d 3d 05 38 3d
       -0.08047894 -0.02805019 0.03294177 0.04492687
000080 9c da bf 3c e9 22 7e 3d 65 24 bf 3c 09 c0 85 3d
       0.02341967 0.06204501 0.023332784 0.065307684
000090 59 90 40 bd 57 64 63 bd f9 67 27 bc e7 4a 01 3c
       -0.04701266 -0.055515613 -0.01021766 0.007891393
0000a0 ff 18 ae 3c 24 44 ac 3b 6c d1 4f bd fb 98 46 bd
       0.021252153 0.0052571464 -0.05073683 -0.048485737
0000b0 b0 69 6a bc a4 25 16 3c 24 8f 18 bd 38 4c 1d bd
       -0.014307424 0.009164248 -0.037245885 -0.038402766
0000c0 94 8c 69 3c dd ea 29 3d 2a 5f e0 3c 0e 17 92 bc
       0.014254708 0.04148375 0.027389128 -0.017833259
0000d0 2e ac b5 3c 60 5d 97 bc 95 6d 0f bc 4a fb 90 3b
       0.022176828 -0.018477142 -0.008754154 0.0044244872
0000e0 c9 63 9d bc 94 35 0f bd 99 9c f8 3c 5a 96 6e 3c
       -0.01921262 -0.034963205 0.03034811 0.014562214
0000f0 4c 2b 7b bc 39 b1 32 3d af ca 2b bd 49 08 04 bd
       -0.015330147 0.043626044 -0.04194134 -0.032234464
000100 44 4b 03 bb bb d7 11 bd 01 02 47 bd b7 df 16 bd
       -0.0020033875 -0.035606127 -0.048585895 -0.036834445
000110 e0 9b 7d bd 0b 64 6d 3d 22 05 1e 3d 0b 38 71 3d
       -0.061916232 0.057956737 0.038579114 0.058891337
000120 6e ec dc 3c 6b e3 42 3d d2 40 f1 3c 1a 15 64 bd
       0.026968207 0.047580164 0.029449854 -0.055684187
000130 de b6 9d bc 27 36 5f bd c3 84 0c bd 0b ad 08 3d
       -0.019252237 -0.054495003 -0.0343063 0.03336815
000140 f3 b2 23 bd 11 31 fc 3c 4f 60 29 bd 52 7a 11 3c
       -0.03996558 0.030785115 -0.041351613 0.008879261
000150 f1 d6 34 3c c1 79 25 3d 6c 24 1f 3c 3d bf 8c bb
       0.011037574 0.040399317 0.0097132735 -0.0042952583
000160 a1 90 74 3d 2e f0 35 3d 94 60 50 bd 1b a8 33 bd
       0.05970824 0.044418506 -0.050873354 -0.04386149
000170 ee 81 3c bb 00 e2 d0 bc 27 46 b6 bd e9 86 7e bd
       -0.0028763968 -0.02549839 -0.08900099 -0.06214038
000180 d2 5c 54 3d a5 e4 b7 bc bf 15 80 bd ec 85 ab bb
       0.051846333 -0.022447893 -0.06254148 -0.0052344706
000190 0d f5 bb bc ca 3a 14 bd 1e be 18 bc ec 16 43 3d
       -0.022943998 -0.036188878 -0.009322671 0.047629282
0001a0 8e e2 b2 3c 67 75 60 3d 46 56 65 bd 25 e7 60 bd
       0.021836545 0.054799464 -0.05599048 -0.054907937
0001b0 3c 86 19 bc 1a b4 ea bc c8 6b 7f bc 94 31 90 bc
       -0.009370383 -0.028650332 -0.015589662 -0.017601766
0001c0 c3 cf 29 3d 2c 4c 04 3c c4 7d 2a bd 5b b6 52 3d
       0.041457903 0.008074801 -0.041623846 0.05144344
0001d0 ac 23 21 3c d6 dc 22 3c 54 c4 4b 3c 83 fb 50 3d
       0.009835165 0.009940347 0.012436945 0.05102111
0001e0 30 87 96 bc e0 2b de 3b 04 7e 17 bd ad 27 da bc
       -0.01837501 0.0067801327 -0.036985412 -0.026630247
0001f0 68 64 01 3d e7 a5 6a bd b6 7b 08 3d 70 0d 59 3a
       0.031589895 -0.057287123 0.033321105 0.00082798954
000200 79 26 18 3c 92 c3 c0 3c d2 98 e8 bc 3c 11 1a 3d
       0.009286516 0.023530755 -0.028393183 0.037614092
000210 76 79 80 3d f1 b7 52 3d c8 93 cd 3b 0e 48 97 3d
       0.06273167 0.05144495 0.0062737204 0.0738679
000220 3b 4e 90 bc 42 e3 a5 3c af b5 22 3d 45 d1 1a 3c
       -0.017615428 0.020249967 0.03972405 0.009449308
000230 a1 a7 00 bd 36 e2 21 bc 07 4a 04 bc ec 93 a3 3c
       -0.031409863 -0.009880593 -0.00807429 0.019967996
000240 f6 81 fd 3c 6f 4f 1f 3d 9e fa 12 bd e2 18 2b bd
       0.03094576 0.038894113 -0.03588354 -0.041771777
000250 e4 a2 4f bd c0 81 ed 3a 04 b1 2d 3c 94 94 40 3c
       -0.050692454 0.0018120334 0.010601286 0.011754174
000260 01 8a 37 3d 59 6b d4 bc 88 27 5f 3d ea b6 bb bb
       0.044809345 -0.025930094 0.05448106 -0.005728592
000270 ba 2b 03 bd 9e 37 99 bc ae 15 60 3d bf fe 74 bd
       -0.032024123 -0.018703278 0.054708175 -0.059813257
000280 3c 38 4c bc 50 bc e8 3b 28 08 e7 3c db e3 be 3b
       -0.012464579 0.0071025267 0.028202131 0.0058255023
000290 49 10 62 bd 03 5f 18 bd 12 67 62 3d 1d d3 04 3d
       -0.055191312 -0.037199985 0.055274077 0.032427896
0002a0 92 b3 3e 3d 8e 00 14 3d 65 5a 35 bd 75 29 0f 3d
       0.04655797 0.03613334 -0.04427566 0.034951646
0002b0 58 0e f8 bc 41 47 32 3d 1e 8d 84 3b 46 ee 04 bd
       -0.030280277 0.043524984 0.004045143 -0.032453798
0002c0 26 9f 6c bc be aa 37 3d d5 15 2a 3d 69 48 e8 bc
       -0.014442241 0.044840567 0.041524727 -0.02835484
0002d0 50 a8 a4 bd a9 0b 06 be 3c 7a f9 bc b5 5b 18 bd
       -0.080399156 -0.13090385 -0.030453794 -0.037196834
0002e0 c6 c0 d1 bd 23 87 19 bd 49 cd 23 bd df 2c 5c bd
       -0.10241847 -0.037482392 -0.039990697 -0.05375373
0002f0 58 96 20 bd 76 71 5e bd 2d a0 40 bd 2e 5f 0e bc
       -0.03920588 -0.054307424 -0.047027756 -0.008689685
000300 76 02 b1 bb 52 46 e1 3b 4b 3a 50 3c cd ad 2c bc
       -0.0054019047 0.006874838 0.012709211 -0.010539484
000310 47 39 14 bd a2 75 dd bb 3f 9b 24 3d a8 c2 84 bc
       -0.036187436 -0.0067584077 0.040187117 -0.0162061
000320 be f1 48 3b b8 82 dc bc d6 3e 81 bd db 62 ed bc
       0.0030661668 -0.0269178 -0.06310813 -0.028977802
000330 15 fe da bc c4 a9 ce 39 54 48 05 3d 40 76 8a bd
       -0.026732484 0.00039417867 0.03253968 -0.06760836
000340 3a 43 1f 3d 48 1a 3a 3d 46 81 33 bc d8 26 78 3b
       0.03888247 0.04543522 -0.010956114 0.003786495
000350 b8 74 02 bd 76 51 91 3b ec 6d b1 3c 5c 78 bb bb
       -0.031849593 0.0044347597 0.02165886 -0.005721135
000360 c6 6b a0 bc 00 69 61 ba c8 9c 9c bb 4e 0b 3b bd
       -0.01958264 -0.0008598715 -0.004779432 -0.045665078
000370 76 8e fc 3c 65 69 0d 3d b4 c3 2a bd d1 08 3c bd
       0.03082965 0.03452434 -0.041690543 -0.045906845
000380 b8 9f 82 3b 6c a4 fc 3c 2b 9a c0 3c 78 fb aa bc
       0.003986325 0.030840121 0.023511013 -0.020871863
000390 ea 19 99 3d bc 5d 85 3d ac f0 0c 3c 0c da f3 bc
       0.07475646 0.06512019 0.0086023025 -0.029767059
0003a0 9e db 96 3d d9 ba 28 3d f9 a1 2e 3d e6 54 41 3d
       0.073661074 0.041193817 0.042634938 0.047200106
0003b0 b2 da 1b 3d 10 23 54 bd 0a 80 30 bd c0 f4 c2 bc
       0.03805036 -0.05179125 -0.043090858 -0.023798347
0003c0 2e c0 3d bd 32 a4 3e bd 41 59 35 bd ad 59 29 bc
       -0.046325855 -0.046543308 -0.044274572 -0.010336322
0003d0 0f 2c 0b bd 7b 4c d3 3c fa ae 36 bd 1f 19 48 bd
       -0.033977564 0.025793305 -0.044600464 -0.048852082
0003e0 00 41 99 bc f1 87 1e 3d aa ba 6c 3c 98 07 48 bd
       -0.018707752 0.038703863 0.014448801 -0.048835367
0003f0 e6 e9 ef 3c 47 ea f0 3b 74 8c 1b 3d 39 4b 3d 3d
       0.029286336 0.007352147 0.037975743 0.046214316

decoder.4.bias f4 [16]
000000 4a 91 94 3c ee 0a 86 3d 49 e7 7a 3c 2a bf de 3c
       0.018135685 0.065450534 0.015313932 0.027190764
000010 b6 7f 21 bd d6 a5 14 3d 81 ee d5 3c 88 b6 5e ba
       -0.039428435 0.036290966 0.026114704 -0.0008495827
000020 54 77 67 bd 31 49 91 3c 86 dc 9e bc 38 73 6c bd
       -0.056510285 0.017735096 -0.019392263 -0.05772707
000030 47 7d 74 3c 3c d5 00 bd 1e 45 30 bd cf f9 26 bd
       0.014922447 -0.031453356 -0.043034665 -0.04076558
