trained_model/colorization_model.pth (torch, 132418 bytes, 16 tensors)

encoder.0.weight f4 [8, 1, 3, 3]
0	0x3e889d05	0.26682296
1	0xbe50bfb9	-0.20385636
2	0x3e9cd14a	0.30628425
3	0x3de28875	0.11061183
4	0xbe7cd15d	-0.24689241
5	0x3e8302c9	0.25588062
6	0xbd9dff8c	-0.07714757
7	0xbe8df419	-0.27725294
8	0xbd26a382	-0.040683277
9	0xbd607ccd	-0.05480652
10	0xbe3f92c6	-0.18708333
11	0xbd5ec52a	-0.05438725
12	0x3dd02c22	0.10164668
13	0x3e24d854	0.16098148
14	0x3e46d4a8	0.1941706
15	0x3e398f91	0.18121172
16	0xbe9866f4	-0.29766047
17	0x3e458fb6	0.19293103
18	0x3e859d34	0.260965
19	0xbe49be8b	-0.19701593
20	0x3e766109	0.24060453
21	0xbdf3d23e	-0.11905335
22	0x3d976370	0.07392013
23	0xbe128ba3	-0.1431108
24	0x3e42b66a	0.19014898
25	0xbe3b8938	-0.18314064
26	0xbeb495aa	-0.35270435
27	0x3e0e866a	0.13918462
28	0x3e8dd883	0.27704248
29	0x3e20cf96	0.15704188
30	0xbe76707c	-0.24066347
31	0x3e6d8f70	0.23199248
32	0x3e7cb12f	0.24676965
33	0x3dd5e7b4	0.104445845
34	0xbe458e65	-0.192926
35	0x3e821458	0.25406146
36	0xbd350d38	-0.04420206
37	0xbea3241f	-0.31863496
38	0xbbed5a22	-0.0072434107
39	0x3e592865	0.21206816
40	0x3dc329ef	0.095294826
41	0x3d3773f6	0.044788323
42	0xbd54d74a	-0.05196313
43	0x3e653f3e	0.22387406
44	0x3e8fb5fb	0.28068528
45	0x3dff1c8b	0.12456616
46	0x3e48412a	0.19556108
47	0xbe3fac72	-0.18718126
48	0xbe2f706e	-0.17132732
49	0x3e45ed05	0.19328697
50	0x3e93ac06	0.2884218
51	0xbe388265	-0.18018492
52	0xbe8e8370	-0.27834654
53	0xbdca67f6	-0.0988311
54	0xbd825e44	-0.06365636
55	0xbc239420	-0.009984046
56	0xbe880d5a	-0.26572686
57	0xbc3a4420	-0.011368781
58	0xbe560686	-0.20900926
59	0xbc898bd0	-0.0167903
60	0x3e9f0df5	0.31065336
61	0xbd64b9a8	-0.055841118
62	0xbe1f2583	-0.15541653
63	0x3d442ae7	0.047892477
64	0xbe1cd365	-0.15315016
65	0x3dd348f9	0.10316653
66	0xbe03851e	-0.12843749
67	0xbe9bf1f9	-0.30458048
68	0xbe27d39d	-0.16389318
69	0x3e5c02c4	0.2148543
70	0xbd85aec1	-0.06527472
71	0xbe88f363	-0.2674819

encoder.0.bias f4 [8]
0	0xbe4d2228	-0.20032561
1	0x3df92b57	0.121664695
2	0x3d92e422	0.07172419
3	0xbea5de4d	-0.32396165
4	0xbd46528f	-0.048418578
5	0xbe9b2557	-0.30301926
6	0xbe6c480b	-0.23074357
7	0x3e7f4a35	0.24930651

encoder.2.weight f4 [16, 8, 3, 3]
0	0xbce6f78d	-0.028194213
1	0x3ddbe22d	0.10736499
2	0xbdc94190	-0.09826958
3	0xbb09ef64	-0.002104723
4	0xbd893ede	-0.06701444
5	0xbd1efd8a	-0.038816012
6	0x3b0475d0	0.0020211823
7	0x3dabe856	0.08393924
8	0xbdaa5cd3	-0.08318486
9	0x3cdd810c	0.027039073
10	0x3d2385cd	0.039922524
11	0xbd5149db	-0.051095825
12	0xbd53fbe4	-0.051753893
13	0x3da8d626	0.082439706
14	0x3d95fef9	0.07324023
15	0xba8a3018	-0.0010542898
16	0xbde72ffe	-0.11288451
17	0x3d906d59	0.070521064
18	0xbdb54dad	-0.08852706
19	0xbd051bdc	-0.032497272
20	0xbcd50ba8	-0.026006535
21	0xbde56edb	-0.11202785
22	0xbd146f25	-0.03623881
23	0xbd567020	-0.052353024
24	0x3d898bd4	0.06716123
25	0xbcb97197	-0.022637172
26	0xbd3f3896	-0.046684824
27	0x3d02de85	0.031950492
28	0x3ab6dd97	0.0013951537
29	0xbddd1e53	-0.107967995
30	0x3c8ef035	0.017448524
31	0xbd300b50	-0.04297954
32	0xbd0787eb	-0.033088606
33	0xbda02e86	-0.07821374
34	0x3d4c9fc0	0.049957037
35	0x3d803b67	0.0626133
36	0x3cca42fb	0.024690142
37	0x3d8f5f26	0.0700057
38	0x3d1ba1ba	0.03799603
39	0x3c7fe8fc	0.015619513
40	0xbbd9370c	-0.0066288766
41	0xbdbd31a9	-0.092379875
42	0x3d97c3a0	0.074103594
43	0xbdc12ff7	-0.09432977
44	0xbd0bbd29	-0.034115944
45	0xbcb9cb8a	-0.022680063
46	0xbdc4da16	-0.09611909
47	0xbdeaa336	-0.11456911
48	0x3d851fd4	0.06500211
49	0x3c16c228	0.009201564
50	0xbd732834	-0.059364513
51	0x3dee2957	0.11628979
52	0xbd22d5d5	-0.039754707
53	0xbd8f884d	-0.07008419
54	0xbd30a748	-0.04312828
55	0x3c89df24	0.016830035
56	0xbc5a23b0	-0.013314173
57	0x3db73b93	0.0894691
58	0x3d44ec0a	0.048076667
59	0x3dd84ac7	0.10561138
60	0x3ce55e94	0.0279992
61	0xbd81880e	-0.063247785
62	0xbdc9ae44	-0.09847692
63	0x3b8e59ff	0.0043442245
64	0xbd2d5d83	-0.042325508
65	0x3dada692	0.084790364
66	0xbdaf378b	-0.08555516
67	0xbd90db77	-0.070731096
68	0xbd9f913d	-0.07791374
69	0x3d10a96e	0.03531783
70	0x3d9d6539	0.07685322
71	0xbd772c7b	-0.060345154
72	0xbd023746	-0.031790994
73	0x3db7516b	0.08951076
74	0x3ca71587	0.020396007
75	0xbd86de3b	-0.06585356
76	0xbdc96169	-0.09833033
77	0xbd326c86	-0.043560527
78	0x3ab81be8	0.0014046403
79	0xbcd2b39d	-0.025720412
80	0xbdce78c1	-0.10081626
81	0x3d93abd3	0.07210507
82	0xbd0bfaf3	-0.03417487
83	0x3919bc2a	0.00014661314
84	0xbd593067	-0.053024676
85	0xbd72b450	-0.05925399
86	0xbd9ba11d	-0.07599089
87	0x3db8c591	0.09022058
88	0x3d4515fa	0.04811666
89	0xbdcdb563	-0.100443624
90	0xbcfec9af	-0.03110203
91	0xbd39fcd5	-0.045407135
92	0x3d78fbb6	0.060786925
93	0x3d2cab2d	0.042155433
94	0x3ce59a6d	0.028027738
95	0x3d95ea40	0.0732007
96	0xbd4bf303	-0.0497923
97	0x3c5aa5a7	0.013345159
98	0x3cecfcaf	0.028929083
99	0x3d4c283a	0.04984305
100	0x3dbfc667	0.09364014
101	0x3d895f7a	0.06707664
102	0x3caabd9f	0.020842372
103	0xbd776d67	-0.06040707
104	0xbcbe98a2	-0.02326614
105	0x3d94e422	0.072700754
106	0x3d5b6056	0.05355867
107	0xbd464cb5	-0.048412997
108	0x3c30bf60	0.010787815
109	0x3bc7c0c2	0.0060959766
110	0xbd82fca8	-0.063958466
111	0xbda043dd	-0.07825444
112	0xbd10ee2f	-0.0353834
113	0xbdc1a33c	-0.094549626
114	0x3c6457f9	0.01393699
115	0x3da24935	0.079241194
116	0xbddf8f82	-0.10916044
117	0x3dcf3b58	0.10118741
118	0x3d9aca9b	0.07558175
119	0xbd5f116d	-0.054459978
120	0x3dc7db19	0.097585864
121	0x3daf13ce	0.08548699
122	0x3d84c013	0.06481948
123	0xbdb7c491	-0.08973039
124	0xbd757609	-0.05992702
125	0xbdaa3342	-0.08310558
126	0xbcc5731c	-0.02410274
127	0x3ba23a20	0.0049507767
128	0x3c51b958	0.012800537
129	0xbcc6cbcc	-0.0242671
130	0xbb4de280	-0.0031415522
131	0xbd60259c	-0.054723367
132	0xbc999af8	-0.018750653
133	0x3ddac525	0.106821336
134	0xbdccf683	-0.10007956
135	0x3de3056c	0.110850185
136	0x3c6146eb	0.013749818
137	0xbd832597	-0.06403654
138	0xbdaac8ab	-0.08339056
139	0xbdb8309b	-0.08993646
140	0xbe02662c	-0.12734288
141	0xbdb1f8ef	-0.086900584
142	0x3db58d3f	0.08864831
143	0x3d8afcd6	0.06786506
144	0xbde3f132	-0.11129989
145	0xbdfa6de1	-0.12227989
146	0x3d42e2b6	0.04757949
147	0x3d99b61d	0.075054385
148	0x3d394a37	0.045236792
149	0x3d515fc4	0.05111672
150	0x3dd61ded	0.10454927
151	0xbccaa89a	-0.024738599
152	0x3bb88511	0.005631097
153	0x3ca499ba	0.020092834
154	0x3d93cb30	0.07216489
155	0xbc29bf62	-0.010360571
156	0x3d24791b	0.040154558
157	0x3d836d60	0.06417346
158	0x3d880ebd	0.06643436
159	0xbcd1f729	-0.02563055
160	0x3db70603	0.089366935
161	0xbcc5d4f5	-0.024149397
162	0xbdf5399a	-0.11973877
163	0x3dbfde50	0.093685746
164	0xbdbc096f	-0.09181487
165	0x3cc163ff	0.023607252
166	0xbcf7eb8b	-0.030263683
167	0x3d915879	0.07096953
168	0x3ddd8f61	0.10818363
169	0xbd31a8c5	-0.04337384
170	0xbc31a52b	-0.010842602
171	0xbd6a4c30	-0.057201564
172	0xbc965e84	-0.018355615
173	0x3bc0d972	0.0058852965
174	0x3c9a22e2	0.018815462
175	0x3ce3f0c0	0.02782476
176	0x3b958213	0.004562625
177	0x3ceedca8	0.029157951
178	0x3cb040fa	0.021515358
179	0x3dbf3a44	0.09337285
180	0x3d1d9b42	0.038478144
181	0x3d7412f9	0.059588406
182	0xbd5460e2	-0.051850207
183	0x3ddac7f7	0.106826715
184	0xbc986ed7	-0.01860754
185	0xbcbcb71d	-0.023036534
186	0xbdf206f7	-0.11817735
187	0xbd8edf4f	-0.069761865
188	0xbd2a7703	-0.041617405
189	0xbd6d95ae	-0.058004074
190	0x3d88fa18	0.066883266
191	0x3d944f50	0.0724169
192	0xbce0da13	-0.027447736
193	0xbd80fb9d	-0.062979914
194	0xbda0fd33	-0.07860794
195	0x3c6fabd6	0.014628371
196	0xbcc89fab	-0.024490198
197	0x3da5d004	0.080963165
198	0x3c908694	0.017642297
199	0x3d4db752	0.050223656
200	0x3d9545b7	0.07288688
201	0x3dc48601	0.09595872
202	0x3dda0a39	0.10646481
203	0x3dbef665	0.0932434
204	0xbdb80246	-0.089848086
205	0xbde603a0	-0.1123116
206	0x3d44aaae	0.048014335
207	0xbd1add3d	-0.037808646
208	0xbd98d538	-0.07462543
209	0xbb490923	-0.0030675612
210	0xbdbc4b77	-0.09194081
211	0x3d7cd9fa	0.061731316
212	0x3dd254f7	0.10270112
213	0xbd19a0ba	-0.037506796
214	0xbdeb44f6	-0.11487763
215	0xbcdbf97d	-0.026852364
216	0xbd492e0f	-0.04911619
217	0x3da28a17	0.07936495
218	0xbde6a2b3	-0.11261501
219	0xbd8d369e	-0.06895183
220	0x3b700cb8	0.0036628675
221	0xbdfce36e	-0.12348066
222	0x3dceef02	0.10104181
223	0x3dda58ec	0.10661492
224	0xbdd91dbd	-0.10601375
225	0x3d7a2b56	0.061076485
226	0x3dbf551f	0.093424074
227	0xbd0de942	-0.03464628
228	0xbcd1aed3	-0.025596058
229	0x3d9a90c8	0.07547146
230	0x3dcd3ea7	0.100217156
231	0x3d6fafba	0.058517195
232	0xbc6b6942	-0.014368357
233	0xbd0cbbf0	-0.03435892
234	0xbd9bd282	-0.076085106
235	0x3dd97db4	0.10619679
236	0x3d5a6dcd	0.05332737
237	0xbbfae74f	-0.0076569687
238	0xbc080253	-0.008301335
239	0xbdb2351d	-0.08701537
240	0x3cc37605	0.023859987
241	0x3dcbfda5	0.09960488
242	0xbcc4eb9e	-0.024038132
243	0xbdcf9782	-0.1013632
244	0xbccbfdab	-0.024901232
245	0x3d27a270	0.040926397
246	0xbd17c222	-0.037050374
247	0xbd4138a2	-0.04717315
248	0x3da612fb	0.08109089
249	0xbdf7512c	-0.12076029
250	0xbdae61e9	-0.08514769
251	0xbdaf4ba4	-0.08559349
252	0xbd876676	-0.0661134
253	0x3c795050	0.015216902
254	0x3d91f613	0.07127013
255	0x3d90a8f9	0.07063479

encoder.2.bias f4 [16]
0	0xbdc4f57e	-0.096171364
1	0xbe058dc8	-0.13042367
2	0xbd271be5	-0.040798087
3	0xbd70a135	-0.05874749
4	0x3cb7f2d3	0.022454655
5	0x3c1a1ef0	0.00940679
6	0x3dd1d825	0.102463044
7	0xbb8fccef	-0.0043884437
8	0xbd81a65d	-0.063305594
9	0xbd0de730	-0.034644306
10	0xbd298c29	-0.041393433
11	0x3ccc6282	0.024949316
12	0x3d8b7a97	0.068104915
13	0x3de39b21	0.11113573
14	0x3d83990f	0.06425678
15	0x3cd9c821	0.026584687

encoder.4.weight f4 [16, 16, 3, 3]
0	0xbbce4c60	-0.0062957257
1	0xbc69b4b8	-0.014264278
2	0xbcac631c	-0.021043353
3	0xbce2fe17	-0.02770905
4	0xbb4a1e4f	-0.003084082
5	0xbd5864e5	-0.052830596
6	0xbc3b1168	-0.011417724
7	0x3db22227	0.0869792
8	0x3bc26668	0.005932618
9	0x3d5d2f01	0.053999905
10	0x3cc58657	0.02411191
11	0xbc2b0b26	-0.01043967
12	0xbd162d66	-0.03666439
13	0xbd101013	-0.03517158
14	0x3d0c6a51	0.03428108
15	0x3d1ec2d3	0.038760018
16	0x3a8b9c8e	0.0010651515
17	0x3d0c3a1a	0.034235097
18	0x3d6a2f12	0.057173796
19	0xbd8a188a	-0.06742962
20	0x3bc8ff86	0.0061339764
21	0xbd27ffc1	-0.04101539
22	0x3b80c153	0.003929296
23	0x3d157339	0.036486838
24	0x3bd7473b	0.0065697706
25	0x3c627cd8	0.01382371
26	0xbd43d3da	-0.04780946
27	0x3b71ca4d	0.0036894262
28	0x3d361ce1	0.044461135
29	0xbcc566f8	-0.02409695
30	0x3d457fe9	0.048217688
31	0x3888ccd3	6.523137e-05
32	0x3cfa80e2	0.030579034
33	0x3d9a9885	0.07548622
34	0xbd060ad2	-0.032725163
35	0xbd74558a	-0.05965189
36	0xb9e60d03	-0.00043878713
37	0xbda01ee9	-0.07818396
38	0x3ca63d52	0.020292912
39	0xbd848227	-0.06470137
40	0xbdaf0ee7	-0.08547764
41	0xbdb85137	-0.089998655
42	0xbc91801a	-0.017761279
43	0xbc93bb1b	-0.018033555
44	0xbc5369c8	-0.012903638
45	0x3d2655db	0.040609222
46	0x3ca5cacb	0.0202383
47	0xbc310b1d	-0.010805872
48	0x3d9a747d	0.075417496
49	0x3d8077ea	0.06272872
50	0x3d47eaaa	0.048807777
51	0x3ba335e0	0.0049807876
52	0x3d8da565	0.06916312
53	0x3c2cb1fb	0.010540481
54	0x3d8533b5	0.06504003
55	0x3d422776	0.047400914
56	0xbd1d5a14	-0.038415983
57	0xbd4d8541	-0.05017591
58	0xbdaa8b0b	-0.083273016
59	0xba4eaecd	-0.0007884324
60	0xbc981620	-0.018565238
61	0xbd2d6465	-0.04233207
62	0xbce21382	-0.027597193
63	0x3da20ca4	0.07912567
64	0xbd57cf6c	-0.052688047
65	0xbd732d66	-0.059369467
66	0xbd80c6f5	-0.06287948
67	0xbbdef4c7	-0.006804082
68	0xbcc0f51b	-0.023554375
69	0x3c5b9ad4	0.013403613
70	0x3ce7d537	0.028299911
71	0xbce45e4c	-0.027876996
72	0xbd7a3852	-0.061088867
73	0x3d4108e8	0.047127634
74	0xbc26b168	-0.010174133
75	0x3d9ec578	0.07752508
76	0xbd497f82	-0.049193867
77	0x3bdd0c05	0.0067458176
78	0xbd886c92	-0.06661333
79	0x3b9ebbc9	0.004844163
80	0x3d218da1	0.03944171
81	0x3d4fd438	0.050739497
82	0x3d430970	0.047616422
83	0xbd473263	-0.048632037
84	0x3b7e67f3	0.0038819283
85	0xbda8f4b6	-0.082498
86	0x3c5e126c	0.013554197
87	0x3b89a0f9	0.0042000976
88	0x3d79a59c	0.060948953
89	0xbca20133	-0.019775962
90	0xbb93f068	-0.0045147426
91	0x3d7a2850	0.0610736
92	0xbce869b5	-0.028370718
93	0xbd8458fc	-0.06462285
94	0x3d8246a8	0.06361133
95	0x3cc4bdd0	0.02401629
96	0xbd5c3a5d	-0.053766597
97	0x3c5c2196	0.013435742
98	0xbb54ac30	-0.0032451265
99	0x3c73b553	0.014874774
100	0xba5527d3	-0.00081312394
101	0x3da51094	0.08059803
102	0xbce9bb4c	-0.028531693
103	0x3caa03d7	0.020753784
104	0x3ca137af	0.019679872
105	0xbd2840d5	-0.041077454
106	0xbd0fa603	-0.03507043
107	0x3cdf73ed	0.027276957
108	0x3c176bd1	0.009242014
109	0xbc83dea9	-0.016097384
110	0x3d81f29d	0.06345103
111	0xbda7f614	-0.082012326
112	0x3d7b5a04	0.061365142
113	0xbd56948d	-0.052387763
114	0x3d9e46a4	0.077283174
115	0x3cb23f50	0.021758705
116	0xbcd7636f	-0.02629253
117	0xbd3ca72e	-0.046057872
118	0xbbc2a3a2	-0.0059399167
119	0x3b7efab5	0.0038906757
120	0xbc481064	-0.012210939
121	0x3c788da8	0.015170492
122	0x3d9d9a38	0.076954305
123	0x3ce14768	0.02749987
124	0x3ce71285	0.028207073
125	0x3d82a71f	0.06379532
126	0xbd026631	-0.03183574
127	0xbb55a5aa	-0.0032599964
128	0x3d7f02ec	0.062258646
129	0x3d9bf2ac	0.07614645
130	0x3d8969ca	0.06709631
131	0xbd73aabe	-0.059489004
132	0xbd44d189	-0.04805139
133	0xbd41e465	-0.047336955
134	0x3c0a9fec	0.00846098
135	0x3d4e4308	0.050356895
136	0x3c1f95c5	0.009740298
137	0x3cd5491b	0.026035836
138	0x3d3c3f62	0.045958884
139	0xbda8b387	-0.08237367
140	0x3d87456f	0.0660504
141	0x3d4833c9	0.04887751
142	0x3ce174ae	0.027521458
143	0x3d271885	0.040794868
144	0x3d75aca0	0.05997908
145	0xbd6d6dc2	-0.057966
146	0x3d6c3ddb	0.057676177
147	0x3d8571db	0.06515857
148	0x3c24b184	0.010052089
149	0x3c193541	0.009351076
150	0x3c59c466	0.013291454
151	0x3ca8d491	0.020609172
152	0x3d182580	0.037145138
153	0xbc47ead4	-0.0122019835
154	0xbc55db63	-0.013052794
155	0x3ba3b7dc	0.004996283
156	0x3d817b23	0.063223146
157	0xbd32d626	-0.04366126
158	0x3d3fdf74	0.04684396
159	0x3d184a16	0.03718003
160	0x3d1cd961	0.038293246
161	0xbcfefe44	-0.031127103
162	0x3d289049	0.041153226
163	0xbd91db3c	-0.07121894
164	0x3d4e36fc	0.050345406
165	0xbd05cd7b	-0.032666665
166	0x3d0bf0dd	0.034165252
167	0xbd2cc4ac	-0.04217975
168	0xbda62948	-0.081133425
169	0xbd6b9a7c	-0.057520375
170	0xbd91a383	-0.071112655
171	0x3ce01d9e	0.027357873
172	0xbcde4148	-0.027130738
173	0xbd3c3170	-0.045945585
174	0x3ce54f09	0.027991788
175	0xbd3d1902	-0.046166427
176	0x3a82d862	0.00099827
177	0xbd12587e	-0.035728924
178	0xbda376c2	-0.07981636
179	0xbd12651e	-0.035740964
180	0x3ca4bb06	0.020108711
181	0x3cb43dac	0.022002064
182	0xbd08995b	-0.033349376
183	0xbda68923	-0.081316255
184	0xbda22688	-0.079175055
185	0x3d0033c6	0.031299375
186	0x3ca13a26	0.019681048
187	0xbd1632d0	-0.036669552
188	0x3d228043	0.0396731
189	0x3d1fc4a3	0.039005887
190	0xbd400959	-0.046883915
191	0xbd15cd76	-0.036572896
192	0x3c266ea9	0.010158219
193	0xbdc0062e	-0.09376179
194	0xbcded433	-0.027200794
195	0xbd18209a	-0.037140466
196	0xbdb49ddd	-0.088191725
197	0xbd4fce9c	-0.050734147
198	0xbb9c36b4	-0.0047672633
199	0xbc8389b6	-0.016056877
200	0xbd8877f6	-0.06663506
201	0x3c958bd5	0.018255154
202	0xbdc75c45	-0.09734396
203	0xbdaf5145	-0.08560423
204	0x3cb6342b	0.022241673
205	0xbc800cea	-0.015631158
206	0xbd36bbc6	-0.04461267
207	0x3abd7c8a	0.0014456671
208	0x3bb1ce35	0.005426193
209	0xbb9e6e4b	-0.0048349253
210	0x3d5df582	0.054189213
211	0xbd8b5c59	-0.06804723
212	0xbd0685b7	-0.032842364
213	0xbc93e465	-0.018053243
214	0xbcfa9855	-0.030590216
215	0xbda473a3	-0.080298685
216	0x3c64b006	0.013957983
217	0xbdc3fe5e	-0.09570001
218	0x3b845e17	0.0040395367
219	0xbd3c1bf3	-0.045925092
220	0x3d2c33b7	0.042041507
221	0x3d6fbc64	0.058529273
222	0xbd8bc849	-0.06825311
223	0x3c9742d8	0.01846449
224	0xbda1085e	-0.07862924
225	0xbcfc5bee	-0.030805554
226	0xbcdf4843	-0.027256137
227	0x3bf30612	0.007416495
228	0x3ca8388c	0.020534776
229	0xbd4f7ede	-0.0506581
230	0xbd839363	-0.06424596
231	0xbd41dbb8	-0.04732868
232	0x3b380239	0.0028077497
233	0x3b834361	0.004005835
234	0x3ba3c33d	0.0049976395
235	0x3d6f067e	0.0583558
236	0xbc974a08	-0.018467918
237	0x3cd6f8e1	0.026241722
238	0xbd172723	-0.036902558
239	0xba0a3770	-0.0005272543
240	0x3cdb3a89	0.02676131
241	0x3b16a90b	0.002298894
242	0xbab68dae	-0.0013927722
243	0x3d5c6040	0.05380273
244	0x3cba9d9c	0.022780232
245	0x3d584106	0.052796386
246	0xbcebd673	-0.02878878
247	0xbd69fb5c	-0.05712448
248	0x3d7e39ca	0.06206683
249	0x3bc17c11	0.0059046824
250	0xbc9f8ad7	-0.019475384
251	0xbc47f269	-0.012203791
252	0x3d4559c5	0.048181314
253	0x3d2d8db9	0.042371485
254	0x3d6ce48d	0.05783515
255	0x3d207624	0.039175168

encoder.4.bias f4 [16]
0	0x3d90650d	0.07050524
1	0x3cee6b9c	0.029104047
2	0xbd88a651	-0.06672347
3	0x3ceb69a8	0.028736904
4	0xbdab32ce	-0.083592996
5	0x3c709f23	0.014686379
6	0xbd164753	-0.036689114
7	0xbd0359ab	-0.032067936
8	0x3cd59f4d	0.026076937
9	0x3c93edca	0.018057723
10	0xbdbec1a9	-0.093142815
11	0xbd36cb06	-0.044627212
12	0xbdbd5d1e	-0.09246276
13	0x3d45c29e	0.048281305
14	0xbba417ee	-0.0050077355
15	0x3c8862dd	0.016648704

encoder.6.weight f4 [32, 16, 3, 3]
0	0xbd7f1424	-0.062275067
1	0xbcec4a08	-0.028843895
2	0xbc6e4c55	-0.014544566
3	0x3c3e31b2	0.011608528
4	0x3baff248	0.0053694583
5	0xbd05cfff	-0.032669064
6	0x3d93a9c4	0.072101146
7	0x3d8deb9d	0.06929705
8	0xbd30c4f5	-0.043156583
9	0x3da90ba6	0.08254175
10	0xbce69d3a	-0.028151143
11	0xbba1e30d	-0.0049403966
12	0xbd495752	-0.04915554
13	0x3db10564	0.08643606
14	0xbd3236d3	-0.043509316
15	0x3db48557	0.08814495
16	0x3db705db	0.08936664
17	0x3c825a48	0.01591219
18	0x3c41526f	0.011799439
19	0x3d2d5936	0.042321406
20	0x3d081eba	0.033232428
21	0x3d1328fa	0.03592775
22	0xbd3f85fe	-0.046758644
23	0x3d782223	0.06057943
24	0xbd1fa52d	-0.038975883
25	0x3d6041e1	0.054750327
26	0xbd5ab43d	-0.053394545
27	0xbd6cd6da	-0.057822086
28	0xbd45651d	-0.048192132
29	0xbd799894	-0.060936525
30	0x3d882f02	0.06649591
31	0x3d271202	0.040788658
32	0xbd9e8954	-0.07741037
33	0xbd0bd566	-0.03413906
34	0x3d540c57	0.05176958
35	0x3d21e2de	0.039522998
36	0xbd910feb	-0.07083114
37	0x3db0cef4	0.08633223
38	0x3da3145e	0.07962869
39	0xbbac8b0a	-0.005265598
40	0x3d7bdc5a	0.06148944
41	0x3d1ed400	0.038776398
42	0x3db4c10c	0.08825883
43	0x3d563a64	0.05230178
44	0xbd13b294	-0.036058977
45	0xbcfb25d9	-0.030657696
46	0x3d59e6ac	0.0531985
47	0xbce98ee7	-0.028510524
48	0x3c894a1f	0.016758977
49	0x3d0a93db	0.033832412
50	0x3c9a6a1b	0.018849423
51	0xbd84ca54	-0.064839035
52	0xbd7c2388	-0.061557323
53	0xbd564610	-0.05231291
54	0x3d4e980a	0.050437964
55	0x3d2faea6	0.042891167
56	0xbda380ea	-0.07983573
57	0xbbdf4190	-0.0068132356
58	0x3cdfd2e0	0.027322233
59	0xbd552776	-0.052039586
60	0xbd201a73	-0.039087724
61	0xbd6edb2e	-0.058314495
62	0x3d976dd9	0.07393999
63	0xbd11b690	-0.035574496
64	0xbda31652	-0.07963242
65	0xbd020158	-0.031739563
66	0xbd8e39d4	-0.069446236
67	0x3d9d9da3	0.076960824
68	0xbc25f560	-0.010129303
69	0xbce8e8fc	-0.028431408
70	0xbc618a28	-0.013765849
71	0xbc2bc860	-0.010484785
72	0xbcd908a9	-0.026493387
73	0x3d7d2795	0.061805326
74	0xbd80c1c9	-0.062869616
75	0x3d284b39	0.041087363
76	0x3d62bf75	0.05535837
77	0x3d00a72b	0.031409424
78	0x3b2c77f0	0.0026316606
79	0x3d744231	0.059633438
80	0x3d6a9949	0.05727509
81	0x3d443deb	0.047910612
82	0xbd279d3b	-0.04092143
83	0xbc873b3d	-0.01650774
84	0x3a191763	0.0005839972
85	0xbd758acd	-0.059946824
86	0xbd08803a	-0.03332541
87	0xbd2b4dc2	-0.041822203
88	0x3d47aeda	0.048750736
89	0x3c878f66	0.01654787
90	0xbce095a2	-0.0274151
91	0x3d42bb5b	0.047541957
92	0x3d941f8e	0.07232581
93	0xbd7d86ef	-0.06189626
94	0x3c48ca5a	0.012255276
95	0x3c9231b8	0.017845973
96	0x3d663022	0.056198247
97	0x3dbb3f48	0.09142929
98	0xbd6224a3	-0.05521072
99	0x3d3ee1fa	0.046602227
100	0xbc6a9800	-0.014318466
101	0x3d7f0252	0.062258072
102	0xbb3ccae0	-0.0028807446
103	0x3c8fff44	0.017577775
104	0xbda76b4b	-0.081747614
105	0xbd896796	-0.067092106
106	0xbbfe4600	-0.0077598095
107	0x3d6428da	0.05570302
108	0x3da3cfff	0.079986565
109	0x3d99f06c	0.0751656
110	0x3d89bee5	0.06725863
111	0xbc60e128	-0.013725556
112	0xbcdefb4a	-0.027219433
113	0xbd42143b	-0.047382575
114	0x3d98f131	0.074678786
115	0x3d926039	0.07147259
116	0x3bba5500	0.0056864023
117	0xbcbfd5b1	-0.023417326
118	0xbdb75dd0	-0.0895344
119	0x3d2426c8	0.040076047
120	0xbdafe78a	-0.085890844
121	0xbd47746f	-0.048695024
122	0x3bbf319c	0.0058347713
123	0x3b6bd3d4	0.0035984414
124	0x3b59a87e	0.0033212001
125	0xbd6f09a3	-0.0583588
126	0xbce6f3ed	-0.028192485
127	0x3d67c1d3	0.05658133
128	0xbc8fcc0a	-0.017553348
129	0xbbf3abf8	-0.0074362718
130	0x3d60ca81	0.054880623
131	0x3cc49633	0.023997402
132	0xbcc21403	-0.023691183
133	0x3d440a76	0.04786154
134	0xbab5c12c	-0.0013866774
135	0x3d724230	0.059145153
136	0x3ccfda60	0.025372684
137	0xbb95d74c	-0.0045727845
138	0xbd0ac14d	-0.033875752
139	0xbcf52805	-0.02992631
140	0x3c7c25a8	0.015389837
141	0x3d05d78a	0.032676257
142	0x3d6a1d14	0.057156637
143	0x3cd8cfbd	0.026466245
144	0xbc0e0c17	-0.008669875
145	0xbd9cd166	-0.07657127
146	0xbdabfb7b	-0.083975755
147	0x37805678	1.5299054e-05
148	0x3d4cb487	0.04997685
149	0xbda2cef9	-0.07949633
150	0xbdbb059f	-0.091319315
151	0xbacd3c65	-0.0015658258
152	0xbdcdca1b	-0.10048314
153	0x3cbf3431	0.023340316
154	0xbd06b7d5	-0.03289016
155	0xbcd5a389	-0.026078956
156	0x3b40e789	0.002943488
157	0xbd971264	-0.073765546
158	0x3d593171	0.053025667
159	0xbc641040	-0.01391989
160	0xbd3e377a	-0.046439625
161	0xbd90f833	-0.0707859
162	0x3c9a4018	0.01882939
163	0x3d0efdbc	0.03490995
164	0x3d27a1cf	0.040925797
165	0xbd8f13af	-0.06986176
166	0xbc6f30eb	-0.014599065
167	0x3d844053	0.06457581
168	0xbcb37705	-0.021907339
169	0xbd1c377c	-0.03813885
170	0xbc321039	-0.010868126
171	0x3d2db953	0.042413067
172	0xbc540aac	-0.0129419975
173	0xbd71faa0	-0.059076905
174	0xbdb7941e	-0.08963798
175	0xbd403440	-0.04692483
176	0xbd5873f8	-0.05284497
177	0xbd455475	-0.048176248
178	0x3caf6aba	0.021413196
179	0xbd9d202e	-0.076721534
180	0x3ce78974	0.028263785
181	0x3ccdf50d	0.025141263
182	0x3d179bbd	0.037013758
183	0xbd852da0	-0.06502843
184	0x3c7b4aec	0.015337687
185	0xbd6f35ef	-0.058401044
186	0xbd8375ad	-0.06418929
187	0xbce7878d	-0.028262878
188	0xbd4ff02c	-0.050766155
189	0xbd6d1986	-0.05788567
190	0x3d4da9f1	0.050210897
191	0xbd216faf	-0.03941315
192	0x3d752f0c	0.05985932
193	0xbd730aec	-0.059336588
194	0xbd7d9d7b	-0.061917763
195	0xbd00b10b	-0.03141884
196	0x3c4cef2f	0.012508198
197	0xbd0113d4	-0.03151305
198	0xbd63cac8	-0.05561331
199	0xbd6796a6	-0.056540154
200	0xbcb6a5dc	-0.022295885
201	0x3c69bdf8	0.0142664835
202	0x3d3a3556	0.04546102
203	0xbd26bc20	-0.040706754
204	0xbd269e70	-0.04067844
205	0x3d9bd4db	0.07608958
206	0x3c86a6e4	0.016437002
207	0xbd7a5a08	-0.061121017
208	0x3c8a20f0	0.016861409
209	0xbc965004	-0.018348701
210	0x3d0ad2c6	0.033892415
211	0x3d04e622	0.032446034
212	0xbd4e2c70	-0.050335348
213	0x3da5a039	0.08087201
214	0xba4d4280	-0.00078300387
215	0xbcc27980	-0.023739576
216	0x3cb6f04b	0.022331377
217	0xbcfaac34	-0.030599691
218	0xbd9238f5	-0.0713977
219	0x3b4b6de7	0.0031040849
220	0xbdb7b83b	-0.08970686
221	0x3d962b50	0.0733248
222	0x3d4e1375	0.050311524
223	0xbd5cce6f	-0.053907808
224	0xbd0479a2	-0.03234256
225	0x3d240756	0.04004606
226	0xbd953b13	-0.07286658
227	0x3c9a8023	0.018859928
228	0xbd9dc0df	-0.07702803
229	0xbd9f957d	-0.077921845
230	0x3d181a65	0.037134547
231	0xbcbb74f7	-0.022882922
232	0xbda8f78a	-0.08250339
233	0xbd9c8f13	-0.07644477
234	0xbda33aaf	-0.079701774
235	0xbd557618	-0.052114576
236	0xbdb37f37	-0.08764499
237	0xbd10e378	-0.03537318
238	0xbc691288	-0.01422561
239	0x3d190dbb	0.03736661
240	0xbccd0b94	-0.025029935
241	0x3d90e3f8	0.070747316
242	0x3d4b576d	0.049643923
243	0xbd3189b8	-0.04334423
244	0x3c4539c0	0.012037694
245	0x3b715600	0.0036824942
246	0xbbf2f730	-0.007414721
247	0x3d6f2652	0.058386154
248	0x3b3f0520	0.0029147342
249	0xbd1cca66	-0.03827896
250	0xbd9445cb	-0.072398745
251	0xbcfbd8d0	-0.030743033
252	0x3d5e6542	0.054295786
253	0x3d0244e6	0.031803988
254	0x3d84c8ba	0.06483598
255	0xbda8c802	-0.082412735

encoder.6.bias f4 [32]
0	0xbd8004c3	-0.06250908
1	0x3d22ddf3	0.03976245
2	0xbcabcc46	-0.020971429
3	0x3bf92228	0.0076029487
4	0xbb509ee0	-0.0031832978
5	0x3ce314c6	0.027719866
6	0x3d977060	0.07394481
7	0x3d5d31aa	0.05400244
8	0xbd3cf03c	-0.046127543
9	0x3d56af2d	0.052413154
10	0x3cb58d8e	0.022162225
11	0xbd83750a	-0.06418808
12	0x3d0e2980	0.034707546
13	0x3d8c5743	0.06852581
14	0xbcadd4ed	-0.021219695
15	0x3da04ee9	0.07827551
16	0xbce0a6b9	-0.02742325
17	0xbcb527af	-0.02211365
18	0xbd9df374	-0.077124506
19	0xbb3ff417	-0.0029289776
20	0x3c4e691d	0.012598303
21	0x3da20afa	0.0791225
22	0x3d34c925	0.04413714
23	0xbcf5d65a	-0.030009437
24	0xbcc23d56	-0.023710888
25	0xbd8fbfc4	-0.07018998
26	0x3d2dee4b	0.042463582
27	0xbd38fcdf	-0.04516303
28	0x3cef0795	0.02917842
29	0x3d1df8a9	0.03856722
30	0xbc09662e	-0.008386178
31	0xbc97cb8a	-0.018529672

encoder.8.weight f4 [32, 32, 3, 3]
0	0xbb575468	-0.0032856707
1	0xbca8b8d9	-0.020595955
2	0xbd7aaebd	-0.0612018
3	0xbd598ab4	-0.053110793
4	0xbc3b40c6	-0.011429017
5	0xbcad8fdc	-0.021186762
6	0x3d46ed70	0.04856628
7	0xbd2edbda	-0.042690136
8	0xbc1d963b	-0.009618337
9	0xbd4c92c4	-0.049944654
10	0xbb3f2790	-0.0029167868
11	0xbd431d2a	-0.047635235
12	0x3c2dc8d1	0.01060696
13	0xbd798958	-0.060921997
14	0xbd475774	-0.048667386
15	0xbc6fa1e6	-0.014626002
16	0x3d29bdf7	0.04144093
17	0x3d0376ad	0.0320956
18	0xbd050c53	-0.032482456
19	0xbbc2aeba	-0.005941239
20	0xbd7173b4	-0.058948234
21	0xbad23bb8	-0.0016039526
22	0xbc4c5f94	-0.0124739595
23	0x3cfcba7c	0.030850641
24	0xbc764aa4	-0.015032444
25	0xbb94ae88	-0.0045374073
26	0xbc9699fe	-0.018383976
27	0x3d5e5da1	0.05428851
28	0xbd5ff28a	-0.054674663
29	0xbd57805a	-0.05261264
30	0xbd6a9cfb	-0.057278614
31	0xbcff7239	-0.031182395
32	0xbd6d26ff	-0.057898518
33	0x3d4f4db5	0.050611217
34	0xbd284ac0	-0.041086912
35	0xbd0fa6cb	-0.035071176
36	0x3ccd9097	0.02509336
37	0xbd733ab8	-0.05938217
38	0x3bdea9f2	0.0067951614
39	0x3d446772	0.047950216
40	0x3b72a220	0.0037022904
41	0x3d2d8867	0.04236641
42	0x3c83c2ce	0.016084101
43	0xbbdc6680	-0.006726086
44	0x3d01c9db	0.031686645
45	0x3d4274f9	0.047474835
46	0x3b863a12	0.004096278
47	0xbc1cf807	-0.009580619
48	0xbc30f90f	-0.010801568
49	0x3c38a2a3	0.011269244
50	0xbc809528	-0.015696123
51	0x3c7b128a	0.015324244
52	0xbd6053be	-0.054767363
53	0x3d01cf23	0.03169168
54	0x3ad116b0	0.0015952196
55	0x3c020760	0.007936329
56	0x3d39d2b3	0.045366954
57	0x3d416065	0.04721107
58	0xbd85d420	-0.065346
59	0xbc16373a	-0.0091684405
60	0x3d0e131e	0.0346862
61	0xbd657b72	-0.05602593
62	0x3d440b0d	0.0478621
63	0xbd8636af	-0.06553399
64	0x3c9ea802	0.019367222
65	0xbbf1fdce	-0.007384992
66	0xbc30e9c3	-0.010797921
67	0x3c232692	0.009957926
68	0x3d3464a2	0.044041283
69	0xbc92750c	-0.017878078
70	0x3bce3ec6	0.0062941043
71	0x3d0816d4	0.033224896
72	0x3cabe776	0.020984393
73	0x3d30f5bf	0.04320311
74	0x3cc62bb2	0.024190757
75	0x3d47ff6b	0.04882757
76	0xbccc8024	-0.024963446
77	0x3cc74266	0.024323653
78	0xbc07a2e4	-0.008278582
79	0xbd199c64	-0.03750266
80	0xbccadb38	-0.024762735
81	0x3cee254e	0.029070523
82	0xbd2ef00c	-0.042709395
83	0x3c269718	0.0101678595
84	0x3d080feb	0.033218306
85	0xbcf2eb0e	-0.029653098
86	0x3cb6719f	0.022270976
87	0xbd4a5a7d	-0.049402703
88	0x3b17a1f0	0.0023137294
89	0x3d26f1a3	0.040757786
90	0xbd78392c	-0.0606014
91	0xbc230164	-0.009949062
92	0x3b3b66f4	0.00285953
93	0xbc9d433e	-0.019197103
94	0xbd2383ba	-0.039920546
95	0xbceeb084	-0.029136904
96	0xbcae6bfb	-0.021291723
97	0x3cee5c3f	0.02909672
98	0xbd41f97a	-0.04735706
99	0xbd6fcbe3	-0.05854405
100	0x3cf70b0a	0.030156631
101	0x3c160524	0.009156499
102	0xbcf48b7e	-0.029851671
103	0xbcd65c18	-0.02616696
104	0xbc9543b2	-0.018220756
105	0x3bc7ed58	0.0061012916
106	0xbd6cc2d2	-0.057802983
107	0xbcfa8022	-0.030578677
108	0xbc239f4d	-0.009986711
109	0xbd5150a9	-0.051102314
110	0xbd4439b2	-0.047906585
111	0xbd82c63f	-0.06385469
112	0xbcc7a7b2	-0.024371956
113	0x3c97aff0	0.01851651
114	0xbd7af492	-0.061268397
115	0xbbce7c5c	-0.006301446
116	0x3d2a9e68	0.041654974
117	0x3d232a2e	0.039835148
118	0xbcb391a5	-0.021920035
119	0xbd0cd890	-0.034386218
120	0x3a26b8c0	0.00063599274
121	0xbd7388a4	-0.059456483
122	0x3cf7f5b0	0.03026852
123	0x3d0d4e92	0.03449876
124	0x3c072177	0.008247725
125	0xbcc162da	-0.023606706
126	0xbd86cb6b	-0.06581768
127	0xbd5b89b9	-0.05359814
128	0x3bb201f2	0.005432361
129	0x3cd84757	0.026401205
130	0x3cfe6ba5	0.031057188
131	0x3d2205ea	0.03955642
132	0xbb3af1b0	-0.0028525405
133	0xbce243d6	-0.027620237
134	0x3bea77fa	0.0071554156
135	0x3b3b18b8	0.002854867
136	0x3cf3e2a3	0.029771155
137	0xbd45439e	-0.048160188
138	0xbd50e102	-0.050995834
139	0xbd8a6136	-0.06756823
140	0xbd1851f6	-0.03718754
141	0xbd44c87b	-0.048042756
142	0xb8ba4500	-8.8820234e-05
143	0xbc961a1b	-0.018322995
144	0xbcf3382a	-0.029689867
145	0xbd530c97	-0.05152568
146	0x3d277bca	0.04088954
147	0xbd004e69	-0.031324778
148	0xbcbd12c9	-0.023080247
149	0x3c8de774	0.01732228
150	0xbc99a332	-0.018754575
151	0xbd3ef23c	-0.04661773
152	0xbd7aa59e	-0.0611931
153	0xbcb8fbdf	-0.022581039
154	0x3cde6e02	0.027152065
155	0x3c539728	0.012914456
156	0xbd3a7ffe	-0.04553222
157	0xbd5d62c0	-0.054049253
158	0xbd25b227	-0.040453102
159	0xbbf38d28	-0.0074325986
160	0x3d2e4a1c	0.042551145
161	0xbd406359	-0.046969745
162	0x3c3dd84f	0.0115872165
163	0x3c9b8f00	0.018989086
164	0xbc8f27cc	-0.017475031
165	0xbc281acf	-0.010260298
166	0x3c392f31	0.011302755
167	0x3d2abd4c	0.041684434
168	0xbc2515c8	-0.010075994
169	0x3c250fd9	0.010074579
170	0x3cc16550	0.02360788
171	0x3d2f91dc	0.04286371
172	0x3c34a521	0.011025698
173	0xbd3ce4aa	-0.04611651
174	0xbd26198a	-0.0405517
175	0xbd57c45b	-0.052677494
176	0x3ca2c6a8	0.019870117
177	0xbc954edb	-0.018226078
178	0x3d197afa	0.037470795
179	0xbcb1d2c0	-0.021706939
180	0xbc96f2a4	-0.018426247
181	0x3d1f6c40	0.038921595
182	0xbc4ec255	-0.012619575
183	0x3d095484	0.033527866
184	0xbc0e5497	-0.00868716
185	0x3c83cdde	0.016089376
186	0x3c8346b5	0.016024927
187	0x3cd552cc	0.026040457
188	0xbd684f1b	-0.056716066
189	0x3c47391a	0.01215961
190	0x3d2fd3ee	0.04292672
191	0xbc0eeb4e	-0.008723093
192	0xbd3b8b62	-0.045787223
193	0x3cec6dbd	0.028860921
194	0xbc976304	-0.018479832
195	0x3d2086c0	0.039191008
196	0x3c5009ea	0.012697676
197	0xbd82a092	-0.063782826
198	0x3d3f36a3	0.046682965
199	0x3d284ad3	0.041086983
200	0xbd5b22d7	-0.053500023
201	0x3d13034a	0.03589181
202	0xbd8b11d4	-0.0679051
203	0xbb9ba37c	-0.0047497135
204	0xbc11025e	-0.008850662
205	0xbbca0f4c	-0.0061663743
206	0xbd26e896	-0.040749155
207	0xbc3ed308	-0.011646993
208	0xbc33d089	-0.010975012
209	0xbc199afe	-0.009375332
210	0xbd54ecfc	-0.05198382
211	0x3cfd8de0	0.03095144
212	0x3d16ab54	0.036784485
213	0xbbc97c78	-0.006148871
214	0x3cf3ff58	0.029784843
215	0xbd221f6e	-0.039580755
216	0x3d54abee	0.051921777
217	0xbc32f692	-0.010923045
218	0x3d49b9ae	0.049249344
219	0x3ca7cbe4	0.020482965
220	0xbcd297d0	-0.025707155
221	0xbd256b3d	-0.040385474
222	0x3d1dd9a1	0.038537625
223	0xbd26b375	-0.040698487
224	0x3b881be2	0.0041537145
225	0xbbed9fa0	-0.007251695
226	0xbc53a870	-0.012918577
227	0xbcad7dfe	-0.021178242
228	0xbd4da2df	-0.050204154
229	0x3c70de24	0.0147014
230	0x3ce9bcf2	0.028532479
231	0x3d67a583	0.05655433
232	0x3bcab038	0.0061855577
233	0x3d136c69	0.03599206
234	0xbd4e2b20	-0.050334096
235	0x3cf95b30	0.03043899
236	0x3d1c586b	0.03817026
237	0xbcb4edc0	-0.022086024
238	0xbd0c108b	-0.034195464
239	0xbc1ecc93	-0.009692329
240	0x3c37b3e2	0.011212321
241	0x3ca6bb44	0.020352967
242	0xbd85e355	-0.06537501
243	0xbd4be32d	-0.0497772
244	0x3d4aadd7	0.049482193
245	0x3d12ab5b	0.03580795
246	0xbb547a90	-0.0032421686
247	0x3d1b57dd	0.03792559
248	0x3d032c69	0.032024775
249	0xbd500ae6	-0.050791644
250	0xbaa75320	-0.0012765862
251	0xbaa8d620	-0.0012881197
252	0xbd1c2801	-0.03812409
253	0x3cf98994	0.03046111
254	0x3d061cde	0.032742374
255	0xbd09466d	-0.03351443

encoder.8.bias f4 [32]
0	0xbc4258d6	-0.011862
1	0xbd093770	-0.033500135
2	0xbca0450f	-0.01956418
3	0x3d4799d9	0.048730705
4	0xbc83a029	-0.016067581
5	0xbd49cf6b	-0.049270075
6	0x3d420485	0.04736759
7	0x3c07aeed	0.008281452
8	0xbc2fa334	-0.010720063
9	0xbd6b381c	-0.057426557
10	0xbcd0308e	-0.025413778
11	0xbb2d0120	-0.0026398376
12	0xbd61ab50	-0.055095017
13	0x3c76abf8	0.015055649
14	0xbd461eac	-0.048369095
15	0xbd7a4a7e	-0.061106198
16	0xbd6e539c	-0.058185205
17	0x3cdf34eb	0.027246913
18	0xbcb086c6	-0.02154864
19	0x3d292dc8	0.041303426
20	0xbcc0ad3e	-0.023520108
21	0xbd2c948c	-0.042133853
22	0x3d3137c8	0.043266088
23	0xbd6c5c24	-0.05770506
24	0xbd6c10f8	-0.05763337
25	0xbd3f66e7	-0.046728995
26	0x3b39c03a	0.0028343336
27	0xbd114932	-0.035470195
28	0x3ac2b0c0	0.0014853701
29	0xbcbad400	-0.022806168
30	0x3d0db7b0	0.034599006
31	0x3ca03f8c	0.019561552

decoder.1.weight f4 [32, 32, 3, 3]
0	0x3caf3d2e	0.021391477
1	0x3d31a44f	0.043369588
2	0xbc8933de	-0.016748365
3	0x3ca55446	0.020181786
4	0xbd65377e	-0.055961125
5	0xbd111530	-0.035420597
6	0xbc7d85c4	-0.015473787
7	0xbd1ccd70	-0.038281858
8	0xbc376520	-0.011193544
9	0xbd2a1fdd	-0.041534293
10	0x3d1967b3	0.03745241
11	0xbbbeaa98	-0.005818676
12	0xbcb8b6f4	-0.022548176
13	0xbc4f0cc0	-0.012637317
14	0xbcde583a	-0.02714168
15	0xbbb74278	-0.0055926405
16	0x3b440980	0.002991289
17	0x3c0d125c	0.008610334
18	0x3c7aa069	0.015297034
19	0x3c469dd4	0.01212259
20	0xbd45b96b	-0.04827253
21	0x3abf1d68	0.0014580907
22	0x3d632453	0.055454563
23	0xbd39c401	-0.04535294
24	0xbcab3a00	-0.02090168
25	0x3c887ad2	0.016660128
26	0x3cb267a2	0.021777932
27	0x3d3a7cb6	0.04552909
28	0x3bfe8398	0.007767152
29	0x3d70cd4f	0.058789548
30	0xbcf3bf8a	-0.029754419
31	0x3c8154f8	0.015787587
32	0x3c10ba2c	0.008833449
33	0xbd5c923c	-0.053850397
34	0x3d1482cd	0.036257554
35	0x3d0c8a81	0.034311775
36	0xbcce423a	-0.025178064
37	0xbc575a68	-0.013144113
38	0xbd45ae91	-0.048262183
39	0x3d3b7e4d	0.045774747
40	0xbd13de44	-0.03610064
41	0xbcee181a	-0.029064227
42	0x3d1738c9	0.03691939
43	0xbc79a8c9	-0.015237995
44	0xbc8008b4	-0.01562915
45	0x3b0fe028	0.0021953676
46	0xbd33f3ef	-0.043933805
47	0x3b84c142	0.0040513584
48	0x3c8bf67f	0.017085312
49	0x3d169f1e	0.03677284
50	0xbd0b37c5	-0.033988733
51	0x3d38e924	0.045144215
52	0xbcc86ffe	-0.024467465
53	0xbcc2ec66	-0.023794364
54	0x3b8d9668	0.0043209083
55	0x3c8fd585	0.017557869
56	0x3d25ad68	0.040448576
57	0x3cb57ee4	0.022155233
58	0xbd39e496	-0.045384012
59	0x3d64c652	0.055853195
60	0xbd15c88e	-0.036568217
61	0x3d6ee495	0.05832346
62	0x3d37ec22	0.04490293
63	0xbd430347	-0.047610547
64	0xbc212558	-0.009835564
65	0xbd5945da	-0.05304513
66	0xbce3fae3	-0.027829593
67	0xbc9e2f14	-0.019309558
68	0xbd205d5a	-0.039151527
69	0xbb68b050	-0.003550548
70	0x3d372c63	0.044720065
71	0x3d54ab79	0.05192134
72	0x3cdc32a4	0.026879616
73	0x3bc4666f	0.0059936563
74	0xbc9586a4	-0.018252678
75	0xbd214c77	-0.039379563
76	0x3d30805d	0.043091167
77	0x3d351921	0.044213418
78	0x3d6a700e	0.05723577
79	0xbd47c3fa	-0.048770882
80	0x3b3c36ca	0.002871918
81	0xbca7099a	-0.02039032
82	0xbc50a57c	-0.012734767
83	0x3ba55f38	0.0050467514
84	0xbbb41b08	-0.0054963864
85	0xbc087d10	-0.0083305985
86	0xbc506a44	-0.012720648
87	0xbd251da6	-0.040311478
88	0xbd48f568	-0.049062163
89	0xbd3f75f2	-0.04674334
90	0xbc4ec388	-0.0126198605
91	0xbc644320	-0.0139320195
92	0xbc476e88	-0.012172349
93	0xbd1df13e	-0.038560145
94	0x3cb7818a	0.022400636
95	0x3bf71c78	0.0075412355
96	0xbd1d4a45	-0.038400907
97	0x3d6658db	0.056237083
98	0xbd0be330	-0.03415221
99	0xbd635eba	-0.05551026
100	0xbbfbb5b0	-0.007681571
101	0x3d3a6d05	0.045514125
102	0xbc9ba10c	-0.018997692
103	0x3c0d924c	0.008640837
104	0x3c2487e4	0.0100421645
105	0x3d553b2f	0.052058395
106	0xbd015a82	-0.031580456
107	0x3d4bf8d9	0.049797866
108	0xbcc78504	-0.024355419
109	0x3d6a6853	0.057228398
110	0x3d2a3b97	0.041560736
111	0x3d4f7494	0.050648287
112	0xbc6498c8	-0.0139524415
113	0xbcaa3708	-0.020778194
114	0x3c1a661c	0.009423759
115	0xbceeee6b	-0.02916642
116	0x39caa800	0.00038653612
117	0x3c2afefc	0.01043677
118	0x3d034d7b	0.032056313
119	0xbd448715	-0.047980387
120	0x3ba413e8	0.005007256
121	0x3d1d21e5	0.038362402
122	0xbd4b42a4	-0.0496241
123	0xbbf2e560	-0.0074125975
124	0xbc7069a0	-0.01467362
125	0x3cd6c0c6	0.026214968
126	0x3c860d62	0.016363803
127	0xbcfa57db	-0.03055947
128	0xbd1fc9ca	-0.0390108
129	0x3d6eeff7	0.058334317
130	0xbbf87cd0	-0.007583238
131	0x3cbee8be	0.02330434
132	0xbbb8bd00	-0.005637765
133	0x3d3de3b5	0.046359736
134	0x3c8a1702	0.016856674
135	0x3d0fdf37	0.035124984
136	0xbb865ef8	-0.0041006766
137	0x3ac7aee0	0.0015234612
138	0x3d44ff3d	0.048094977
139	0xbd22620c	-0.039644286
140	0xbd6e1707	-0.05812743
141	0x3ca82e7a	0.020529974
142	0x3d56ab57	0.052409496
143	0xbd3db438	-0.046314448
144	0x3d3475c4	0.044057623
145	0xbd3153a9	-0.043292675
146	0xbcf584e9	-0.029970603
147	0x3ced06f7	0.028933985
148	0x3d579a6a	0.052637495
149	0xbd0ddde4	-0.03463544
150	0xbd027ed1	-0.031859223
151	0x3d3e979a	0.046531297
152	0x3c52f223	0.012875113
153	0xbd32d7fc	-0.04366301
154	0x3d168165	0.036744494
155	0xbb825644	-0.003977569
156	0xbd09037f	-0.0334506
157	0x3c8b501a	0.017005969
158	0xba3d6510	-0.00072248373
159	0x3d52af90	0.05143696
160	0xbc934784	-0.017978437
161	0x3c91528b	0.017739555
162	0xbd442f3d	-0.047896612
163	0x3b841f28	0.0040320344
164	0x3a7ec000	0.0009717941
165	0x3d0f4cd5	0.034985382
166	0x3a527e40	0.0008029677
167	0x3c9e10b2	0.01929507
168	0xbd31cd90	-0.04340893
169	0xbbd0bdc8	-0.00637028
170	0x3d347ec1	0.044066194
171	0x3cc1398b	0.023587009
172	0x3d2fd2ab	0.042925518
173	0x3d4e42c5	0.050356645
174	0x3d666728	0.05625072
175	0x3d1359d4	0.03597434
176	0x3cf12c4a	0.029440064
177	0x3cbe8e37	0.023261173
178	0xbca8aa24	-0.020588942
179	0x3d5c169a	0.053732492
180	0x3c9b6b6a	0.018972117
181	0xbcb2e5dc	-0.021838121
182	0x3d6e34bd	0.058155764
183	0x3d579e79	0.052641366
184	0xbc2807fc	-0.01025581
185	0x3d30a7f5	0.043128926
186	0x3cd37ea6	0.025817227
187	0xbaba8f20	-0.0014233328
188	0x3d3258b1	0.043541614
189	0xbcc9ef90	-0.024650365
190	0x3d037afd	0.032099713
191	0xbc13d918	-0.009023927
192	0xbce2ba09	-0.0276766
193	0x3aba8200	0.0014229417
194	0x3d1958c7	0.03743818
195	0xbd3a3f41	-0.04547048
196	0xbd183d77	-0.037167992
197	0x3bf44b98	0.0074553005
198	0x3bea5f02	0.007152439
199	0xbd1f6c55	-0.038921673
200	0xbd08931a	-0.033343412
201	0xbcc5238e	-0.024064805
202	0xbcd75422	-0.026285235
203	0xbba8fbc8	-0.005156968
204	0x3d313c6a	0.043270506
205	0xbd647471	-0.05577511
206	0xbd638c10	-0.055553496
207	0x3c94360e	0.018092182
208	0xbb3c70d0	-0.0028753765
209	0xbd2a469d	-0.04157125
210	0xbc1beb70	-0.009516582
211	0x3d0a9fcd	0.033843804
212	0x3d3a88d5	0.04554065
213	0xbca69c0c	-0.02033808
214	0xbd507966	-0.050897025
215	0x3c53e544	0.012933079
216	0x3cb53b8c	0.02212312
217	0x3c41629c	0.011803295
218	0xbd53af7a	-0.05168102
219	0x3c20df9c	0.009818938
220	0xbcb58748	-0.022159234
221	0xbd5e6898	-0.054298967
222	0xbcc3fd04	-0.023924358
223	0x3d481327	0.04884639
224	0x3c175e9c	0.009238865
225	0x3cc20498	0.023683831
226	0xbd33e8ec	-0.043923303
227	0xbd1f024c	-0.03882055
228	0xbb04e38c	-0.002027723
229	0xba1f4080	-0.000607498
230	0xbc32ac18	-0.010905288
231	0x3d32016b	0.043458384
232	0x3d5d94a7	0.054096844
233	0x3d179d71	0.037015382
234	0xbb652f80	-0.003497094
235	0x3cf57752	0.029964123
236	0xbcb443a2	-0.022004906
237	0xbc802922	-0.015644614
238	0x3d59cb2b	0.05317227
239	0x3cc4c6fa	0.02402066
240	0x3bad79b8	0.005294051
241	0x3cfcc4ce	0.030855563
242	0xbd048458	-0.032352775
243	0xbd51842a	-0.051151432
244	0x3ce05c39	0.027387725
245	0x3cf388d6	0.029728334
246	0x3d05cfbc	0.032668814
247	0x3cecc628	0.028903082
248	0xbcfaeabe	-0.030629512
249	0x3a7dac60	0.000967687
250	0xbd5189c7	-0.051156785
251	0xbd341280	-0.043962955
252	0x3d283602	0.04106713
253	0x3d28cb7b	0.04120968
254	0xbce480d7	-0.027893467
255	0xbd7177d0	-0.058952153

decoder.1.bias f4 [32]
0	0xbce25864	-0.027630039
1	0xbcd57179	-0.026055085
2	0x3d1c6851	0.03818542
3	0x3caae860	0.020862758
4	0xbd2cea5a	-0.042215683
5	0xbd32c599	-0.043645475
6	0xbd1ffb17	-0.039057817
7	0x3d47954b	0.04872636
8	0x3c50a7ee	0.01273535
9	0x3cffdd5b	0.03123348
10	0xbd58de08	-0.05294612
11	0xbd4d219e	-0.050080888
12	0xbd1282b4	-0.03576918
13	0xbcffcf4f	-0.031226782
14	0x3d147a3b	0.03624938
15	0xbd1d4975	-0.038400132
16	0xbd486e2c	-0.048933193
17	0xbd6619a7	-0.056176808
18	0xbd4b9b92	-0.04970891
19	0xbc8570f2	-0.016289208
20	0xbd3a68f9	-0.045510266
21	0xbd4fcfe4	-0.05073537
22	0x3c984f91	0.018592628
23	0x3c30263b	0.010751302
24	0x3bca29f4	0.006169552
25	0x3d420f1d	0.047377694
26	0x3cd04f46	0.025428426
27	0x3d593e17	0.05303773
28	0x3d285af2	0.041102357
29	0xbd0039a2	-0.031304963
30	0x3c1b72c5	0.009487812
31	0x3cb86bd4	0.022512354

decoder.4.weight f4 [16, 32, 3, 3]
0	0x3c70a0ac	0.014686745
1	0x3d0f873b	0.035041075
2	0xbb17d570	-0.002316799
3	0x3d00f31d	0.03148185
4	0x3bb4b728	0.005514998
5	0xbc3c3394	-0.011486907
6	0x3d07310b	0.033005755
7	0xbd073cc4	-0.033016935
8	0x3c015104	0.007892851
9	0xbce2a716	-0.027667563
10	0x3c29c52d	0.010361952
11	0xbd719f23	-0.058989655
12	0xbc6bae8a	-0.014384875
13	0xbd0976bb	-0.033560496
14	0xbc4b1918	-0.01239612
15	0xbd404ecc	-0.046950147
16	0xbacf5ac8	-0.0015819902
17	0xbc098a48	-0.008394785
18	0x3c351146	0.011051482
19	0x3d6581a2	0.05603183
20	0xbd4cb518	-0.049977392
21	0xbb977580	-0.0046221614
22	0x3ca4a1d2	0.020096693
23	0xbd6cafa1	-0.05778468
24	0x3d01cfdc	0.03169237
25	0xbd32321a	-0.04350481
26	0xbd7670b9	-0.060166094
27	0x3d66c098	0.056336015
28	0x3d6cfc2c	0.057857677
29	0x3d4c090b	0.04981331
30	0x3c20ad8f	0.009807005
31	0xbd1b265b	-0.037878376
32	0xbc2b1a46	-0.010443276
33	0xbd5abacb	-0.053400796
34	0x3d3e1b30	0.046412647
35	0xbd7121fa	-0.058870293
36	0x3cad75ce	0.021174338
37	0x3d04f97e	0.032464497
38	0xbc714ac9	-0.014727303
39	0x3d514070	0.051086843
40	0xbbc6a632	-0.0060622925
41	0xbd85697a	-0.06514259
42	0x3c9127ad	0.017719114
43	0xbd866c4c	-0.06563625
44	0xbd20aa1e	-0.039224736
45	0x3d117ea8	0.03552118
46	0x3cd416f7	0.025889857
47	0xbc13f9d5	-0.009031733
48	0xbd0ca619	-0.03433809
49	0xbc258382	-0.010102155
50	0x3d705671	0.058676187
51	0xbd1984ea	-0.037480272
52	0x3d690ab1	0.05689496
53	0x3cd84084	0.026397951
54	0x3cb29a52	0.021802101
55	0x3d5e507b	0.05427597
56	0x3d5ed019	0.054397676
57	0x3d17a465	0.037022013
58	0xbd1e1057	-0.0385898
59	0xbc882eaa	-0.016623814
60	0xbc63757c	-0.013882991
61	0xbcacda46	-0.021100175
62	0x3d6852ab	0.056719463
63	0xbd24724e	-0.040148072
64	0xbd704779	-0.05866191
65	0xbb2a1d20	-0.0025957301
66	0xbbe72c54	-0.007054845
67	0xbd38b3d8	-0.045093387
68	0x3ccc7fc2	0.024963263
69	0x3c57361e	0.013135461
70	0x3d5990a4	0.053116456
71	0xbd38d729	-0.045127068
72	0xba962760	-0.0011455826
73	0x3cbc2b6a	0.02296992
74	0x3d16c36f	0.036807474
75	0x3d32e8b8	0.04367897
76	0x3b4a3580	0.0030854642
77	0x3cf608ba	0.030033458
78	0xbd6adcdd	-0.057339538
79	0x3c9f4701	0.019443037
80	0x3c802662	0.015643302
81	0xbd0a57e4	-0.033775225
82	0xbd2b7dfa	-0.041868187
83	0xbd4d4b54	-0.050120667
84	0xbbf721e2	-0.007541881
85	0x3cd133d4	0.025537409
86	0xbb32f58c	-0.0027307002
87	0x3d448317	0.04797658
88	0xbd54860b	-0.051885646
89	0xbcd7005c	-0.026245289
90	0x3c3acba9	0.011401095
91	0xbc7d05bb	-0.015443261
92	0xbca808c8	-0.020512
93	0xbd1bacf5	-0.03800674
94	0x3d3ac769	0.04560033
95	0xbc947238	-0.01812087
96	0x3cf36fb1	0.029716345
97	0xbc6f34fe	-0.014600037
98	0xbcd28468	-0.025697902
99	0xbd3504e2	-0.04419411
100	0x3ab042a0	0.001344759
101	0xbcb42122	-0.021988455
102	0xbd1e8980	-0.03870535
103	0x3d59bec1	0.053160433
104	0xbd70a43e	-0.058750384
105	0x3d25c271	0.040468637
106	0xbd00252c	-0.03128545
107	0xbd03c725	-0.03217234
108	0xbcb54846	-0.02212919
109	0x3d0f2737	0.034949508
110	0x3cb00612	0.02148727
111	0x3d6a0817	0.05713662
112	0x3d58d2d3	0.052935433
113	0xbd611662	-0.054952987
114	0xbd476710	-0.048682272
115	0x3cd54202	0.026032452
116	0x3d2528f3	0.040322255
117	0x3ca9615a	0.020676304
118	0xbb91e7d8	-0.0044526868
119	0xbcfa46d4	-0.030551352
120	0xbd34557a	-0.04402683
121	0x3c27f054	0.01025017
122	0xbcc7afd8	-0.024375841
123	0x3cd55d26	0.026045393
124	0x3d25329d	0.04033147
125	0x3cc2a5c2	0.02376068
126	0xbd73abae	-0.0594899
127	0x3cdb1c5d	0.026746923
128	0xbd378eb3	-0.044813823
129	0x3b854e6e	0.0040681874
130	0x3d5bbc43	0.053646337
131	0xbd3fbea6	-0.046812676
132	0x3cbee128	0.023300722
133	0x3cf32738	0.029681787
134	0x3d11304e	0.035446458
135	0xbcd40d76	-0.025885325
136	0x3d50f82b	0.05101792
137	0x3c9b544a	0.01896109
138	0xbd52fcbb	-0.051510554
139	0xbcec16e6	-0.028819513
140	0xbc263430	-0.010144278
141	0x3cb53e36	0.022124391
142	0xbd715c70	-0.058926046
143	0xbd1cfba2	-0.038325913
144	0xbce13066	-0.027488898
145	0xbcc5f410	-0.02416423
146	0xbc3e97e8	-0.011632897
147	0x3c02bcec	0.007979613
148	0xbd4abfd7	-0.04949936
149	0xbcea0c1b	-0.028570225
150	0xbd42ba63	-0.047541033
151	0x3cb0b476	0.021570425
152	0x3d285b3d	0.041102637
153	0xbd00ad3c	-0.03141521
154	0x3cf424fa	0.029802788
155	0xbd4c8a46	-0.049936555
156	0xbc104d44	-0.008807484
157	0xbd6e846e	-0.058231764
158	0xbbc32238	-0.005955007
159	0x3c8c9382	0.017160181
160	0x3d6bb67b	0.057547074
161	0xbcfef673	-0.031123376
162	0xbcd77a8c	-0.026303552
163	0x3bda4498	0.006661009
164	0xbcbcb9ec	-0.023037873
165	0x3d6d8169	0.057984743
166	0x3d6363a3	0.055514943
167	0xbc445b04	-0.01198459
168	0xbd0e9576	-0.034810506
169	0xba9704a0	-0.0011521764
170	0xbd6115fe	-0.054952614
171	0x3d7017d2	0.058616467
172	0x3d753e7b	0.05987404
173	0xbce11ac3	-0.027478581
174	0xbcbec928	-0.023289278
175	0x3cf1804c	0.029480122
176	0xbd4cb86e	-0.049980573
177	0x3d2e2542	0.042516
178	0x3d5b59ba	0.053552367
179	0xbbdadb19	-0.0066789505
180	0xbcbf3a18	-0.023343131
181	0xbd24852a	-0.040166058
182	0xbd1e1dea	-0.038602747
183	0x3d3d4df3	0.046216916
184	0x3ad1fdc0	0.0016021058
185	0xbd578b0a	-0.052622832
186	0x3a0a44c0	0.0005274527
187	0x3d6a2e0f	0.05717283
188	0xbd152f28	-0.036421925
189	0x3d031a51	0.03200752
190	0x3c904afe	0.017613884
191	0x3be0a938	0.00685611
192	0xbc8da33e	-0.017289754
193	0x3d1aa619	0.03775606
194	0xbc57df48	-0.013175793
195	0xbd51b63c	-0.051199183
196	0xbcd8a0ea	-0.026443917
197	0x3d2f92df	0.042864677
198	0x3d256bf5	0.04038616
199	0x3cb163d5	0.021654049
200	0xbd259332	-0.04042358
201	0x3d33c305	0.043887157
202	0x3be6ad45	0.0070396983
203	0x3ccc48bd	0.024937028
204	0x3b9bbbe8	0.004752625
205	0xbb605039	-0.0034227504
206	0xbb0a7ea3	-0.002113261
207	0x3c99241a	0.018693972
208	0xbd00a352	-0.031405754
209	0x3c9f0a52	0.0194141
210	0x3d366553	0.044530224
211	0xbd63b038	-0.055587977
212	0x3c010104	0.007873777
213	0x3bfb95e8	0.0076777823
214	0xbc81bbf4	-0.015836693
215	0xbc3271c0	-0.010891378
216	0xbd0e90f4	-0.034806207
217	0x3bab9f0e	0.0052374667
218	0x3d2e9f32	0.04263229
219	0x3d2fb65a	0.042898513
220	0x3cc5d5a7	0.024149729
221	0x3d1cd24d	0.038286496
222	0x3d32ec52	0.043682404
223	0x3d0f715d	0.03502022
224	0x3d0c3310	0.034228384
225	0xbd1a6038	-0.037689418
226	0xba00b3e0	-0.0004909616
227	0x3c2b1577	0.010442129
228	0xbd2997fc	-0.04140471
229	0x3d4d31de	0.050096385
230	0x3c26c78c	0.010179412
231	0x3b9646dc	0.004586084
232	0xbd187b43	-0.037226927
233	0x3d4f1ed4	0.05056651
234	0xbcc34360	-0.023835838
235	0xbc5b870a	-0.013398895
236	0xbc09750e	-0.008389724
237	0xbccddb6e	-0.025129046
238	0x3ce03663	0.027369684
239	0xbd54d83e	-0.051964037
240	0xbbe866e2	-0.0070923427
241	0x3b541108	0.0032358784
242	0xbd111c02	-0.0354271
243	0xbb5fe314	-0.0034162449
244	0x3ccbaee0	0.02486366
245	0x3cd82374	0.026384093
246	0x3d1e6391	0.038669173
247	0xbcebd4a0	-0.028787911
248	0xbce19426	-0.027536463
249	0xbc91bfd8	-0.017791674
250	0xbd0f943a	-0.03505347
251	0xbca21618	-0.019785926
252	0xbd257ea3	-0.040403973
253	0x3ca70a78	0.020390734
254	0x3c8af0e2	0.016960565
255	0xbb84de10	-0.004054792

decoder.4.bias f4 [16]
0	0xbd62a492	-0.055332728
1	0x3d42e19a	0.04757843
2	0x3d8551a9	0.06509716
3	0xbb0e1018	-0.0021677073
4	0xbd50abb4	-0.050945
5	0xbd13a38c	-0.036044642
6	0x3d4f4f60	0.050612807
7	0x3d9a92f3	0.075475596
8	0x3d4a5f02	0.049407013
9	0xbd08d493	-0.03340585
10	0x3d875499	0.066079326
11	0x3d4eb276	0.050463162
12	0xbd5a4ae2	-0.05329407
13	0x3c9f01db	0.019410064
14	0x3d27c9e4	0.040964022
15	0xbceab2fe	-0.028649803
